LorenzSystem/TrainedModels/LSNNModel_FFT(Noise = Noisy).pth (torch, 73340 bytes, 8 tensors)

weight f4 [64, 3]
00000000: 5d42 dfbe c0ab 373b 7a45 adbd f3f2 083e
00000010: 35ab 583e 90ad de3d b4c1 043f 584e c9be
00000020: ef6c 023f f190 0abe 27ed 12bc 4217 433e
00000030: 9f8f eabe 4348 33be 5297 9e3e 98b3 703e
00000040: dc3e ff3e a046 d6be 0191 10be 9e4c cf3e
00000050: a490 e2be 23ee b6be b2ef 0cbe ac11 81be
00000060: 44af 073d e0c6 fd3e 71eb c53e f896 fc3e
00000070: bdda 033f b738 763e 59a9 32be e578 46be
00000080: d78d f83e c879 15bf 8839 d93e a524 153f
00000090: 7b2c 323e 28b2 11bf 824c 963e cdcd 1b3b
000000a0: 71ee 433e 9f2f d03e c4de fabe e77b 0f3f
000000b0: 303b 133f 2ab1 c63b 1edd 093f b2b0 c73e
000000c0: 23b7 a43e cb67 ea3e b34e f63c 3e96 cebd
000000d0: 514e 613c a750 bf3e 096e 623e 637f a13e
000000e0: 5412 0c3f 4f43 973e 9153 f13e d02d 99bd
000000f0: 200a e33e 6197 053e 9015 5abe 11a3 853e
00000100: 9b2c c53e 1981 a0be b46b 1a3e 1ea1 253c
00000110: b747 cabc 5ee3 053f cf96 273d f503 97be
00000120: 682e 663e e0a3 14bf 9c6b 9b3d b3c4 16bf
00000130: 632f 13be fa4a 283e 95c8 6a3e e748 a83e
00000140: 5d67 9cbe 09b6 003f 546f 093e 6e67 11be
00000150: e080 a6be f645 ea3e ea5a cfbe ca09 11be
00000160: 87b1 853e ef2b f43e 7c4e cebe d118 c0be
00000170: 6bb4 df3d 89ac e1be 60c2 a7be d1b0 8ebe
00000180: 18e6 efbe a5d1 16bf 08b3 52bb d09d 723e
00000190: edd2 0e3f 3d64 bebe 60b4 91be ae62 923e
000001a0: bb29 ac3d a112 113d a47a 62be c0f8 2ebd
000001b0: 0bbe 283c 3f91 f53e 046e 6b3e 21ca 0cbe
000001c0: 8964 dfbe 0350 8dbe 23f3 c03e 4947 94bd
000001d0: 235a 31be f87b e73e 24c2 813e 096e e13e
000001e0: 5d34 69be fa7e 0dbf 9d1b 193e cf25 e5be
000001f0: 41cf ba3e 2b21 b7bc a239 34be dd9b ef3e
00000200: 2286 98bd 92bc f0be f705 e3bc 8bc6 cb3d
00000210: 1475 02bf ed29 833e 9b15 cb3c 22a2 a43e
00000220: 0d84 b33e 7cad a03d 7153 203f 9267 f8bd
00000230: 5dbf 1bbe 850f e7be 3b2c fcbe 2bd1 bc3e
00000240: 9710 e23e 086f debe 8d42 4dbd 4a9b ce3e
00000250: fb97 af3e fb31 063f 20f9 d53e b10e 0b3f
00000260: b5c7 ff3e b78c 94be 97ec 8a3e ab0e 93be
00000270: 666e ac3e 124a 28bf 30dc c9be 0cd0 c93e
00000280: 7e8b 633d c988 a6be 77cd d33d 5d7b 18bf
00000290: c2b4 29be 6a18 953e 8223 95be 8c00 073f
000002a0: f8db 03be 7b51 6f3e 7d4f 7dbe 04fb c93e
000002b0: 7203 8dbd 3a2a f1bd 786f bdbe 848d afbe
000002c0: 08a5 093f 6503 ad3e 56a5 c73e b031 913e
000002d0: 0142 113f 03a2 7abe 0db5 fd3e c6ca fbbc
000002e0: a716 73be 0a9d 763e 82e8 503e ac90 bdbe
000002f0: 1e74 c03d 4ce9 bd3e 303a 0abf b4db 153f
-0.4360532 0.0028025955 -0.08460517 0.13373928 0.2115906 0.10872948 0.5185807 -0.39317584
0.5094747 -0.13531853 -0.008967674 0.19051841 -0.458127 -0.17508034 0.30974823 0.2350601
0.49852645 -0.41850758 -0.14117815 0.40488142 -0.44250977 -0.3572856 -0.13763312 -0.25208795
0.03312613 0.49565792 0.3865619 0.4933393 0.51505643 0.24045072 -0.17447414 -0.19382055
0.48545715 -0.5838895 0.42426705 0.5825904 0.1739978 -0.5691247 0.29355246 0.002377379
0.19133927 0.40661332 -0.48998082 0.56048435 0.5751219 0.0060636 0.53853023 0.39001995
0.32170972 0.45782313 0.030066824 -0.1008725 0.013751582 0.3736622 0.22112288 0.315425
0.54715466 0.2954354 0.4713407 -0.07479441 0.44343662 0.13046028 -0.21297288 0.26100972
0.38510594 -0.31348494 0.15080148 0.010109214 -0.0246924 0.5230006 0.040915307 -0.29495206
0.2247864 -0.58062553 0.07588884 -0.5889389 -0.14373545 0.16434851 0.22928078 0.3286812
-0.3054761 0.50277764 0.13421375 -0.14199612 -0.325202 0.457565 -0.4049905 -0.1416389
0.26112005 0.4768977 -0.40294254 -0.37518933 0.10923084 -0.44076946 -0.32765484 -0.27869275
-0.46855235 -0.5891364 -0.0032150168 0.23693013 0.557906 -0.3718585 -0.28457928 0.28590912
0.08406397 0.035418157 -0.22117096 -0.042717695 0.010299216 0.47962376 0.22991186 -0.13748981
-0.4363139 -0.27600107 0.376855 -0.07240159 -0.1731954 0.45211768 0.2534343 0.44029263
-0.22773881 -0.55271876 0.1495194 -0.44755408 0.36486247 -0.022354683 -0.1760011 0.46798602
-0.07447459 -0.47018868 -0.027712805 0.099499784 -0.509599 0.25617924 0.024790576 0.32154948
0.35061684 0.078455895 0.6262732 -0.121291295 -0.15209718 -0.45129028 -0.49252495 0.36878332
0.44153282 -0.43444085 -0.050112296 0.4035285 0.3429564 0.52420014 0.4179163 0.5431929
0.49957052 -0.29013607 0.2713363 -0.28722128 0.33677977 -0.6573802 -0.39425802 0.3941654
0.055552952 -0.32526234 0.10341924 -0.5956324 -0.1657286 0.2912019 -0.29128653 0.5273521
-0.1287688 0.23370926 -0.24737354 0.39449322 -0.06885423 -0.11775632 -0.36999106 -0.34287655
0.5376744 0.33791652 0.3899333 0.2835822 0.5674134 -0.24475865 0.49552193 -0.030736338
-0.2373911 0.24083343 0.20401195 -0.37024438 0.093971476 0.37092054 -0.5399504 0.58538365

bias f4 [64]
00000000: 8837 8bbc 7b3a 86be 42ec 063d 32ce c43e
00000010: 2f20 17be 5a78 01bf 51b6 713d d638 043f
00000020: c26e e1bd 33d9 8bbe cfe5 ffba 033c a1be
00000030: e303 86bc 7b24 ba3d 9fdc a53d 3622 133f
00000040: a233 5bbe d142 b1be e2cb 023f 9354 a73d
00000050: 374a b7be ffcb 013f 543f 193f d981 553f
00000060: 67ca 4c3d 7e33 0bbe e59c 9ebe ba8c 72bd
00000070: 915d c5be e9c2 fe3e 3d96 cebe d44b 26be
00000080: 7f94 93bd 6f5f a9bc 30f5 8ebe 6554 343f
00000090: e659 ce3e ebba 3a3e dd82 8bbd 577e fd3e
000000a0: 1a26 f1be d805 d53e eb91 3e3e 9740 a03e
000000b0: ec0f e2be 751c 3b3e 6daa e33d eea8 93be
000000c0: 5882 e73e 18fa 32be f33f fabd 7d0e 82be
000000d0: 5e04 1f3f dc36 bd3e 65ea 083f 2de9 fcbe
000000e0: 1263 413f a321 703f 6f2b ec3e 2057 913d
000000f0: b8da da3e 78ca 1b3e 6819 ac3e 1084 5fbe
-0.016994253 -0.26216492 0.032940157 0.38438565 -0.14758371 -0.50574267 0.05901176 0.51649225
-0.110074535 -0.27314147 -0.0019523444 -0.31491098 -0.016359275 0.09088989 0.08098721 0.57474077
-0.21406415 -0.3462129 0.5109235 0.08170428 -0.3579881 0.507019 0.59862256 0.83401257
0.049997713 -0.13593861 -0.30979076 -0.05921624 -0.38547948 0.4975808 -0.40348998 -0.16239864
-0.07206058 -0.02067539 -0.27921438 0.70441276 0.40302962 0.18235366 -0.068120696 0.49510452
-0.47099382 0.4160602 0.18610351 0.31299278 -0.44152772 0.18272574 0.111164905 -0.2883982
0.45216632 -0.17478216 -0.122192286 -0.2540168 0.6211604 0.36955917 0.5348266 -0.4939665
0.75541794 0.93801326 0.46126887 0.07096696 0.42744994 0.15213954 0.33613133 -0.21827722

weight f4 [128, 64]
00000000: aa60 debd 403f c33d 8ca3 05bd 506c 0a3e
00000010: 66f0 613d 569f 893c bf68 7c3d 821a 07ba
00000020: edf7 c33d a3ea 093e 4e5b 33bd b20e ce3d
00000030: 04ef 9cbd bbe2 013e 9036 333d cc99 8cbd
00000040: 97e3 173e 9d9c 593b 4bed 95bd 4914 4f3d
00000050: cc49 88bd 0233 00bd 3ec3 c1bc a1fc d03c
00000060: 2a26 623c 2542 df3d f4cf 05bd 5a07 003e
00000070: 254c 16bd 6026 df3d ee0d c13b 2be5 4d3d
00000080: 39b0 513c 4f7d 4a3d 2462 363e 93e3 64be
00000090: 468b 003e e26c 13be 4284 f3bd 5756 91bd
000000a0: 10cb dd3c 0c89 993d 5abb 493c 7dd6 04bd
000000b0: 4bcf 8f3d c60a a2bc 4cb8 02be 0837 b9bd
000000c0: 78a6 5bbb 7f38 f83d 81c0 0d3e 6f2d 06be
000000d0: c9f7 09bd cb62 4dbd afe9 753d d143 8abd
000000e0: c04e 7bbd 801e 11be d0b0 553c d270 b1bd
000000f0: 03ef 083e d4e3 8d3d 341b 81bd 1b9c 30bc
00000100: 4cff d2bc 605f 883c 6e7f 993d 1d4f 3fba
00000110: 3a17 86bc 8803 07bd 8864 bf3c 29d6 2e3d
00000120: 0629 413c 535f 1b3b 87cf cabd 5268 80bd
00000130: 6d3f 4a3c 3abe 8abd e70c 603d 07b9 a93d
00000140: 629f 37bd 2391 84bc be25 debc 522e d13d
00000150: 6299 d9bc 4be2 88bd d976 cc3c ad4f e0bd
00000160: 4254 bc3d b64e c43d 0499 543c 61f3 debd
00000170: c2b8 96bd 2d7a ca3d e2a5 a13c c745 1b3e
00000180: 1931 e43d 1958 64bd e714 3ebe c4a8 7f3d
00000190: b151 e93d f851 283e 5880 013e 4b1e 9abd
000001a0: cab8 18ba e6d2 933d 7eaf dd3c 1d2e ea3b
000001b0: 0b18 ccbd f9d6 76bd dd13 5a3e 46ce 78bd
000001c0: 5dae 223d 14a5 aa3d b817 753d 2afd 70be
000001d0: fd17 573e 89d6 13be 59f0 8ebc 02da 103e
000001e0: 4cd9 e53d d757 d7bc 3fcb 393d 8fca d6bd
000001f0: c49c a13b 6a79 edbc e08a 183c 5d38 d63c
00000200: 7dc2 50bd b90b 0a3e 7724 023e d0c0 98bd
00000210: a482 a5bd 03c0 123e 5074 973c cb4c dc3d
00000220: c716 b93d 2577 90bd 687a fcbd d7ad ae3d
00000230: 1fe0 d63d 6e6d 2abc 10a9 6dbd 7375 19bb
00000240: 1cf4 0a3e 0ea6 be3d 4eb0 a93d 0c4e d83d
00000250: 3d35 f03d 80fa 103e b781 063d 80a2 e43d
00000260: 7ece af3d bfd0 893d 65f3 1b3e 2ef5 043e
00000270: 7f44 5e3b 2f38 213d a34a bdbd 0c3f 8f3c
00000280: 0aba 4ebd 307c 323c e6d2 10be 8c16 d13d
00000290: 50d1 abbd 1f94 8d3d 703a e23d f60a de3d
000002a0: 9f85 0abd 9712 19be ed3a c43d 3cfd 01bd
000002b0: 319f 58be 5c95 22bc 877c 853e ca74 dfbd
000002c0: cf02 013e a586 4c3b aa7d d7bb 74d8 fabd
000002d0: 282d 9d3d 08ca b0bc a5c8 493d 2076 f83d
000002e0: 5617 3dbd 55d0 87bd b209 9d3d 4a8c 9fbc
000002f0: 8e50 c13c 1ace f2bd 8853 b7bd f1ee 513c
00000300: 0316 f7bb f7ba 62bd f983 d8bc 7bcc aa3d
00000310: 49e9 39bc 2695 8b3c 1757 d2bd a6e1 7dbd
00000320: 917e afbd 8ace 293d ab1b babc 46be 063d
00000330: 1157 18bb 2cba 383b 4c6b 24bc 1ad6 e03d
00000340: 8e4c c23d 6dd4 203d 858e b43d 033d fd3d
00000350: c709 20bd 469a ebbc 7015 3f3d 5278 4bbd
00000360: 89ac e03d 9f3b 3ebd de53 073e e3cb 59bc
00000370: edef 253c c6d0 56bd 75d5 27bc f285 1d3d
00000380: 15e3 623d d19d 8dbc 3a9b 42be a012 b8bd
00000390: 1552 a4bd 0f3c a3bd 4884 433d 1412 083e
000003a0: 9fc3 5dbd b753 3b3d 510a 21bd 5e4f a3bd
000003b0: a3a5 28be 5234 5abd cef8 173e 415f eabd
000003c0: 1302 913d 4dc6 183e 3e19 c53d 5b32 29be
000003d0: c420 2a3d 10ac a9bd 2687 dcbc 6fda a13d
000003e0: bad3 cf3b 01ee 95bd 7db3 053d e7fa 9bbb
000003f0: b531 d43d 5af1 343d bf1b d33d 3c0f 283d
-0.10858281 0.09533548 -0.032626674 0.1351788 0.055160902 0.01679961 0.06162333 -0.0005153791
0.095687725 0.13468413 -0.043788247 0.10061397 -0.07662776 0.12684147 0.043753207 -0.06865272
0.14832912 0.003320492 -0.07320651 0.050556455 -0.06654701 -0.031298645 -0.023652669 0.025511088
0.013803044 0.10901288 -0.032669023 0.12502804 -0.03669371 0.10895991 0.005891553 0.05026738
0.012798362 0.04943591 0.17810875 -0.22352438 0.12553129 -0.14397004 -0.118904606 -0.07096546
0.027074367 0.07496843 0.0123127345 -0.032431114 0.0702196 -0.019780528 -0.12765616 -0.090436995
-0.003351597 0.12120151 0.13842966 -0.13103269 -0.033683572 -0.050143044 0.06003731 -0.06751216
-0.0613544 -0.14171791 0.013042644 -0.08664097 0.13372426 0.069282204 -0.06304017 -0.010779406
-0.0257565 0.01664704 0.074950084 -0.00072978606 -0.016368497 -0.032962352 0.023363367 0.042684708
0.011789566 0.002370794 -0.09902864 -0.062698975 0.012344223 -0.06774564 0.054699805 0.08287244
-0.044829734 -0.016182488 -0.027117606 0.10213913 -0.026562396 -0.06683787 0.024959015 -0.10952697
0.091957584 0.095853254 0.012975935 -0.108862646 -0.073594585 0.098865844 0.01973242 0.15163337
0.11142177 -0.05574808 -0.18562661 0.062416807 0.113925345 0.16437519 0.12646616 -0.07525309
-0.00058258756 0.0721796 0.02706122 0.0071466104 -0.09965523 -0.060263608 0.2129664 -0.060743593
0.039717067 0.083322674 0.059837073 -0.23534074 0.21005245 -0.14437307 -0.017448591 0.14145663
0.11223087 -0.026287002 0.045359846 -0.10487854 0.004932018 -0.028988559 0.009310454 0.026149923
-0.05096673 0.13481034 0.12709223 -0.07458651 -0.08081558 0.14331059 0.01848808 0.107568346
0.090375476 -0.07053975 -0.12328035 0.08529251 0.104919665 -0.010402067 -0.05802256 -0.0023415952
0.13569683 0.09309016 0.082855806 0.10561761 0.117289044 0.14158058 0.03283855 0.11163807
0.08584307 0.06729268 0.15229566 0.12984154 0.0033915339 0.03936022 -0.092427514 0.017486118
-0.05047039 0.010893866 -0.14142951 0.102093786 -0.083895326 0.069130175 0.11046302 0.108419344
-0.033818837 -0.14948498 0.09581552 -0.031735644 -0.21154477 -0.009923305 0.2607157 -0.109109476
0.12598728 0.0031208184 -0.0065762596 -0.122483164 0.076746285 -0.021580711 0.049263615 0.121319056
-0.046164833 -0.06631533 0.07667865 -0.019476075 0.023597982 -0.11855717 -0.08951479 0.012813316
-0.007540466 -0.055354085 -0.026430117 0.08339783 -0.011347123 0.017038893 -0.10270517 -0.061982773
-0.085690625 0.041456737 -0.022718271 0.032896303 -0.0023245255 0.002818714 -0.010035347 0.10978337
0.09487258 0.039265085 0.08816246 0.12365153 -0.039071824 -0.028760087 0.046651304 -0.049675293
0.109704085 -0.046443578 0.13215587 -0.013293239 0.010128004 -0.052445196 -0.010243763 0.03845782
0.055392344 -0.017287167 -0.19004527 -0.089879274 -0.080234684 -0.0797044 0.047733575 0.13288146
-0.054141637 0.045734134 -0.03931648 -0.079741225 -0.16469435 -0.053272553 0.14841005 -0.114439495
0.07080474 0.14919396 0.09623955 -0.16523115 0.041535154 -0.082847714 -0.026919913 0.07902991
0.0063423784 -0.07320786 0.032641876 -0.0047601345 0.10361043 0.044175483 0.103080265 0.041030154

bias f4 [128]
00000000: 736c cabd 9816 2b3d cf9c 8fbd be2f babb
00000010: 3f9a 7e3d 677f 563d 4d28 95bd 649e cebb
00000020: f20c a8bd 7494 043e 6eb9 393d 67b8 de3d
00000030: c187 c2bd d27c a23d 28bc ddbd e90d 863d
00000040: 4df2 a7bd ccb3 0f3d 1ff5 d3bd b17a ea3c
00000050: b0e4 a9bd e38d 1cbd f5ce 19bd 7de4 313d
00000060: 6b4e dc3c fef4 8abd 801e 3a3d 9d2d c3bd
00000070: 3582 903d 46df ba3d fc22 833d 6896 a7bd
00000080: 8bdb f8bd a072 0e3e 3095 223d 4acb 013e
00000090: 4f2a cabd adec c4bd 4e38 ac3c 2fa4 a2bd
000000a0: 9fcf 93bc b355 0b3e bf61 833d 8694 413e
000000b0: a7a6 12bc 0286 a53c cad8 04be 284f 493d
000000c0: c785 103d 7577 4abb 30b3 993d d500 143e
000000d0: 2ed2 863d 4943 373e c2b6 c53d 0ef3 77bd
000000e0: 2bf9 5d3d e14f 61bd 6853 8ebe 6ff5 eabd
000000f0: 134f b7bd de49 fcbd d4d0 3bbd 8435 9fbd
00000100: 30b6 ac3d c0dc d23d c753 283d 3162 3e3d
00000110: 18c4 ef3d 5f17 b4bb bc9a c2bd d2df 223d
00000120: 595f b83c 341c 99bd 6702 033e 88dc 9e3c
00000130: 13dd 81be 19fb b63e 03cc 9f3d 5e1f 85bc
00000140: 31a3 093e 9bb0 833e cb64 9bbd 3c20 a03d
00000150: e85d 923d 4e9a 48bc bb95 0b3e 08bc d53d
00000160: 489b 143e a82e f5bd c138 96bd d62d c33c
00000170: 63f5 a93d cf7f 033d 25ec dc3d 789b d7bd
00000180: 0506 b53c 9067 d9bd 0a2a e3ba c097 8a3e
00000190: 4372 003e 9548 b13d a4b8 c93d 38d8 963c
000001a0: 06bf 063e 9031 ee3d 84a8 a43d 20b7 f0bc
000001b0: ba7a 973d f157 6ebd 030e 5a3d 15b6 acbc
000001c0: e15a b9bd e09f 5fbc 129e 863d 249d b5bd
000001d0: d0b8 db3c c121 123e f6b0 0a3e 0abd 49bd
000001e0: fc7f e93d 27bc 03be e593 3e3c 6b33 ac3c
000001f0: 883f da3c fa57 c33d 2d30 5b3d 74e1 f03d
-0.09883966 0.041769594 -0.07012331 -0.005681961 0.06215882 0.052367594 -0.072830774 -0.0063055027
-0.08205594 0.12947255 0.045342855 0.10875016 -0.09498549 0.07933964 -0.108269036 0.06545622
-0.08200512 0.035083577 -0.103494875 0.028622957 -0.08295572 -0.03822125 -0.037550885 0.043430794
0.026892861 -0.0678501 0.045439243 -0.095301844 0.07056085 0.09124617 0.06403157 -0.081829846
-0.121512495 0.13910913 0.039693058 0.12675205 -0.09871351 -0.09615455 0.021022942 -0.07941472
-0.018043337 0.1360691 0.06415128 0.18904313 -0.008950866 0.020205501 -0.12973323 0.049147755
0.03528383 -0.0030893956 0.075048804 0.14453442 0.06583057 0.17896761 0.09653999 -0.06053453
0.054192703 -0.05500782 -0.2779801 -0.11472594 -0.08950629 -0.123187765 -0.04585345 -0.07773879
0.08433187 0.10296011 0.04109552 0.04648036 0.11707324 -0.00549595 -0.095021695 0.039764233
0.022506403 -0.074760824 0.12793885 0.019392267 -0.2536398 0.35738447 0.07802584 -0.016250309
0.13441159 0.25720677 -0.07587584 0.07818648 0.071468174 -0.01224382 0.13631336 0.10436255
0.1451236 -0.119717896 -0.07335044 0.023825567 0.08298757 0.03210431 0.107872285 -0.105277
0.022097597 -0.10615456 -0.0017331254 0.270689 0.12543587 0.08656422 0.098496705 0.018413648
0.13158807 0.11630547 0.08039954 -0.029384196 0.07396455 -0.058189336 0.05323602 -0.021082917
-0.09050537 -0.013648957 0.06573118 -0.08867863 0.026821524 0.14270689 0.13544068 -0.049252547
0.11401364 -0.12864743 0.0116319405 0.021020612 0.026641622 0.095382646 0.05351274 0.11761752

weight f4 [64, 128]
00000000: 20a6 67bb 5fe4 223d dd4f d93d 764e 2abc
00000010: 2e3a 54be c20a 1a3e 0b26 e1bc 229b eabd
00000020: 2282 91bd a978 143c a7ca 6a3d 0f66 0dbe
00000030: 7ae5 b4bc bb17 a43c d0a2 153c 386a a0bd
00000040: ae60 3bbd 29b2 5e3e 5a7c d8bc ab9b 803d
00000050: 3c83 0d3c d570 e23d d982 73bd de3b d4bc
00000060: 4d54 ef3d f6ea cdbd 98f9 49bc 9546 36bc
00000070: 269a 5f3d cdbf 8cbd 2fb6 a0bd 308e 1dbd
00000080: 7c77 2f3e 5b98 02be e891 8dbc a498 033a
00000090: c0ce b0bd dfc8 fe3c 6984 1fbd 3574 5bbd
000000a0: c66e 483d 7d79 843c bc3d a8bd 43bc a6bd
000000b0: e0b0 6f3d 9ebb 59bc c897 a2bd d6c3 273d
000000c0: d33f 5a3e 3d7b 0d3d fb84 21bc 663c a13d
000000d0: 7e9e e9bd 37b3 d03d bb4a 88bd 7c91 74bf
000000e0: 741e 7f3e a766 60bd d1d0 6f3d 37bc 9abd
000000f0: fd32 21bd c150 983d e60e 2c3d ef08 43bd
00000100: 7999 5e3d 8b7d a7bd 4045 c1bc 601d c8bd
00000110: 3cb6 963d e873 11bf 4eb5 3fbd c4c2 38bd
00000120: c482 49bd 9a7e 8d3d 75c7 e33d 513e 9c3d
00000130: d011 1ebe 0782 713e f53f 41bd 7a79 af3c
00000140: 6e7a c3bc 48fd 783e f7da d93d 4a39 39be
00000150: c649 fc3c c04b 94ba 564a 65bd 7164 4cbd
00000160: f388 48bd e590 a73d 1b58 99bd 5fa4 5cbc
00000170: a1f7 56bd 3a5d e83d 3463 b83d 31fc 05bd
00000180: 55fa 8bbb 01e5 fa3c 65de e23c 9384 2c3e
00000190: 46d4 2ebd a5d0 8cbd 0f86 bebc 026f 82bd
000001a0: 5ccc a53d d01a 6c3d 7648 82bc 2007 173b
000001b0: 2a76 2d3e b886 b73b e253 a33d 86aa bfb9
000001c0: 706e 47be c466 f53c ec30 40bd 0eb0 713d
000001d0: 0e4c 16bd 0d9b e83c 46f8 2abb 2e4e a1bd
000001e0: 6936 833c c4aa 493e 00a2 ad3d 7245 5e3d
000001f0: 0c8e 2d3d 59d7 01bd 1c47 2cbe 17d0 3dbd
00000200: fab5 82bd faad a1bd 8148 b4bd e9de 413d
00000210: aecc 6a3d dbda 8dbd 112e a0bd 22be 43bd
00000220: 9b31 103c def4 ccbd d435 2a3d dcbf 81bd
00000230: 0afb a7bc e08b 573d 877f 10bd 0a03 4d3d
00000240: f398 a8bd 61ce 923b a221 b1bd 1801 f13c
00000250: 1d88 85bd a4a4 afbd 536f 683d 7bc9 953d
00000260: 6592 afbd 3b5f 193d cc75 7dbd 8cb0 95bd
00000270: 5607 b1bd 312e 7f3d fdaa 2d3c f6ea 503d
00000280: ebf8 79bd cb0c dc3b 6714 a33b c79b babd
00000290: 327e c53d 98fa df3c 96d2 413d 602b 00bd
000002a0: 82f5 783d 83f9 603d 0636 b9bd 4423 04bd
000002b0: f673 83bd ccf4 d93b 37c1 03bb 5d0e dcbb
000002c0: d88f c43c e389 d2bd 33f5 02bc 46ee 473d
000002d0: a38b 8e3d 8aae 923d b358 d73c accd df3c
000002e0: 87d2 513d 9cca 82bd 7692 213d 0d71 d63b
000002f0: 2659 b4bd 1464 92bd 0a89 8a3d 2e39 0abc
00000300: 07d9 903d 88c5 d6bd 1d52 fabc e931 f2bc
00000310: 4391 833d 386c 543c dbf1 b0bd 3589 48bd
00000320: 93c0 5fbd 633e 053d 078b fdbc 2475 c13c
00000330: e4e1 a13a fa4d 5f3d 9cae a1ba 0e1a a7bd
00000340: 1264 bd3c d3b4 523d c9bb 2d3d 5c83 7cbd
00000350: 685f 643d 6a29 d63c ff6f acbd 1111 2abd
00000360: 8952 85bd 308d a83c d8ba 6fbc 66eb 203d
00000370: 8a5c 90bd e51a cbbd a84d 8abb 9730 8f3d
00000380: 3db8 26bc a61b 083d a49e 913a 653e 8dbc
00000390: dafb bbbd 544b 8bbd 3b7f af3c ed10 8e3c
000003a0: 0efc fdbc 9dfd db3c 51dc 23bd cfbe a3bd
000003b0: 792b 223d 45e8 febc 0255 c7bd b3d5 293d
000003c0: d1f6 7fbd 30b8 f53b 90f2 363d 389b 813d
000003d0: 00b9 adbd 09ba 62bd 7757 99bd 1ba5 cd3b
000003e0: 752a 013d 6289 adbd 7bb8 3a3d def8 f93c
000003f0: 08a6 f4bc fc43 273d fa33 54bd 44db 12bd
-0.003534682 0.039768573 0.10610936 -0.010394683 -0.20725319 0.15043166 -0.02748396 -0.114553705
-0.07104899 0.009061971 0.05732217 -0.13808464 -0.02208208 0.020030847 0.009133056 -0.078327596
-0.045746498 0.2174765 -0.026426483 0.06279691 0.008637246 0.11056677 -0.059450958 -0.025907453
0.11686001 -0.10054581 -0.012327574 -0.0111252265 0.054590367 -0.068725206 -0.07847249 -0.03846568
0.17135423 -0.12753431 -0.017281488 0.00050199986 -0.086331844 0.031101642 -0.038944636 -0.05357762
0.048933767 0.016171211 -0.082149 -0.08141377 0.05851829 -0.01328936 -0.07939106 0.040958248
0.2131341 0.034541357 -0.009858365 0.07872848 -0.11407183 0.101904325 -0.06654879 -0.9553449
0.2491396 -0.054785397 0.058548752 -0.075554304 -0.039355267 0.074372776 0.042006396 -0.04761594
0.05434558 -0.08178242 -0.023592591 -0.09771228 0.07358977 -0.56817484 -0.046803765 -0.045107618
-0.049196973 0.06908913 0.11122028 0.076290734 -0.15436482 0.23584758 -0.047180135 0.02142023
-0.02386209 0.24315369 0.10637467 -0.1808826 0.030796897 -0.0011314079 -0.055979095 -0.049900476
-0.04895873 0.08181933 -0.07487508 -0.0134669235 -0.05248225 0.113459066 0.090032965 -0.03271121
-0.0042717853 0.030626776 0.027693937 0.16847448 -0.04268291 -0.06875733 -0.023257283 -0.06368829
0.08095619 0.057642758 -0.015903693 0.0023045018 0.16939607 0.0056007765 0.07974984 -0.0003655741
-0.19475722 0.029956229 -0.046921656 0.05900579 -0.036693625 0.028394246 -0.0026087924 -0.0787624
0.016017156 0.19694048 0.08478165 0.054265447 0.042371795 -0.031699512 -0.16824001 -0.046341028
-0.063823655 -0.078945115 -0.088028915 0.047331724 0.057324104 -0.06926509 -0.078212865 -0.047788747
0.008800889 -0.10007642 0.04155524 -0.063354224 -0.020505447 0.05262363 -0.03527787 0.050051726
-0.08232298 0.0044801687 -0.08648993 0.029419467 -0.06520102 -0.085763246 0.056746792 0.0731382
-0.085728444 0.037444334 -0.061879918 -0.07309064 -0.08643977 0.06229991 0.010599849 0.051005326
-0.061028402 0.006715392 0.0049767974 -0.091117434 0.096432105 0.027341172 0.04731997 -0.031291366
0.06078101 0.054925453 -0.09043507 -0.032260194 -0.06418602 0.0066514965 -0.0020104179 -0.0067155794
0.023994371 -0.10280206 -0.00799303 0.04881122 0.06960227 0.07162197 0.026287412 0.027319752
0.051226165 -0.06386301 0.039446317 0.0065442384 -0.08806066 -0.07147995 0.067644194 -0.008436484
0.07072645 -0.10486895 -0.030556733 -0.029564815 0.06424191 0.0129652545 -0.0863988 -0.048958976
-0.054627012 0.0325302 -0.030950082 0.023615427 0.0012350646 0.054517724 -0.0012335363 -0.081592664
0.023119006 0.05144198 0.042415414 -0.06164871 0.05575505 0.026142795 -0.08419799 -0.041520182
-0.06509883 0.020575136 -0.014631949 0.039286993 -0.070489004 -0.09917239 -0.004220683 0.0699169
-0.010175762 0.033229493 0.0011109901 -0.017241666 -0.09178896 -0.06801477 0.021422973 0.017342055
-0.031003978 0.02685433 -0.040005032 -0.07995378 0.03959224 -0.031116614 -0.09733011 0.041463565
-0.06249124 0.0074987635 0.04466492 0.06328434 -0.084825516 -0.0553532 -0.07487386 0.0062757856
0.03153463 -0.08473469 0.04558609 0.030514177 -0.029864326 0.04083632 -0.05180738 -0.03585364

bias f4 [64]
00000000: 5363 d23e 0267 03bd 11f4 e8bc f544 05bd
00000010: f8a2 403c 2025 9dbd 9f68 6abd c493 ac3c
00000020: 0881 d83d 59d8 bb3d 3aa3 53bd 5180 68bd
00000030: c429 103d 28ab 4bbb 2343 93bd cb3b a03e
00000040: 934e 163c dddc ae3d 9edd 0f3c 032f 16bd
00000050: 5b8c cdbc fae1 7ebd bab1 da3d 2fe5 c73c
00000060: ea96 d33d c46f 85bb f00d 42bd 4dc5 fcbb
00000070: 80a9 6bbd 2725 97bd e67a bcbb 1b54 c03c
00000080: f27e b6bd 5db9 953d 0fde ac3d be14 d93c
00000090: 653e ba3b 5a6a 84bd 877a de3b 3b61 0bbb
000000a0: a24c 9cbe b3c2 50bd ee6f 863d 20a4 1fbd
000000b0: 0f4a f93c 3738 82bc 81a6 bbbd 6d5c c73d
000000c0: a51c 02bd 763b 21bd b788 973d 14d0 16bd
000000d0: 3254 4f3c b71d 29bd acbc d1bd 7e8e 23bd
000000e0: 2118 8c3d 8eaf a03d 2f5b c33d 610f 523d
000000f0: 0caa dfbc 45dd 89bd c16d 0e3d 39d9 9c3d
0.41091403 -0.032080658 -0.028436692 -0.032536466 0.011757605 -0.07673097 -0.05722868 0.021066554
0.10571486 0.091721244 -0.051669337 -0.056762997 0.03519608 -0.003107736 -0.0719054 0.31295618
0.009174007 0.0853822 0.008780865 -0.036665928 -0.02509134 -0.062227227 0.1067843 0.024401275
0.10331519 -0.0040721614 -0.047376573 -0.00771395 -0.057534695 -0.07380133 -0.0057519553 0.023477605
-0.08910932 0.07310746 0.08440792 0.026499148 0.0056837075 -0.064655975 0.0067895087 -0.002126767
-0.30527216 -0.05096693 0.06564318 -0.03897488 0.030430822 -0.015895946 -0.091626175 0.09734426
-0.0317656 -0.039363347 0.07399123 -0.036819533 0.012654351 -0.041288104 -0.102410644 -0.039930813
0.0684054 0.078459844 0.09538876 0.051284198 -0.027302764 -0.06731657 0.03477264 0.076586194

weight f4 [3, 64]
00000000: 4589 03be f631 cbbd 5862 0abe 76f4 583c
00000010: 98d8 d43c 18cf b93d 7f68 3ebd 744e b8bc
00000020: a008 233d cfce 31be a252 513d 36c6 81bd
00000030: b37f fd3d cde9 d9bd 2359 ffbd 5f6a 72be
00000040: 3cb4 a5bd 5613 4ebd a5e9 7d3d c8b1 43ba
00000050: affe b93d 9070 3d3d 4f76 2c3d 3c56 30bc
00000060: 0bd4 1abe 7827 223d e888 21be 56f1 b1bd
00000070: ee2e 67bd 8b55 1b3d e91e acbd 6512 cd3d
00000080: b0c5 d0bd ce98 863d 47ff 8e3d c59a d43d
00000090: d1b0 a03d 2923 76bd f4cb 22be 9e7e adbd
000000a0: 8ceb 113d 36b3 11be d639 223d de88 66bd
000000b0: d267 4cbd 54c4 093e e6c3 abbd 5898 00be
000000c0: c2d6 393d b3b3 d4bc 0168 d53d 03d6 a1bd
000000d0: d942 aa3d b2c5 b53d 2777 bb3d a50e 483d
000000e0: 1476 6ebc 61a3 f6bd 39ce a9bd 3b46 62bd
000000f0: d5a4 c13d 30a8 a6bb 671b 8f3c 991a b33d
00000100: a81f d1be 9810 6cbd 5e58 4bbd 1a33 973d
00000110: f51a 063e 01fa 5cbd 4164 e03c a1c6 e3bd
00000120: 1730 203e 6ab6 09be b613 2ebc 6e23 813a
00000130: 9223 52bd f94b 94bd ddc0 a5bd f66b 85bd
00000140: cee3 b5bc e54f 95bd bad2 fe3d 0242 a2bd
00000150: cd83 72bc 29ca b83d d7d9 c7bd 1099 2dbd
00000160: db97 0bbe 178b e7bc a5bc 103d c9cb b23d
00000170: b830 0d3e 5d05 53bd 8f3e c03d 4185 07be
00000180: 7372 713d b27a 05be ef56 17be 8571 a13d
00000190: bd82 debd a424 a6bd 30d8 123c 019d b03d
000001a0: 48a9 9fbe 6726 a33d 7b3c a53d 544e b03d
000001b0: b4f8 76be eb6b 62bd 79a0 433c d3e5 9ebd
000001c0: 2ecd acbc 433b 8d3b f5e4 713d e559 c53d
000001d0: a373 dfbd 00e9 483c 35b4 34bc 2054 9c3d
000001e0: 60e5 0539 e44e 053e 503a ed3d 1526 5b3d
000001f0: 46ea 14be c1dc c03c 3bb1 ac3d b7d1 0bbd
00000200: b945 acbe dce2 b7bd cf15 d4bd 6104 4cbd
00000210: 356a 6f3d 9d60 e13b f206 17bd 6748 e5bc
00000220: f5f3 25bc 0d13 aabb 103f 91bd fbd1 a43d
00000230: b2b6 e5bc 34fa 39bd babe 8fbd b9a6 dcbc
00000240: 6999 37bc 6e05 923d f6b2 84bd 1f4f 603d
00000250: b467 6a3c b0b1 813c c880 ea3d ab11 d73c
00000260: ca31 e33d 85ac ce3d 9af8 1e3d 444d 88ba
00000270: 6448 9fbc 1b95 1a3c a7b9 bbbd d3d0 0a3e
00000280: 94f7 37bd 6d67 813d 74dc 1e3d 2dc0 bcbd
00000290: 500c 5dbd c521 683d 4103 663d 03ab 2ebd
000002a0: 414e 913d ffc8 083e d543 053d a981 e43d
000002b0: 9a38 7b3e 3a65 09bd 6982 a9bd d1fc 223d
000002c0: c2a6 143e 4142 ba3b d6a1 da3d 15ef b33d
000002d0: d627 063e 5aff 94bd 71de db3d 7452 3a3d
000002e0: 70df 0c3d ce23 35bd 7578 2c3d a7a6 5dbd
000002f0: f138 9dbd 77da 1a3d fd10 103e 7bf0 163d
-0.12845333 -0.09921639 -0.13514078 0.013241878 0.025982186 0.09072703 -0.046486374 -0.022498347
0.039803147 -0.17364047 0.051104195 -0.06336634 0.12377872 -0.10640297 -0.12468173 -0.2367339
-0.080910176 -0.05031141 0.0619904 -0.0007465151 0.0908178 0.046249926 0.042105015 -0.010762747
-0.1511995 0.03958842 -0.15774882 -0.08688609 -0.05644124 0.037923377 -0.08404333 0.10013274
-0.10193956 0.06572114 0.06982284 0.103810824 0.07846225 -0.060092125 -0.15898114 -0.08471416
0.035625026 -0.1422852 0.039605938 -0.05628287 -0.0499037 0.134538 -0.08386974 -0.12558115
0.045370825 -0.025964594 0.10420228 -0.079021476 0.083135314 0.08875598 0.09153586 0.04884209
-0.014554519 -0.12042881 -0.08291287 -0.05524276 0.09455267 -0.0050859675 0.017469121 0.087453075
-0.40844464 -0.057633013 -0.04964482 0.07382794 0.13096221 -0.05394936 0.027391555 -0.1112187
0.15643345 -0.13448492 -0.010624817 0.0009852478 -0.051303454 -0.07241053 -0.080934264 -0.065147325
-0.022203352 -0.07290629 0.12442537 -0.07922746 -0.014801932 0.09022934 -0.097583465 -0.0423823
-0.13632147 -0.028264565 0.035336155 0.08730275 0.13788116 -0.051518787 0.09386932 -0.13234426
0.058947038 -0.13035086 -0.14779256 0.0788298 -0.1086478 -0.081124574 0.008962676 0.08623696
-0.3118384 0.07966309 0.08068176 0.0860869 -0.2411831 -0.0552787 0.011940115 -0.07758679
-0.021093931 0.004310043 0.05905624 0.09636287 -0.10910728 0.012262583 -0.011029293 0.07633233
0.00012769317 0.13018376 0.11583388 0.053503115 -0.14542493 0.023542764 0.084322415 -0.034135547
-0.33646944 -0.08978817 -0.10355722 -0.049808864 0.058450896 0.0068779723 -0.036871858 -0.027988626
-0.010128965 -0.0051902593 -0.07092106 0.08047863 -0.028041217 -0.045404628 -0.070188 -0.026934968
-0.011206009 0.07129942 -0.064794466 0.054762956 0.014306951 0.015831798 0.11450344 0.026253542
0.11093481 0.10091499 0.038811304 -0.0010399004 -0.019443698 0.009434964 -0.0916627 0.13556223
-0.044913843 0.06318555 0.03878446 -0.09216342 -0.05396682 0.05667283 0.056155447 -0.04264356
0.07095004 0.13357924 0.032535393 0.11157543 0.2453331 -0.033543803 -0.08276827 0.039791886
0.14516738 0.0056841676 0.10675399 0.08785836 0.13101134 -0.07275267 0.10735787 0.04548879
0.034392774 -0.0442236 0.042107064 -0.05411401 -0.07676876 0.037806 0.1406898 0.036850434

bias f4 [3]
00000000: 1c42 06be 9420 f9bd f3d2 173d
-0.13111156 -0.12164417 0.03706641
