LorenzSystem/TrainedModels/LSNNModel(Noise = Normal).pth (torch, 73304 bytes, 8 tensors)

weight f4 [64, 3]
-0.0010291009 0.30338418 -0.15578875 -0.1559825 0.40389132 -0.22974595 -0.36127296 0.43208152
-0.084831566 -0.53131896 -0.1411209 0.23787852 -0.037623443 0.20279998 0.58674896 0.24947563
-0.3001472 0.1012197 -0.06974128 -0.3572213 -0.008477901 0.14995667 -0.1273691 0.058804262
-0.20488511 -0.11681097 -0.12105965 0.52624756 -0.18096744 0.48573 0.42651314 -0.3197895
0.18608642 -0.1901091 -0.4824822 -0.46166384 0.2355771 0.439774 -0.21634462 -0.3345378
0.49075338 -0.1028529 -0.1681787 0.18306212 0.061441395 0.32294023 -0.5037863 0.3631985
0.32684812 0.5249048 0.53881526 0.3390358 -0.01565051 -0.21687889 0.21133073 0.4153566
0.23819396 -0.17867355 0.5431654 -0.08234799 0.51657003 -0.04458273 -0.32043508 0.40580976
-0.43726975 0.09404525 -0.19984005 -0.45236585 0.3528665 0.2928365 -0.29615968 0.016603192
0.2837199 -0.04962708 0.095603436 0.3691142 -0.537348 0.34181455 0.4833171 -0.15295263
-0.16821167 -0.5293287 0.21271688 0.15995847 -0.14784345 0.043503724 0.10819328 0.1991372
0.1936841 -0.058657616 0.26023117 0.038181324 -0.016420193 -0.06312602 0.4952307 0.5552713
0.41524675 -0.4207823 0.49294946 -0.28276703 -0.2433608 0.2567771 0.4148095 0.5069281
0.08164216 -0.53176975 0.12256828 -0.05891188 -0.59174734 -0.012579533 0.05806514 0.4265456
0.34551996 0.4193682 -0.41828316 0.11359644 -0.060142566 0.05703878 0.10712949 0.5573861
0.03543025 0.48734403 -0.33319345 -0.5165202 -0.2286073 0.48558846 -0.44617826 -0.23318887
-0.097798415 0.15734313 0.36476767 0.55853415 0.6031688 -0.08349252 0.1156418 0.2518957
-0.44463047 -0.13355283 0.41155016 0.48989245 0.01212306 0.009100692 -0.2338603 0.10106253
0.2151598 0.46951845 -0.33420074 -0.21390435 -0.14384426 0.33419102 0.0456608 0.419981
0.1838916 -0.3288011 0.061175168 -0.5551008 -0.031793736 0.31646824 0.14930886 0.43572465
-0.17072695 0.029368116 0.03301942 0.5091296 0.4326341 -0.17853431 0.07600563 0.39881957
0.14462268 -0.4596854 -0.053277355 0.3096568 -0.50492996 0.4638261 0.077517636 -0.4906794
-0.16156809 0.4159907 0.45429772 0.40935418 -0.5801798 0.16885695 0.43047333 -0.6189326
-0.29415616 -0.4186525 -0.34815383 0.41284165 -0.012685058 0.20305751 -0.0040702154 0.27464244
00000000: e5e2 86ba 2c55 9b3e 1687 1fbe e0b9 1fbe
00000010: d8ca ce3e 8642 6bbe c5f8 b8be ca39 dd3e
00000020: 2cbc adbd 8504 08bf ff81 10be 6d96 733e
00000030: 0a1b 1abd ccaa 4f3e 2e35 163f 8a76 7f3e
00000040: e5ac 99be 464c cf3d 84d4 8ebd b6e5 b6be
00000050: e5e6 0abc 3e8e 193e 0c6d 02be bddc 703d
00000060: 67cd 51be 973a efbd 1fee f7bd 29b8 063f
00000070: 874f 39be 9ab1 f83e ee5f da3e 73bb a3be
00000080: 708d 3e3e f6ab 42be e807 f7be 345f ecbe
00000090: 203b 713e 0f2a e13e 7289 5dbe 8a48 abbe
000000a0: 0744 fb3e 8ba4 d2bd 0a37 2cbe a374 3b3e
000000b0: f9a9 7b3d 6c58 a53e 24f8 00bf 27f5 b93e
000000c0: a358 a73e 2960 063f ccef 093f 1a96 ad3e
000000d0: 8035 80bc 8015 5ebe 1567 583e 9fa9 d43e
000000e0: 1ee9 733e 33f6 36be e30c 0b3f 10a6 a8bd
000000f0: ef3d 043f 619c 36bd 1110 a4be 4cc6 cf3e
00000100: d2e1 dfbe cc9a c03d dfa2 4cbe 7f9c e7be
00000110: ebaa b43e aaee 953e 3ea2 97be 6b03 883c
00000120: bc43 913e c445 4bbd bccb c33d 89fc bc3e
00000130: a38f 09bf 5102 af3e 5775 f73e 9d9f 1cbe
00000140: ae3f 2cbe 1682 07bf 74d2 593e 27cc 233e
00000150: 4664 17be f630 323d 7094 dd3d 9fea 4b3e
00000160: 2055 463e f842 70bd 053d 853e 0564 1c3d
00000170: a483 86bc 3748 81bd e18e fd3e 4326 0e3f
00000180: 399b d43e c770 d7be df63 fc3e d7c6 90be
00000190: 9333 79be 4a78 833e e961 d43e 0ac6 013f
000001a0: 0134 a73d 1022 08bf 1405 fb3d 954d 71bd
000001b0: c17c 17bf 631a 4ebc b6d5 6d3d 2f64 da3e
000001c0: fee7 b03e 6eb7 d63e 3629 d6be 40a5 e83d
000001d0: 0d58 76bd 7fa1 693d b566 db3d dbb0 0e3f
000001e0: 4f1f 113d 2885 f93e 5598 aabe ab3a 04bf
000001f0: 0818 6abe 0d9f f83e 7a71 e4be 10c9 6ebe
00000200: 894a c8bd 8f1e 213e d4c2 ba3e 18fc 0e3f
00000210: 4569 1a3f 20fe aabd 9cd5 ec3d 79f8 803e
00000220: 9ba6 e3be 13c2 08be b4b6 d23e 2fd3 fa3e
00000230: cd9f 463c 121b 153c 1379 6fbe dff9 ce3d
00000240: da52 5c3e b964 f03e 5c1c abbe be09 5bbe
00000250: e94b 13be 161b ab3e d206 3b3d c007 d73e
00000260: 144e 3c3e 9e58 a8be d092 7a3d 161b 0ebf
00000270: 263a 02bd 2008 a23e 6ce4 183e 4d17 df3e
00000280: 0cd3 2ebe 6795 f03c 5f3f 073d 5156 023f
00000290: 3782 dd3e b3d1 36be d7a8 9b3d 1432 cc3e
000002a0: f817 143e e25b ebbe 5b39 5abd 568b 9e3e
000002b0: 1743 01bf 9d7a ed3e 91c1 9e3d 553a fbbe
000002c0: 1b72 25be bcfc d43e b699 e83e df96 d13e
000002d0: aa86 14bf d6e8 2c3e 0067 dc3e 5e72 1ebf
000002e0: a39b 96be 9f59 d6be 3841 b2be fb5f d33e
000002f0: fdd4 4fbc 4fee 4f3e 715f 85bb ef9d 8c3e

bias f4 [64]
0.76293516 -0.33864337 0.19843216 -0.42976937 -0.13978224 -0.20539409 -0.33300465 0.5820226
0.14241996 0.22033311 0.08123558 0.24753022 0.5042162 0.46467948 -0.3207478 -0.2869417
-0.32971975 0.66846496 -0.49369672 -0.07439968 -0.23842679 -0.4045491 -0.17670466 -0.1620296
0.5049782 -0.42078477 0.40847382 -0.020827202 -0.45795926 0.35366827 0.10664835 0.44709402
0.2735491 0.5113963 -0.38241988 -0.2556603 -0.0020748442 -0.37949923 -0.58074325 -0.20466293
0.16852668 -0.18217643 -0.28443387 0.3023108 0.09586225 -0.1243687 0.22902863 0.106146686
0.17594576 -0.28981066 0.016927844 -0.42763048 0.093688235 0.2596615 0.22384125 0.42838535
-0.05034402 -0.28520036 0.4666267 -0.51933044 0.24618377 0.5022751 0.48678824 -0.47260007
00000000: b84f 433f aa62 adbe cd31 4b3e bb0a dcbe
00000010: 1323 0fbe d452 52be 967f aabe 6fff 143f
00000020: 8ad6 113e 019f 613e d75e a63d 9078 7d3e
00000030: 5014 013f 78ea ed3e 0e39 a4be 06ea 92be
00000040: 07d1 a8be 8520 2b3f d1c5 fcbe dc5e 98bd
00000050: 2726 74be 0f21 cfbe 11f2 34be 16eb 25be
00000060: 4046 013f 1a71 d7be 7b23 d13e cf9d aabc
00000070: a379 eabe 0214 b53e 736a da3d 82e9 e43e
00000080: a10e 8c3e deea 023f 8acc c3be e8e5 82be
00000090: 1cfa 07bb b94d c2be 97ab 14bf 2993 51be
000000a0: 4292 2c3e 758c 3abe 51a1 91be 7bc8 9a3e
000000b0: 6d53 c43d 04b5 febd 7b86 6a3e 6f63 d93d
000000c0: 202b 343e 1062 94be 43ac 8a3c 62f2 dabe
000000d0: 9edf bf3d 5af2 843e a436 653e 5355 db3e
000000e0: 8835 4ebd c805 92be b2e9 ee3e d7f2 04bf
000000f0: 9917 7c3e 1a95 003f 4f3c f93e a3f8 f1be

weight f4 [128, 64]
0.037975784 0.15530577 0.14748679 0.0062715323 0.104560874 -0.097609706 0.09292648 0.032097302
0.00045303715 -0.074638106 -0.069085024 -0.1117389 -0.00015444358 0.17658424 0.13043481 -0.00034619516
-0.02617581 0.17464204 0.054450605 0.106238835 0.23284228 0.08473058 -0.06550541 -0.13175672
0.13068877 -0.056844424 0.20208874 0.07182295 -0.020430055 -0.017706482 -0.025478132 0.12510352
0.110398404 -0.054486893 0.023475822 -0.06638521 0.025729997 0.115296066 0.11134983 -0.02076028
-0.025006056 -0.07687733 -0.066226475 0.09536275 0.09367322 -0.024058595 0.0641329 0.04438971
0.10276206 0.05906917 0.023062548 0.038820982 0.048909426 0.070722714 0.030073058 0.105234824
-0.054421995 -0.000483805 -0.10404859 0.049425993 -0.006978636 -0.061981324 0.2156771 0.0092823645
0.060671564 0.10994728 0.20935786 0.0781547 0.10158378 -0.19427618 0.51939595 -0.10370164
0.53956026 -0.047464788 -0.017155122 -0.3299095 0.116745904 0.1022298 0.081683904 -0.13358743
0.06810671 0.22538954 0.07038617 0.10695985 0.19583108 -0.069758885 -0.01339373 -0.21994805
-0.0241168 0.06484135 0.35410795 -0.036455743 0.046378404 0.09842323 -0.00980583 -0.040757257
-0.09170691 0.11709661 -0.08607131 0.4977596 -0.018846292 -0.005224631 0.9529612 0.029835973
0.16609 -0.13383524 0.6448411 0.06438791 0.007689643 -0.38600686 0.033605393 -0.12109752
0.13488664 -0.021152431 0.102714516 0.108169645 -0.0743308 0.046314187 0.0083054425 -0.10374527
-0.124021165 -0.1372385 -0.44948 -0.013248428 -0.025281237 0.3472411 0.26187804 0.017944714
0.47318447 -0.13638955 -0.2352037 -0.027210874 0.051626645 -0.076480806 -0.04523762 0.10045281
0.12849055 0.121016875 0.04341653 -0.000784725 0.21139705 0.090054214 0.06228998 0.07163554
-0.012429279 0.016729046 -0.04237338 0.052616864 0.035890345 0.07570109 0.09992985 0.098588146
-0.03840058 0.039957073 -0.05551587 0.03545828 -0.08415817 -0.024229364 0.040306497 0.015639933
0.1247303 0.007997091 0.09931851 0.09383629 0.07471887 -0.05837531 -0.26773232 -0.06778393
0.15215093 -0.055208005 0.057460647 -0.077547535 0.1056224 0.21911256 -0.10355153 0.0063302945
0.3313317 0.022024026 -0.04372584 -0.018027008 0.0026913881 0.068719596 -0.12249526 -0.032662522
0.052452173 0.004479223 0.079154864 0.036957476 0.016206093 0.07796049 0.13644437 -0.027310997
-0.009509718 0.118783 -0.116809726 -0.090277 -0.1274041 0.085297 -0.10224084 -0.11207356
0.11019167 0.030553525 -0.027263293 -0.11438164 -0.08167425 0.13062716 0.057409234 -0.0069221104
0.036293935 0.08593674 0.10029333 -0.05745936 0.2687388 0.084890515 -0.13679838 -0.071543925
-0.07774399 -0.04220989 0.27297023 -0.0049845506 -0.08770729 -0.080638364 0.06458669 0.08027591
-0.12003966 -0.043825883 0.003705119 0.110660136 -0.13307774 -0.044749092 0.025330827 0.086783454
0.093620084 -0.044845145 -0.0877786 -0.014410547 -0.037127774 0.009738624 0.06413602 -0.06426658
0.08396649 0.021082388 0.0486188 -0.041646242 -0.009071778 0.08525485 0.014293144 0.07060747
-0.08626078 -0.045877125 0.19505458 0.10067349 -0.02477427 0.11654279 0.082522504 -0.13030984
00000000: 7f8c 1b3d 7a08 1f3e c706 173e 6d81 cd3b
00000010: 0324 d63d 99e7 c7bd 3d50 be3d 7678 033d
00000020: 9e85 ed39 dddb 98bd 737c 8dbd 5dd7 e4bd
00000030: 22f2 21b9 80d2 343e b490 053e 8781 b5b9
00000040: a76e d6bc 5dd5 323e 9907 5f3d bf93 d93d
00000050: 356e 6e3e 3a87 ad3d b327 86bd 3ceb 06be
00000060: 47d3 053e b3d5 68bd 5af0 4e3e e917 933d
00000070: ee5c a7bc 2f0d 91bc 84b7 d0bc 231b 003e
00000080: 8f18 e23d a62d 5fbd 5e50 c03c f8f4 87bd
00000090: b7c7 d23c 5820 ec3d 610b e43d 7611 aabc
000000a0: 80d9 ccbc dd71 9dbd bfa1 87bd 8c4d c33d
000000b0: bfd7 bf3d 8816 c5bc 1c58 833d fcd1 353d
000000c0: ea74 d23d 84f2 713d abed bc3c c002 1f3d
000000d0: 4055 483d 12d7 903d c65b f63c 5b85 d73d
000000e0: 99e9 5ebd 35a7 fdb9 6d17 d5bd e972 4a3d
000000f0: 0bad e4bb 21e0 7dbd 75da 5c3e 0f15 183c
00000100: bf82 783d 0a2c e13d e861 563e 920f a03d
00000110: 280b d03d 56f0 46be 22f7 043f 8761 d4bd
00000120: 9f20 0a3f 706a 42bd e688 8cbc e6e9 a8be
00000130: 7a18 ef3d db5d d13d e449 a73d 25cb 08be
00000140: 887b 8b3d 84cc 663e a026 903d c40d db3d
00000150: f187 483e bfdd 8ebd 6071 5bbc 103a 61be
00000160: 9890 c5bc 8bcb 843d a34d b53e 9e52 15bd
00000170: 48f7 3d3d 1e92 c93d a2a8 20bc 15f1 26bd
00000180: d5d0 bbbd 59d0 ef3d 2846 b0bd 59da fe3e
00000190: 8a63 9abc 6233 abbb 44f5 733f 926a f43c
000001a0: 7f13 2a3e 1b0c 09be 4e14 253f cfdd 833d
000001b0: 67f9 fb3b b1a2 c5be cfa5 093d fa01 f8bd
000001c0: b91f 0a3e dd47 adbc fd5b d23d 0c88 dd3d
000001d0: bf3a 98bd f2b3 3d3d 8d13 083c 6678 d4bd
000001e0: cffe fdbd 4088 0cbe 3e22 e6be ef0f 59bc
000001f0: 991a cfbc 96c9 b13e e114 863e cb00 933c
00000200: 3c45 f23e b4a9 0bbe 3dd9 70be 57e9 debc
00000210: 7676 533d f8a1 9cbd 154b 39bd 34ba cd3d
00000220: 0793 033e b2d7 f73d 88d5 313d 01b6 4dba
00000230: 7878 583e 586e b83d c723 7f3d a7b5 923d
00000240: 2da4 4bbc 5a0b 893c b68f 2dbd c884 573d
00000250: c101 133d 2c09 9b3d 05a8 cc3d 95e8 c93d
00000260: ed49 1dbd 07aa 233d 9c64 63bd b43c 113d
00000270: 1e5b acbd a97c c6bc 6d18 253d 511f 803c
00000280: 9972 ff3d 3b06 033c 8167 cb3d 3e2d c03d
00000290: 3506 993d f31a 6fbd 3614 89be 4dd2 8abd
000002a0: 74cd 1b3e ca21 62bd db5b 6b3d 3ed1 9ebd
000002b0: 8f50 d83d 0b5f 603e d312 d4bd 5c6e cf3b
000002c0: 4fa4 a93e bb6b b43c de19 33bd 60ad 93bc
000002d0: 0062 303b dcbc 8c3d cbde fabd 23c9 05bd
000002e0: 17d8 563d 72c6 923b f21b a23d b960 173d
000002f0: a4c2 843c c0a9 9f3d 13b8 0b3e 50bb dfbc
00000300: a6ce 1bbc 8044 f33d f039 efbd 26e3 b8bd
00000310: 3876 02be 32b0 ae3d a563 d1bd d386 e5bd
00000320: 2cac e13d 634b fa3c 4557 dfbc ec40 eabd
00000330: d444 a7bd 20c3 053e f225 6b3d dfd2 e2bb
00000340: f3a8 143d 9aff af3d 9766 cd3d 825a 6bbd
00000350: 2298 893e 14db ad3d e014 0cbe 9f85 92bd
00000360: 3e38 9fbd 47e4 2cbd c1c2 8b3e 7155 a3bb
00000370: e19f b3bd ba25 a5bd 0746 843d b267 a43d
00000380: 5ad7 f5bd c582 33bd 95d1 723b c8a1 e23d
00000390: 8845 08be d34a 37bd 9882 cf3c 86bb b13d
000003a0: e3bb bf3d 8baf 37bd 44c5 b3bd 371a 6cbc
000003b0: 4b13 18bd c08e 1f3c bf59 833d 329e 83bd
000003c0: a0f6 ab3d f9b4 ac3c 8224 473d 4095 2abd
000003d0: cba1 14bc 189a ae3d cb2d 6a3c a69a 903d
000003e0: 7ea9 b0bd a7e9 3bbd 63bc 473e e72d ce3d
000003f0: 69f3 cabc fcad ee3d 8f01 a93d f16f 05be

bias f4 [128]
0.12093101 0.18159182 0.042519283 0.068305574 0.0072407573 -0.05006385 -0.035609722 -0.038917758
-0.078721955 -0.06385943 0.1344178 -0.015675966 -0.015754674 0.10259233 -0.076885164 0.07628701
-0.04492277 0.09178639 -0.108519636 0.11133914 -0.06767482 -0.03799238 0.0115349945 0.03807151
0.10183275 -0.010079339 -0.053579003 0.14718008 0.01114459 -0.012886033 0.030884653 0.07980335
0.04689503 0.020816129 -0.10971345 0.1106066 0.026107738 -0.043178335 -0.06836732 -0.06273677
-0.009734956 -0.100143164 0.01640207 0.1065523 0.11314191 0.09280691 0.013282792 0.04358804
-0.09990341 -0.01719082 -0.055135816 0.31983972 -0.08070536 0.0115166 0.10577244 0.008945924
0.059274007 -0.0017850823 0.056239642 0.12306016 -0.13231783 0.09281952 0.10295483 -0.087415956
-0.024936922 -0.07087389 0.053516693 0.033225562 -0.06991332 -0.10928069 0.05749299 -0.03351538
0.07023633 0.06824936 -0.09030715 0.018238166 0.109039284 -0.0775037 0.07715904 0.08249868
-0.02939329 0.0011032268 0.100901134 0.03223839 0.047515437 -0.095082715 0.12578174 -0.046145853
-0.10128075 -0.092996664 0.05322175 -0.03992145 -0.10214259 0.084258884 0.14040828 0.06248668
0.12887965 -0.054321002 0.12766084 -0.08824717 0.044194408 -0.025271997 -0.020799601 0.091636606
0.008237407 0.07978702 -0.033664986 0.000536389 -0.1356259 0.107589714 0.11115855 -0.07821005
-0.030483335 0.027411416 -0.13573892 -0.024999376 -0.0718747 0.031782575 0.032547303 0.060977884
-0.13020198 0.104382284 -0.030056372 0.14383434 -0.017156366 -0.09777319 -0.01814044 0.03400506
00000000: adaa f73d 35f3 393e b328 2e3d cbe3 8b3d
00000010: e043 ed3b c00f 4dbd 80db 11bd 3a68 1fbd
00000020: fa38 a1bd bcc8 82bd d2a4 093e e26a 80bc
00000030: f20f 81bc ed1b d23d f875 9dbd 5d3c 9c3d
00000040: f000 38bd 81fa bb3d 8b3f debd c605 e43d
00000050: 1999 8abd e69d 1bbd 46fd 3c3c dff0 1b3d
00000060: b08d d03d d023 25bc a875 5bbd 60b6 163e
00000070: cc97 363c f11f 53bc d001 fd3c f06f a33d
00000080: 0115 403d 9686 aa3c 72b1 e0bd b785 e23d
00000090: e5df d53c c4db 30bd 2a04 8cbd 237c 80bd
000000a0: 5d7f 1fbc dc17 cdbd a25d 863c 1838 da3d
000000b0: f2b6 e73d 8d11 be3d 11a0 593c 5f89 323d
000000c0: 299a ccbd c3d3 8cbc 18d6 61bd 08c2 a33e
000000d0: da48 a5bd 1fb0 3c3c 399f d83d ed91 123c
000000e0: 4dc9 723d 6cf9 e9ba 8a5b 663d f706 fc3d
000000f0: 537e 07be 2918 be3d fbd9 d23d 2307 b3bd
00000100: 8448 ccbc 5426 91bd 5234 5b3d 8717 083d
00000110: b72e 8fbd 8ece dfbd c57d 6b3d 6c47 09bd
00000120: 11d8 8f3d 52c6 8b3d f4f2 b8bd 3568 953c
00000130: fd4f df3d 43ba 9ebd 8f05 9e3d 11f5 a83d
00000140: 32ca f0bc 269a 903a 41a5 ce3d 670c 043d
00000150: 8c9f 423d baba c2bd eecc 003e 6f03 3dbd
00000160: 486c cfbd 0975 bebd 0dff 593d ad84 23bd
00000170: 2230 d1bd ec8f ac3d 30c7 0f3e 08f2 7f3d
00000180: 07f9 033e b37f 5ebd 86b9 023e efba b4bd
00000190: 3205 353d 3807 cfbc ed63 aabc f9ab bb3d
000001a0: 30f6 063c 6167 a33d 4ce4 09bd 759c 0c3a
000001b0: 84e1 0abe ff57 dc3d 18a7 e33d 972c a0bd
000001c0: 30b8 f9bc e88d e03c 25ff 0abe 7ecb ccbc
000001d0: 0b33 93bd 722e 023d 5250 053d f2c3 793d
000001e0: ab53 05be 61c6 d53d c838 f6bc 4f49 133e
000001f0: 828b 8cbc 4f3d c8bd 439b 94bc e448 0b3d

weight f4 [64, 128]
0.054319065 -0.026548825 -0.0388542 0.073547676 0.07460178 0.049254842 -0.011568667 0.0029127232
0.09883303 0.050332475 0.029887507 -0.053565335 -0.051182523 -0.037320297 0.08824743 0.019282416
-0.03256588 -0.06512792 0.08914321 0.032732844 -0.045803025 -0.022025768 -0.050438814 0.07836689
-0.021330118 0.04444895 -0.018465608 -0.013598964 0.055994913 -0.067471676 0.044269435 0.026441343
-0.024823979 0.010173658 0.02928707 -0.8312969 0.09412084 0.06219302 0.0019600037 -0.029385919
-0.0135821635 -0.075095735 -0.020226534 0.07665581 -0.022396406 -0.02646376 0.024691625 0.10239423
0.056378666 -0.082311764 -0.038798746 -0.26184118 0.014479254 0.10505797 0.08607825 -0.007815459
-0.031241987 -0.016172772 0.027047101 0.082922846 0.050824486 -0.058461476 0.08691101 -0.031775426
0.038584482 0.06162382 -0.075302266 0.027499907 -0.059217956 0.019466242 -0.038214847 0.050491784
0.0860042 0.02776794 0.00094567984 0.0049522235 0.03860736 -0.07072746 0.044697035 -0.0123637235
-0.03350477 -0.060986064 -0.04112549 -0.0102666775 -0.0635714 0.0691794 0.09681749 -0.3338853
-0.06398655 -0.0473354 0.056661274 0.055158548 0.010658629 -0.0043395944 0.08533986 0.01302284
0.03216971 -0.026838632 0.060126245 -0.07952397 -0.05725584 -0.054681666 0.08878421 0.0275678
-0.0510352 0.07488926 -0.048925653 0.008088708 -0.018673688 0.09780533 0.051592804 0.012658544
0.09899806 -0.039397776 -0.020470476 -0.050421882 0.046404682 0.09915064 0.09987554 0.00089486974
-0.08279435 0.03183356 0.013934784 0.0986071 0.072246395 -0.0103615085 0.051542338 -0.016380694
-0.048393168 -0.06961565 0.16809107 -0.030585956 0.06111493 0.07593642 -0.06884568 -0.05340952
0.041824203 0.07759568 -0.04972312 -0.104330994 -0.093457274 0.026569702 0.05156514 -0.026595801
0.026136698 -0.021887101 0.0018607231 -0.08306527 0.06786873 0.018883262 0.01816103 0.055300687
-0.17105348 -0.033138137 0.052960195 0.067136765 -0.071280904 -0.05982349 -0.05160374 0.031335313
0.041148465 0.010704741 -0.098797336 -0.6383932 0.093431324 -0.048701618 0.019802852 -0.057649836
-0.08785535 0.059901305 -0.030578857 0.009359363 -0.004787281 0.012458291 0.1510755 -0.0151101565
-0.0039786133 -0.02520449 0.052081205 0.12719741 -0.07317163 0.13469094 -0.04493379 0.18236339
0.031027729 0.21757619 0.007494478 0.01209668 0.014140854 0.07903196 -0.01634917 0.05970329
0.045744922 0.09534732 -0.041638657 -0.016730096 0.0393609 0.16127425 0.01744921 0.10718208
-0.07858242 0.0740307 -0.006642364 -0.0040924833 0.008657001 -0.040199183 -0.0139426775 0.013028634
0.021841511 -0.031508636 0.0110423565 0.007895821 -0.09661849 -0.12044583 0.022354959 0.2051956
-0.03371274 -0.06743765 0.04118256 0.05907204 0.028816327 0.032025192 -0.07061997 0.043144785
-0.09108426 -0.09166672 0.15644348 0.037619524 0.08195538 -0.074325606 0.007787326 -0.029216023
0.08329478 0.032410607 -0.04937778 0.029174684 0.1599243 0.11928985 0.08655868 0.004834287
-0.020358799 0.05402624 -0.08878694 0.06736249 0.0732127 0.011772904 -0.05301012 0.08607008
-0.045399535 0.09290909 0.04450985 -0.019949887 -0.00018466474 -0.026132371 0.010511747 0.035033576
00000000: ab7d 5e3d ec7c d9bc 9525 1fbd 2aa0 963d
00000010: d1c8 983d 72bf 493d 828a 3dbc 63e3 3e3b
00000020: f968 ca3d 6d29 4e3d a5d6 f43c 5367 5bbd
00000030: c4a4 51bd 2bdd 18bd 12bb b43d 28f6 9d3c
00000040: cd63 05bd c961 85bd b790 b63d e012 063d
00000050: f49b 3bbd 626f b4bc ee98 4ebd d27e a03d
00000060: 80bc aebc 1a10 363d 3045 97bc 30ce 5ebc
00000070: ec5a 653d 972e 8abd de53 353d 849b d83c
00000080: a85b cbbc 6aaf 263c 70eb ef3c e0cf 54bf
00000090: 6dc2 c03d 1cbe 7e3d 6873 003b bdba f0bc
000000a0: b987 5ebc cbcb 99bd 1eb2 a5bc b9fd 9c3d
000000b0: ab78 b7bc 87ca d8bc 1746 ca3c 11b4 d13d
000000c0: 51ed 663d 1293 a8bd 6feb 1ebd 0c10 86be
000000d0: 653a 6d3c a228 d73d cb49 b03d 690c 00bc
000000e0: 32ef ffbc c37c 84bc e291 dd3c 74d3 a93d
000000f0: 562d 503d 4d75 6fbd 66fe b13d f326 02bd
00000100: c30a 1e3d 4269 7c3d 1338 9abd 7c47 e13c
00000110: 878e 72bd ab77 9f3c 2c87 1cbd 79d0 4e3d
00000120: f822 b03d 9779 e33c 80e7 773a 4346 a23b
00000130: c022 1e3d 8fd9 90bd 3d14 373d 3791 4abc
00000140: 4c3c 09bd 86cc 79bd 3473 28bd 9135 28bc
00000150: b931 82bd eead 8d3d 4048 c63d 04f3 aabe
00000160: 610b 83bd c4e2 41bd a715 683d eeed 613d
00000170: 88a1 2e3c 2833 8ebb aac6 ae3d c05d 553c
00000180: 63c4 033d b1dc dbbc f046 763d 77dd a2bd
00000190: 1a85 6abd e2f9 5fbd 7fd4 b53d ded5 e13c
000001a0: 490a 51bd 8a5f 993d 4466 48bd 8086 043c
000001b0: 90f9 98bc 294e c83d fa52 533d c865 4f3c
000001c0: 7fbf ca3d 905f 21bd b3b1 a7bc 2d87 4ebd
000001d0: d612 3e3d 7e0f cb3d 8c8b cc3d b195 6a3a
000001e0: 1690 a9bd e863 023d b84e 643c 85f2 c93d
000001f0: ebf5 933d 51c3 29bc 0f1e 533d ce30 86bc
00000200: ea37 46bd a692 8ebd 1120 2c3e 668f fabc
00000210: a653 7a3d 8e84 9b3d f7fe 8cbd f1c3 5abd
00000220: db4f 2b3d 7cea 9e3d 78aa 4bbd 7dab d5bd
00000230: 8766 bfbd b4a8 d93c f835 533d 70df d9bc
00000240: a11c d63c 944c b3bc 82e3 f33a 201e aabd
00000250: c3fe 8a3d 12b1 9a3c 71c6 943c f982 623d
00000260: a528 2fbe dbbb 07bd caec 583d 007f 893d
00000270: b9fb 91bd 7a09 75bd 715e 53bd 7559 003d
00000280: 4b8b 283d f062 2f3c 4256 cabd bd6d 23bf
00000290: ec58 bf3d 597b 47bd 9739 a23c 3c22 6cbd
000002a0: 81ed b3bd 125b 753d 8380 fabc 0358 193c
000002b0: a0de 9cbb dc1d 4c3c 89b3 1a3e 9790 77bc
000002c0: 075f 82bb a679 cebc 1a53 553d 0a40 023e
000002d0: 02db 95bd 6cec 093e 7e0c 38bd 78bd 3a3e
000002e0: dd2d fe3c 4bcc 5e3e 3d94 f53b 2731 463c
000002f0: 0aaf 673c 82db a13d b2ee 85bc 708b 743d
00000300: 075f 3b3d 7545 c33d 4c8d 2abd 8e0d 89bc
00000310: e538 213d 1425 253e a5f1 8e3c 4782 db3d
00000320: d2ef a0bd 689d 973d 30a8 d9bb 3d1a 86bb
00000330: 18d6 0d3c e6a7 24bd d46f 64bc 0d76 553c
00000340: f8ec b23c 330f 01bd 00eb 343c 795d 013c
00000350: eadf c5bd 4eac f6bd bf21 b73c cc1e 523e
00000360: 5f16 0abd c01c 8abd 0baf 283d 86f5 713d
00000370: 3810 ec3c d92c 033d 34a1 90bd 96b8 303d
00000380: 628a babd c3bb bbbd b832 203e ee16 1a3d
00000390: 39d8 a73d 0638 98bd d32c ff3b 7156 efbc
000003a0: 7496 aa3d fcc0 043d 5b40 4abd bfff ee3c
000003b0: 32c3 233e 3d4e f43d ad45 b13d f068 9e3b
000003c0: 7fc7 a6bc 9e4a 5d3d edd5 b5bd 58f5 893d
000003d0: 8af0 953d 23e3 403c 2421 59bd 8345 b03d
000003e0: ddf4 39bd 1f47 be3d f64f 363d f26d a3bc
000003f0: 90a2 41b9 8e13 d6bc 7639 2c3c 5e7f 0f3d

bias f4 [64]
0.09540478 0.07820173 -0.08670076 -0.02219819 -0.03208562 0.036418885 -0.075226046 0.00015555312
-0.022106878 0.054936524 0.08254639 0.033988792 -0.014347505 0.050001383 0.051701214 -0.05306421
0.0019883097 0.0046154447 0.13797565 -0.08265001 -0.03382127 0.00055784587 0.08056158 -0.04899026
-0.03454219 0.021902625 0.082831495 0.0126840575 -0.08233653 0.04704831 0.0059602214 0.09263658
0.07992728 -0.0371579 -0.054871462 -0.05153685 0.107128054 0.10525387 0.058930043 0.05356411
-0.098212436 0.031416636 -0.03410116 -0.024959024 0.102360725 0.03583311 0.018681666 0.06542873
0.10046713 -0.043449473 -0.021043887 0.051984467 -0.06432566 -0.052789386 -0.041769877 0.078842305
0.40990835 0.0807261 -0.023436755 0.12237118 0.07295951 -0.006272882 -0.026484827 0.022802908
00000000: 9563 c33d 3b28 a03d 2b90 b1bd fbd8 b5bc
00000010: 366c 03bd f82b 153d 1d10 9abd f91b 2339
00000020: 7c19 b5bc 1f05 613d 150e a93d d537 0b3d
00000030: cc11 6bbc 40ce 4c3d a7c4 533d db59 59bd
00000040: 4d4e 023b 283d 973b 7d49 0d3e 6944 a9bd
00000050: 2c88 0abd 673c 123a 78fd a43d 03aa 48bd
00000060: 1d7c 0dbd 226d b33c 8fa3 a93d cbd0 4f3c
00000070: 0ea0 a8bd bbb5 403d f64d c33b 3fb8 bd3d
00000080: eab0 a33d e232 18bd e6c0 60bd 4e18 53bd
00000090: f465 db3d 578f d73d a160 713d 0a66 5b3d
000000a0: 9a23 c9bd bbae 003d a8ad 0bbd de76 ccbc
000000b0: 80a2 d13d bdc5 123d 4b0a 993c 7fff 853d
000000c0: b6c1 cd3d 13f8 31bd 3b64 acbc aaed 543d
000000d0: 2cbd 83bd af39 58bd e416 2bbd 1378 a13d
000000e0: 82df d13e ba53 a53d 70fe bfbc be9d fa3d
000000f0: cc6b 953d c08c cdbb b5f6 d8bc 2acd ba3c

weight f4 [3, 64]
0.082274094 0.21616186 -0.09426301 0.005707943 -0.008749255 0.048371654 0.10422528 0.064146124
-0.15732107 0.12865518 -0.09590945 -0.14385226 -0.16960123 -0.041890156 0.0015067027 -0.089853615
0.14195488 0.04214354 -0.0040979 0.12228845 0.108632445 -0.06636213 0.055068422 0.0010543077
-0.1405923 -0.028691316 -0.077556714 -0.05372275 0.012227565 -0.02278148 0.02211382 -0.068210304
-0.12758142 -0.042725842 0.052901097 -0.086885154 0.12454683 0.0471905 0.08295162 -0.06373878
-0.011481866 0.021298708 0.04597322 -0.085615486 -0.06867867 0.04694371 -0.09875828 -0.08870816
0.036157146 -0.030855715 -0.08803867 0.11614111 0.10312863 -0.09511963 0.15787382 0.01748027
0.025902586 -0.12431452 -0.1319747 -0.14480992 0.05764053 0.06454362 0.029154986 -0.087848
-0.019170403 -0.18460162 0.045991298 -0.12056102 0.093292624 -0.11106409 -0.030733848 -0.0972524
0.029740782 0.09934395 0.022106439 0.09272255 -0.11553852 -0.105197385 -0.06184615 0.07956948
0.078965954 -0.09767154 0.11971967 -0.06592627 0.015104756 -0.07113303 -0.030258197 -0.0032698219
0.030991482 -0.02315837 0.049574066 -0.039194137 0.028466284 -0.049408477 0.10336195 0.04808909
-0.10999869 -0.04847154 0.07934122 0.06405713 -0.19327518 0.13288024 -0.089520924 -0.07147832
0.13640562 -0.06417563 0.083548665 -0.065604754 -0.0034118483 -0.02930976 0.1112252 0.072089314
0.07923979 0.061648324 0.030392192 -0.013354395 0.030583903 0.01663983 0.08429577 0.101580285
0.021048196 -0.12914346 0.01942768 -0.117458716 0.008031455 -0.09902419 -0.102503896 -0.12058961
0.09868114 -0.074396804 -0.05975509 0.041468643 0.14880434 -0.11306757 -0.068237305 0.038699396
-0.071127035 0.09594622 0.032406583 0.05569148 0.04547108 0.113776766 0.12522286 -0.077283464
0.10624241 0.07601049 -0.07093345 -0.0029219538 0.14161512 0.03739806 0.055007137 -0.035977602
0.062856756 -0.07942277 0.0883599 -0.10691437 0.06927928 0.084044166 -0.017300177 0.1406464
0.027655033 0.11399877 0.05869399 -0.03158994 -0.10662344 0.020449754 -0.09962602 0.14185399
-0.081296965 -0.024683667 -0.054510426 -0.069807 0.04431041 0.02922885 -0.041413244 0.0038799816
0.07755165 -0.06437429 0.0701699 -0.030486284 -0.03737235 -0.007614969 0.024311583 -0.17548703
-0.28209716 0.048466492 -0.09446822 -0.007950835 0.13021046 -0.00512293 -0.09573191 0.00045525626
00000000: 527f a83d 8959 5d3e f70c c1bd b209 bb3b
00000010: 0959 0fbc 5b21 463d 1074 d53d 0b5f 833d
00000020: c618 21be 2fbe 033e 2c6c c4bd 024e 13be
00000030: f2ab 2dbe 0395 2bbd 8e7c c53a 2c05 b8bd
00000040: 9f5c 113e b49e 2c3d ad47 86bb 5e72 fa3d
00000050: b07a de3d dee8 87bd 6d8f 613d b230 8a3a
00000060: 6ef7 0fbe 0d0a ebbc 0ed6 9ebd 630c 5cbd
00000070: 2056 483c 3aa0 babc 0b28 b53c d8b1 8bbd
00000080: b4a4 02be 4b01 2fbd d2ae 583d d8f0 b1bd
00000090: 6912 ff3d d34a 413d 8ae2 a93d 7a89 82bd
000000a0: 701e 3cbc a17a ae3c 6a4e 3c3d 2c57 afbd
000000b0: 67a7 8cbd 0c48 403d c841 cabd a0ac b5bd
000000c0: 8419 143d 20c5 fcbc 9e4d b4bd 64db ed3d
000000d0: 1a35 d33d 15ce c2bd ada9 213e c832 8f3c
000000e0: a931 d43c 9c98 febd 6024 07be 0d49 14be
000000f0: 7a18 6c3d 722f 843d 70d6 ee3c a7e9 b3bd
00000100: 400b 9dbc 3508 3dbe 5f61 3c3d b2e8 f6bd
00000110: 3410 bf3d 9275 e3bd 8dc5 fbbc 442c c7bd
00000120: f1a2 f33c d774 cb3d 9018 b53c 52e5 bd3d
00000130: 769f ecbd ba71 d7bd 6352 7dbd 53f5 a23d
00000140: e7b8 a13d 0408 c8bd 962f f53d 5a04 87bd
00000150: f079 773c 32ae 91bd 0ae0 f7bc 824a 56bb
00000160: d9e1 fd3c 9fb6 bdbc 2d0e 4b3d 088a 20bd
00000170: 2032 e93c 8b60 4abd 6eaf d33d 11f9 443d
00000180: fe46 e1bd 188a 46bd a67d a23d 6230 833d
00000190: eee9 45be c211 083e bf56 b7bd 3a63 92bd
000001a0: eaad 0b3e 836e 83bd 901b ab3d c95b 86bd
000001b0: 5199 5fbb 061b f0bc 0aca e33d 90a3 933d
000001c0: 7948 a23d f482 7c3d 0cf9 f83c 64cc 5abc
000001d0: 188b fa3c 4150 883c 43a3 ac3d 5309 d03d
000001e0: 446d ac3c 2f3e 04be cc26 9f3c 328e f0bd
000001f0: 5d96 033c 32cd cabd 90ed d1bd aff7 f6bd
00000200: 5619 ca3d 5a5d 98bd c1c1 74bd 06db 293d
00000210: 2a60 183e f88f e7bd 00c0 8bbd 4283 1e3d
00000220: 0dab 91bd 747f c43d c4bc 043d c01c 643d
00000230: e23f 3a3d cb03 e93d 6c3a 003e cb46 9ebd
00000240: 9f95 d93d 63ab 9b3d 8e45 91bd 407e 3fbb
00000250: 8e03 113e b52e 193d 2a4f 613d 405d 13bd
00000260: 0bbb 803d 68a8 a2bd 09f6 b43d ecf5 dabd
00000270: 4ce2 8d3d 591f ac3d 1ab9 8dbc 9c05 103e
00000280: cf8c e23c 3078 e93d 1c69 703d 7464 01bd
00000290: 645d dabd 3e86 a73c ba08 ccbd 2c42 113e
000002a0: 067f a6bd 6735 cabc 5346 5fbd f9f6 8ebd
000002b0: d57e 353d 5771 ef3c efa0 29bd 4a47 7e3b
000002c0: 66d3 9e3d abd6 83bd 3db5 8f3d 5fbe f9bc
000002d0: c013 19bd fd86 f9bb 1629 c73c dfb2 33be
000002e0: 0a6f 90be cd84 463d 8e78 c1bd 3844 02bc
000002f0: e455 053e 40de a7bb 170f c4bd 76af ee39

bias f4 [3]
0.025323056 -0.11732581 0.11754444
00000000: 4c72 cf3c 8448 f0bd 24bb f03d
