LorenzSystem/TrainedModels/LSNNModel(Noise = Noisy).pth (torch, 73292 bytes, 8 tensors)

weight f4 [64, 3]
-0.5842921 0.5185419 0.29778597 -0.0013490136 0.24634238 -0.052789237 0.4926063 0.042627376
0.37927783 -0.19072208 -0.44218436 0.08346527 -0.0156235285 0.057643425 0.23143995 -0.42636883
-0.51641196 0.43436828 0.15456784 -0.48834267 0.42449653 0.19941947 0.38145974 0.22085603
0.33338284 -0.047379024 0.1407002 -0.5306422 0.04120011 0.4507851 -0.03626468 0.55107194
-0.29903212 -0.48941663 0.40562674 0.5028292 0.10768427 0.0005876531 0.1949995 0.12093873
-0.38078442 0.36757502 0.20074107 0.09051302 -0.36285204 0.4160574 -0.4848114 0.47079182
-0.33988473 -0.40984267 0.3593431 0.2040957 0.08497866 -0.33754873 -0.24654526 -0.5192721
-0.32469103 0.8200774 -0.26541036 -0.27141672 -0.07695959 0.058724716 0.019873071 0.72120064
-0.13676834 -0.1762574 0.046281476 0.14320518 -0.025139544 -0.017182698 -0.24906586 0.5418167
-0.23331761 -0.3294091 0.5356931 0.58659244 0.35152063 0.46967804 0.08185344 -0.273642
0.021562053 -0.26008403 -0.30531764 -0.16066375 0.5145996 -0.08438424 -0.17214824 -0.4711699
-0.11541188 0.31277692 0.5812168 0.06793286 -0.39926106 -0.43851152 -0.51233965 0.4532486
0.02153498 -0.1862863 0.5936238 -0.39556584 -0.25003287 0.4466948 0.2992204 0.3869224
-0.32309446 0.14467688 0.2609126 0.38313162 -0.1675722 -0.04262259 -0.038964417 0.007958652
-0.45207968 0.3476489 0.26636794 0.52973855 -0.17485367 0.39656997 0.5290983 -0.47854584
-0.10209744 -0.42764336 -0.356242 -0.13932234 -0.4252991 -0.19480889 -0.15623105 0.2825309
-0.056819964 -0.19954461 -0.118197 0.42754194 -0.08387386 0.18262333 0.037492905 0.3913427
0.08231872 -0.3484986 -0.32830676 0.44808802 0.55647445 -0.045444254 0.22583455 0.5341715
0.33197883 0.39485985 -0.260352 -0.50784624 0.37150794 0.2290827 -0.5168821 -0.5552578
0.45780173 0.24306388 0.29552624 0.58076376 -0.33321503 0.28407308 0.44433627 -0.08780685
-0.3754353 0.39341578 0.31993034 -0.19077076 0.41911572 0.10731665 -0.14894883 0.14812623
0.3258105 0.10772066 -0.30401728 -0.16366966 0.27656904 0.3981163 -0.32685843 -0.24813129
-0.41053957 -0.4621956 -0.5871576 0.20914258 0.08570914 0.17425366 -0.09088128 0.21084483
-0.40750414 -0.023369463 0.01644544 0.38763583 -0.46866113 -0.22043616 -0.51137245 0.15952176
00000000: 2b94 15bf 29bf 043f 6777 983e 63d1 b0ba
00000010: 2d41 7c3e 8739 58bd e536 fc3e 0b9a 2e3d
00000020: b430 c23e a64c 43be fd65 e2be d7ef aa3d
00000030: d4f9 7fbc 831b 6c3d 98fe 6c3e 044d dabe
00000040: 9333 04bf 8565 de3e 0847 1e3e 0d08 fabe
00000050: 9c57 d93e 9e34 4c3e b14e c33e 1528 623e
00000060: 28b1 aa3e 8210 42bd b713 103e 2bd8 07bf
00000070: 72c1 283d 4ecd e63e 468a 14bd 0d13 0d3f
00000080: bd1a 99be d194 fabe 4fae cf3e 6ab9 003f
00000090: 9289 dc3d bb0c 1a3a f3ad 473e baae f73d
000000a0: 2df6 c2be cb32 bc3e 118f 4d3e e45e b93d
000000b0: bec7 b9be 7a05 d53e 3339 f8be a00b f13e
000000c0: 5f05 aebe e6d6 d1be d2fb b73e 77fe 503e
000000d0: 4b09 ae3d 30d3 acbe 5c76 7cbe 04ef 04bf
000000e0: e73d a6be 98f0 513f dee3 87be 22f7 8abe
000000f0: fd9c 9dbd 5489 703d dacc a23c 9ba0 383f
00000100: 000d 0cbe d27c 34be a591 3d3d 61a4 123e
00000110: 72f1 cdbc bbc2 8cbc 1f0b 7fbe 80b4 0a3f
00000120: d0ea 6ebe 4fa8 a8be 2f23 093f ec2a 163f
00000130: 83fa b33e a479 f03e c7a2 a73d ce1a 8cbe
00000140: e7a2 b03c bc29 85be 9852 9cbe 0a85 24be
00000150: cdbc 033f a5d1 acbd a147 30be 2e3d f1be
00000160: 105d ecbd 4c24 a03e a0ca 143f 6220 8b3d
00000170: f26b ccbe 9584 e0be b128 03bf 3310 e83e
00000180: 206a b03c d6c1 3ebe bbf7 173f 9b87 cabe
00000190: 4f04 80be 2eb5 e43e 6b33 993e b11a c63e
000001a0: a36c a5be 2d26 143e 5696 853e d429 c43e
000001b0: 0c98 2bbe 0695 2ebd 2799 1fbd 0265 023c
000001c0: fd76 e7be 09ff b13e 6161 883e f29c 073f
000001d0: d70c 33be 380b cb3e fc72 073f f603 f5be
000001e0: 7618 d1bd 12f4 dabe 5a65 b6be 84aa 0ebe
000001f0: cec0 d9be fb7b 47be 08fb 1fbe e4a7 903e
00000200: 0dbc 68bd 6c55 4cbe 4511 f2bd c7e6 da3e
00000210: 0fc6 abbd 9c01 3b3e 2992 193d 125e c83e
00000220: b896 a83d 696e b2be d317 a8be cb6b e53e
00000230: 1c75 0e3f c123 3abd 2c41 673e 77bf 083f
00000240: 21f9 a93e 122b ca3e db4c 85be 3602 02bf
00000250: 4a36 be3e a894 6a3e 6352 04bf 6025 0ebf
00000260: fd64 ea3e bde5 783e 374f 973e efac 143f
00000270: 299b aabe 0772 913e 0b80 e33e 14d4 b3bd
00000280: 0e39 c0be cb6d c93e e9cd a33e 6959 43be
00000290: 5696 d63e d5c8 db3d 0b86 18be 67ae 173e
000002a0: a2d0 a63e a69c dc3d 27a8 9bbe 0599 27be
000002b0: 759a 8d3e e6d5 cb3e fd59 a7be 2116 7ebe
000002c0: 3e32 d2be e7a4 ecbe f64f 16bf 7929 563e
000002d0: 4688 af3d 8d6f 323e f71f babd b5e7 573e
000002e0: 62a4 d0be 5171 bfbc 96b8 863c 3478 c63e
000002f0: 5af4 efbe 04ba 61be 4ee9 02bf ac59 233e

bias f4 [64]
0.076549515 0.6164145 0.15065037 0.06886136 0.52069616 0.45801035 0.43263257 -0.12671997
0.16655579 -0.37602016 0.4876833 0.07796792 -0.477229 0.24432121 0.7116526 -0.23170051
-0.33979073 0.15011874 0.40687463 0.06770327 -0.011609902 -0.27748102 0.7172717 0.40979618
0.35332483 0.25057188 -0.29423898 0.15415213 0.33201382 -0.24497029 0.18709873 0.027822958
0.47894704 -0.20625561 0.4434444 -0.43454045 0.45672795 0.380325 0.011424447 -0.28221893
-0.12901051 0.72586274 0.1669327 -0.1667718 -0.2204892 0.42824176 0.2115791 -0.53402084
0.08514555 -0.40560812 -0.1396713 -0.44778934 -0.35404414 -0.24297187 -0.02753077 0.5345449
0.64872587 0.1175892 0.28615633 0.55653685 -0.43303716 0.33589187 -0.3124104 -0.007767487
00000000: fec5 9c3d 57cd 1d3f 1744 1a3e 2f07 8d3d
00000010: 584c 053f 5580 ea3e 0482 dd3e e1c2 01be
00000020: 9a8d 2a3e b785 c0be a0b1 f93e a5ad 9f3d
00000030: 5c57 f4be 572f 7a3e dd2e 363f e642 6dbe
00000040: 0df9 adbe bab8 193e df51 d03e 03a8 8a3d
00000050: 7537 3ebc fe11 8ebe 1e9f 373f ced0 d13e
00000060: fee6 b43e f54a 803e 7ea6 96be 0eda 1d3e
00000070: b7fd a93e 7ed9 7abe cf96 3f3e f9ec e33c
00000080: 8c38 f53e ac34 53be 250b e33e 167c debe
00000090: 3fd8 e93e f5b9 c23e 9b2d 3b3c 007f 90be
000000a0: 551b 04be 24d2 393f 68f0 2a3e 3ac6 2abe
000000b0: ecc7 61be 8142 db3e 31a8 583e 97b5 08bf
000000c0: ca60 ae3d deab cfbe fe05 0fbe a544 e5be
000000d0: 4645 b5be 9ecd 78be 3688 e1bc efd7 083f
000000e0: e612 263f 9bd2 f03d 1583 923e 3379 0e3f
000000f0: 0cb7 ddbe 05fa ab3e 42f4 9fbe 6786 febb

weight f4 [128, 64]
-0.0320013 -0.073301606 0.12190382 0.089435324 0.083552875 0.06326454 -0.09289734 -0.062266026
0.022253314 0.10506559 -0.08793041 -0.0729806 0.0043313997 0.072324745 0.22291799 0.110142164
0.07180703 -0.05450406 -0.15633708 -0.21425535 0.11777175 0.19103816 -0.02414265 0.09275531
-0.025277559 0.069040306 -0.0009786119 -0.123706646 -0.10934081 -0.0057115187 -0.14276963 0.03978157
0.03466578 -0.04749341 0.10322436 0.09463219 -0.14418933 -0.02860223 0.06640519 0.035710428
-0.13870953 -0.20279649 0.100842535 0.010397878 -0.059858713 0.06638477 0.11965222 -0.074862815
-0.068015374 -0.036184516 -0.11935423 0.06561035 -0.08427824 -0.031290147 0.020167297 -0.06871638
-0.21435231 -0.08282622 -0.21427053 0.11135667 -0.07494889 -0.048397277 -0.044834934 0.047924954
-0.08769834 -0.0077591394 0.1167524 0.079009 0.028076792 0.11267419 -0.023156907 0.05469442
0.07291705 0.13283776 0.0015151845 0.13972549 0.13534649 0.10307072 0.055564567 0.093215406
0.05421207 -0.04772659 0.17346758 -0.37564984 0.014673789 0.38558614 -0.21111631 -0.027678406
0.03552201 -0.015222772 0.15942198 0.1007554 -0.07273655 -0.03953391 0.010085761 0.102088585
-0.004015283 -0.037981194 -0.15463889 -0.06489536 0.13760744 0.049318336 0.0062572635 -0.029047098
-0.0679021 0.068752065 -0.001541672 -0.0045395084 0.034454253 -0.14943744 0.02519766 -0.06261704
-0.16629381 0.08313251 -0.0005013388 0.0020394195 0.017798401 0.010392421 -0.01608056 0.014610523
-0.2888061 -0.100594535 0.17616402 0.1021116 0.014206317 0.08064121 -0.034147862 0.06809094
0.009365564 0.13688293 0.09084966 0.09392022 0.112013735 -0.04377982 0.024784233 0.06361026
0.044713654 -0.054120522 -0.080650024 0.11665815 0.023357602 -0.049837574 -0.23379841 0.059225768
0.10515533 -0.13066483 -0.029544914 -0.018071542 0.10939636 0.1883685 -0.005761386 0.09401117
0.015328114 0.040170632 0.10042644 -0.00014518767 -0.064553574 -0.09237054 -0.037221465 0.008459705
0.085319564 -0.07121865 0.021604849 -0.09250732 0.026263075 -0.08540146 0.1260214 0.14003682
-0.22567351 -0.099214256 -0.076107405 0.05828924 0.14075622 -0.1239089 0.11027221 0.0867075
0.16431546 -0.004683193 0.044438925 0.050881285 0.028228667 -0.021644644 0.05651162 0.02849173
0.01669675 -0.091821045 -0.20197201 0.12902437 -0.07055078 0.06200998 0.05228167 0.048375044
0.09151703 0.06443314 -0.07794412 0.085151166 0.037506092 -0.060424984 0.024202025 0.05884588
0.08067796 0.13011825 0.06161116 0.13270259 -0.03647045 -0.06990235 -0.15122554 -0.10589541
-0.071524724 0.010490178 0.14527634 0.44187677 0.17743291 -0.2808484 0.20562229 0.13524745
-0.017549591 0.021139476 0.23273823 0.17647569 0.11500766 -0.022178441 0.10423128 0.12664388
-0.048040494 0.037695643 0.117909886 -0.048081953 0.098869674 -0.082798 0.034622297 0.09267214
0.10669594 0.068107754 0.18351796 0.0093997 0.042960458 0.21493506 0.008015142 0.09206621
0.13810627 0.10073227 0.13536054 0.118885964 0.10007066 -0.094089694 -0.06069412 0.14718544
0.097575344 -0.04747507 0.066280104 0.048924245 0.0069545363 0.032022398 0.091231726 -0.052936412
00000000: cc13 03bd 271f 96bd b6a8 f93d de29 b73d
00000010: c51d ab3d d790 813d f640 bebd a90a 7fbd
00000020: 954c b63c a12c d73d dc14 b4bd da76 95bd
00000030: 6aee 8d3b ff1e 943d 9d44 643e 3792 e13d
00000040: 900f 933d a63f 5fbd d416 20be c165 5bbe
00000050: 5132 f13d 829f 433e cfc6 c5bc 7ff6 bd3d
00000060: e212 cfbc 0165 8d3d c444 80ba e959 fdbd
00000070: 13ee dfbd b127 bbbb 3432 12be 00f2 223d
00000080: b4fd 0d3d 7388 42bd 4b67 d33d 86ce c13d
00000090: 5ea6 13be 394f eabc 72ff 873d 1945 123d
000000a0: df09 0ebe e2a9 4fbe 8886 ce3d dc5b 2a3c
000000b0: 692e 75bd bdf4 873d 390c f53d ad51 99bd
000000c0: a54b 8bbd 3736 14bd fe6f f4bd b85e 863d
000000d0: 129a acbd 192a 00bd e335 a53c 2cbb 8cbd
000000e0: 2c7f 5bbe cba0 a9bd bc69 5bbe f70e e43d
000000f0: ce7e 99bd 393c 46bd d6a4 37bd f54c 443d
00000100: 309b b3bd 6140 febb e21b ef3d 78cf a13d
00000110: 4d01 e63c bac1 e63d 8eb3 bdbc 4207 603d
00000120: 8955 953d 9f06 083e 2899 c63a 3314 0f3e
00000130: 4598 0a3e be16 d33d ac97 633d b8e7 be3d
00000140: 7a0d 5e3d f57c 43bd 7ca1 313e 2d55 c0be
00000150: 556a 703c 8c6b c53e e02e 58be d3bd e2bc
00000160: 877f 113d ef68 79bc 843f 233e d958 ce3d
00000170: e6f6 94bd 4fee 21bd bf3e 253c d213 d13d
00000180: a392 83bb 2b92 1bbd a859 1ebe dce7 84bd
00000190: f7e8 0c3e 0602 4a3d bb09 cd3b 2ef4 edbc
000001a0: 4210 8bbd e2cd 8c3d ee11 caba 28c0 94bb
000001b0: e71f 0d3d 2106 19be 536b ce3c 5d3d 80bd
000001c0: ed48 2abe 6141 aa3d 476c 03ba c8a7 053b
000001d0: f4cd 913c f944 2a3c 61bb 83bc fa60 6f3c
000001e0: 65de 93be 8204 cebd 5764 343e e31f d13d
000001f0: 9dc1 683c 3827 a53d a1de 0bbd 4373 8b3d
00000200: 0672 193c 0a2b 0c3e 630f ba3d 3f59 c03d
00000210: 7567 e53d 7852 33bd 4e08 cb3c 1946 823d
00000220: aa25 373d 7bad 5dbd d72b a5bd 78ea ee3d
00000230: 7158 bf3c 7c22 4cbd da68 6fbe b896 723d
00000240: ad5b d73d 00cd 05be 2d08 f2bc c50a 94bc
00000250: 330b e03d ace3 403e 02ca bcbb ee88 c03d
00000260: c522 7b3c f689 243d 61ac cd3d 853d 18b9
00000270: aa34 84bd c42c bdbd 8975 18bd 939a 0a3c
00000280: 06bc ae3d 15db 91bd a7fc b03c 7a74 bdbd
00000290: a925 d73c f6e6 aebd c10b 013e d065 0f3e
000002a0: f516 67be d830 cbbd 33de 9bbd b3c0 6e3d
000002b0: 6622 103e f3c3 fdbd 65d6 e13d b493 b13d
000002c0: 5042 283e 7875 99bb 9705 363d e568 503d
000002d0: ce3f e73c 1c50 b1bc ba78 673d 7d67 e93c
000002e0: 9fc7 883c ac0c bcbd c0d1 4ebe f71e 043e
000002f0: ed7c 90bd 2dfe 7d3d 4e25 563d e924 463d
00000300: 486d bb3d 86f5 833d 2ba1 9fbd bc63 ae3d
00000310: fd9f 193d 3080 77bd 5343 c63c 6108 713d
00000320: 7c3a a53d b83d 053e fc5b 7c3d 30e3 073e
00000330: 0a62 15bd f728 8fbd deda 1abe b1df d8bd
00000340: 8e7b 92bd ffde 2b3c 52c3 143e ac3d e23e
00000350: f9b0 353e 5dcb 8fbe a68e 523e 4f7e 0a3e
00000360: 29c4 8fbc b22c ad3c ee52 6e3e 0bb6 343e
00000370: 2389 eb3d 90af b5bc 3677 d53d efae 013e
00000380: 1cc6 44bd bf66 1a3d bd7a f13d 95f1 44bd
00000390: 2f7c ca3d ff91 a9bd 1cd0 0d3d e4ca bd3d
000003a0: 6783 da3d 147c 8b3d 22ec 3b3e 3301 1a3c
000003b0: 4ef7 2f3d f017 5c3e f151 033c 368d bc3d
000003c0: bb6b 0d3e b84c ce3d f49b 0a3e 7c7a f33d
000003d0: d9f1 cc3d 19b2 c0bd 669a 78bd c8b7 163e
000003e0: 95d5 c73d 3875 42bd ddbd 873d ca64 483d
000003f0: e1e2 e33b eb29 033d b3d7 ba3d dad3 58bd

bias f4 [128]
0.11508861 0.10800677 0.011172994 0.004678496 -0.113149896 -0.0725152 -0.036490086 0.08528502
0.12576585 -0.03765118 0.09427525 0.12366845 0.04557729 -0.027539866 -0.063953556 0.054385535
-0.050545402 0.043218907 -0.103350826 0.0024462002 -0.0010613885 0.11862335 0.10069532 -0.015721247
-0.013106404 -0.0007339951 0.12000429 -0.07180631 -0.045739654 0.087890506 -0.10575361 0.19008671
-0.038323715 0.113339625 0.104373835 0.11690857 -0.03803279 -0.106601216 0.057610672 -0.11441083
0.099020585 -0.08443668 0.00823833 0.11143685 -0.044916037 -0.03198547 0.04527918 0.06748112
0.0650793 -0.10455562 -0.044779807 0.11647564 -0.05934739 -0.03072062 0.024601428 0.034855917
0.015734898 0.08887963 -0.09293008 -0.028539106 -0.046401218 0.01734026 -0.028121522 0.031810015
0.076174736 0.195537 -0.09706289 0.029399045 0.4525868 0.045090236 -0.03328468 0.008458642
0.08225654 -0.06833504 0.0051842695 0.04902257 0.041574083 -0.057837255 0.05795206 -0.04548439
0.080406226 0.08719209 0.057903603 0.021748113 -0.06913627 -0.061215475 0.061060708 -0.021447351
0.054739673 0.1009735 -0.073811255 0.06306353 -0.044223655 0.07824519 -0.07433672 -0.01632385
-0.059140407 -0.05646039 0.046908163 -0.11861497 -0.051038288 0.044409696 0.048052713 -0.018333063
0.05089377 0.11395133 -0.05396402 0.051509812 0.08224787 -0.02257446 0.08807849 -0.065837674
-0.026553316 0.056031853 -0.064402916 -0.13259102 -0.036228824 0.09784436 0.071232125 0.038911298
-0.08623747 0.09801392 0.02345978 0.036513764 0.089742176 -0.09360476 -0.008841834 0.13007435
00000000: 94b3 eb3d a732 dd3d ef0e 373c 124e 993b
00000010: 22bb e7bd d982 94bd a176 15bd eaa9 ae3d
00000020: c3c8 003e 2038 1abd 6213 c13d e245 fd3d
00000030: 41af 3a3d 499b e1bc 15fa 82bd 5ec3 5e3d
00000040: b208 4fbd 4f06 313d 99a9 d3bd 6e50 203b
00000050: 4a1e 8bba cdf0 f23d 5939 ce3d d8c9 80bc
00000060: 3ebc 56bc 9469 40ba cfc4 f53d 300f 93bd
00000070: 8159 3bbd f0ff b33d 5995 d8bd 17a6 423e
00000080: 54f9 1cbd 9b1e e83d f3c1 d53d c36d ef3d
00000090: 45c8 1bbd bd51 dabd 2bf9 6b3d 3a50 eabd
000000a0: 4ecb ca3d 23ed acbd 0ffa 063c 0139 e43d
000000b0: e1f9 37bd 3203 03bd a976 393d 8b33 8a3d
000000c0: 4c48 853d 4221 d6bd 086b 37bd c88a ee3d
000000d0: 4016 73bd cfa9 fbbc ef88 c93c 14c5 0e3d
000000e0: 79e6 803c 8606 b63d 2052 bebd d8ca e9bc
000000f0: 340f 3ebd 290d 8e3c 1b5f e6bc 384b 023d
00000100: 8001 9c3d da3a 483e e9c8 c6bd 44d6 f03c
00000110: 75b9 e73e 8ab0 383d 8455 08bd 1e96 0a3c
00000120: 1e76 a83d 3ef3 8bbd cee0 a93b e4cb 483d
00000130: 9649 2a3d c2e6 6cbd 245f 6d3d d74d 3abd
00000140: 05ac a43d c491 b23d 542c 6d3d 1929 b23c
00000150: 5197 8dbd 14bd 7abd cb1a 7a3d 5bb2 afbc
00000160: b536 603d 32cb ce3d 5b2a 97bd 7427 813d
00000170: dd23 35bd 043f a03d da3d 98bd 98b9 85bc
00000180: 363d 72bd 0343 67bd c622 403d 68ec f2bd
00000190: 860d 51bd f1e6 353d ecd2 443d 382f 96bc
000001a0: fc75 503d 515f e93d 6009 5dbd f4fb 523d
000001b0: 9271 a83d 13ee b8bc 7f62 b43d e7d5 86bd
000001c0: 5786 d9bc a881 653d ade5 83bd f1c5 07be
000001d0: ad64 14bd a062 c83d 26e2 913d 7461 1f3d
000001e0: 459d b0bd 86bb c83d b92e c03c 758f 153d
000001f0: bfca b73d dab3 bfbd 57dd 10bc 3632 053e

weight f4 [64, 128]
0.055760935 -0.0294534 0.05020718 -0.114182964 0.062456705 0.0048565627 0.041190974 0.07975393
0.027584622 -0.023195328 -0.0716544 -0.039077748 0.02705207 0.07946607 -0.0036327404 -0.051971514
-0.066348344 -0.022343472 0.065047316 0.073225155 -0.049834445 0.087594576 -0.024338452 0.057020433
0.06849657 0.045994446 0.02300477 0.059253026 0.012265814 -0.1142203 0.0071464195 0.17933398
0.06659625 0.024236657 0.06218754 0.047084093 0.023538075 0.0040873513 0.08306639 0.05559932
-0.031012768 -0.06089328 0.105689414 -0.022513743 -0.052543648 -0.05781247 -0.04816012 0.008681912
0.06277875 0.077759795 -0.06934759 0.0071119554 0.06613392 0.065628745 0.19939925 0.057449408
-0.08125448 0.114921905 -0.040814146 0.03464954 -0.03381416 -0.05370688 0.04700042 0.09535713
0.072802216 0.46645612 -0.19284837 0.026013246 0.21885876 -0.24681121 0.082155906 0.036820546
0.05427001 0.033216566 -0.23964061 -0.070596926 -0.05159478 -0.0046222275 0.09028592 0.0074670524
0.042058367 0.07878412 -0.008233343 -0.07245735 -0.001363736 0.004469417 3.33488e-05 0.007981846
0.36863455 -0.051632844 -0.06350342 0.044192515 -0.028381808 -0.0065789893 -0.04663445 -0.062452473
-0.081728995 -0.06781945 0.01232712 0.050665513 -0.021333197 -0.09528938 -0.07397154 -0.010679963
-0.08375631 -0.012021115 -0.06518319 -0.04950933 -0.054056685 0.047812995 -0.04569439 -0.0017876201
-0.029644586 -0.053497426 -0.032232862 -0.2817639 0.063567504 0.0063566105 0.08978405 0.014487945
-0.0860137 -0.03991172 -0.057407282 -0.062279433 0.076819435 -0.052914582 0.08023762 -0.042317037
0.017327148 -0.09940496 0.0229066 0.14951709 0.08090996 0.04901654 -0.0655635 -0.034703996
-0.005497876 -0.02484973 0.057667997 -0.07552444 0.02963668 0.07039204 0.058395658 -0.09258069
0.063368194 0.07100639 -0.065192476 -0.033066556 -0.0056389887 0.087954484 0.00023165949 -0.04475145
-0.041527092 0.052279934 0.04969842 -0.033633903 0.042790286 -0.007225943 0.022797376 -0.11543513
-0.021555565 0.09572717 0.015378271 -0.03589657 -0.028668169 -0.045167364 -0.03794812 -0.06585725
0.09351677 0.04936708 -0.08692688 -0.018124767 0.056639597 -0.0564861 0.059461214 0.034891173
-0.023616271 -0.09879055 -0.01737249 -0.07295545 -0.07246808 -0.077949665 0.05821981 0.041517697
-0.074099086 0.020240108 0.047816653 -0.060137216 -0.019635743 0.059956804 0.119022205 0.028424714
-0.046656765 -0.014304494 -0.004523597 0.09642828 -0.16585712 -0.098671384 -0.032223087 -0.05665709
-0.08557592 -0.07300271 0.123622134 -0.03507909 -0.028280482 0.009950013 -0.034899727 -0.05827495
0.1392317 0.052848164 -0.010275835 0.017750513 -0.016077042 0.0017972142 0.038815245 0.04354459
0.025852386 -0.07737972 -0.04536966 0.05029849 -0.099050455 -0.013281338 0.041672852 0.07042792
0.023413088 -0.005920168 -0.039305266 -0.015207113 -0.011556426 -0.011664169 -0.012340458 0.04993055
-0.0283827 0.023617705 -0.095562756 -0.029298667 -0.083465956 0.038218178 0.09784951 -0.0650699
0.077291965 0.048800204 0.05055973 -0.032413915 0.005246779 -0.02087913 0.020038744 -0.051030256
-0.021521619 -0.035295352 -0.035375666 0.042893875 -0.006493498 0.008804652 0.11099616 0.04207944
00000000: 9465 643d 4248 f1bc 0ba6 4d3d c2d8 e9bd
00000010: 9ad2 7f3d cd23 9f3b deb7 283d 0756 a33d
00000020: 25f9 e13c 2104 bebc 8bbf 92bd fd0f 20bd
00000030: 4d9c dd3c 1bbf a23d 4513 6ebb 15e0 54bd
00000040: a4e1 87bd a809 b7bc 8737 853d 12f7 953d
00000050: 341f 4cbd c964 b33d 6f61 c7bc 428e 693d
00000060: ee47 8c3d ac64 3c3d 8074 bc3c 4db3 723d
00000070: 8df6 483c 55ec e9bd 832c ea3b 54a3 373e
00000080: 9d63 883d f48b c63c 5db8 7e3d 40db 403d
00000090: ecd2 c03c 30ef 853b b61e aa3d 1dbc 633d
000000a0: 7d0e febc 3b6b 79bd b173 d83d be6e b8bc
000000b0: 0238 57bd c5cc 6cbd 8c43 45bd 943e 0e3c
000000c0: 2592 803d 8740 9f3d 1c06 8ebd 680b e93b
000000d0: 3871 873d 5d68 863d 512f 4c3e 1250 6b3d
000000e0: c068 a6bd 2d5c eb3d bc2c 27bd adec 0d3d
000000f0: b780 0abd bffb 5bbd 8383 403d 994a c33d
00000100: 5419 953d 56d3 ee3e 0b7a 45be bb19 d53c
00000110: 831c 603e 14bc 7cbe 5b41 a83d 24d1 163d
00000120: 3b4a 5e3d 180e 083d 5964 75be 1f95 90bd
00000130: 0c55 53bd 0e76 97bb d3e7 b83d 2dae f43b
00000140: 6545 2c3d 9259 a13d 25e5 06bc 8564 94bd
00000150: 63bf b2ba 3074 923b 00e0 0b38 4ac6 023c
00000160: abbd bc3e f67c 53bd 150e 82bd 3603 353d
00000170: f780 e8bc 9094 d7bb c403 3fbd 2ace 7fbd
00000180: 8861 a7bd ece4 8abd b0f7 493c a486 4f3d
00000190: f5c2 aebc 1427 c3bd 647e 97bd 03fb 2ebc
000001a0: 6e88 abbd 36f4 44bc c47e 85bd 4cca 4abd
000001b0: 8b6a 5dbd 8fd7 433d 0a2a 3bbd 944e eaba
000001c0: 34d9 f2bc 1e20 5bbd 9b06 04bd 5c43 90be
000001d0: ae2f 823d 1d4b d03b b3e0 b73d d85e 6d3c
000001e0: f327 b0bd 797a 23bd e623 6bbd b818 7fbd
000001f0: 8253 9d3d f6bc 58bd 9f53 a43d a154 2dbd
00000200: aaf1 8d3c d494 cbbd 9fa6 bb3c 021b 193e
00000210: 1fb4 a53d 91c5 483d 2846 86bd c725 0ebd
00000220: 8727 b4bb a991 cbbc 4735 6c3d 8fac 9abd
00000230: 9fc8 f23c b429 903d 4930 6f3d f29a bdbd
00000240: 2fc7 813d cc6b 913d a283 85bd cc70 07bd
00000250: 44c7 b8bb 7b21 b43d 9fe9 7239 4c4d 37bd
00000260: 5018 2abd 7c23 563d 9290 4b3d b4c3 09bd
00000270: de44 2f3d 9ac7 ecbb 90c1 ba3c 4169 ecbd
00000280: 4c95 b0bc 9b0c c43d 25f5 7b3c 4808 13bd
00000290: 82d9 eabc 6a01 39bd 7d6f 1bbd 2ae0 86bd
000002a0: b885 bf3d 2335 4a3d b806 b2bd 647a 94bc
000002b0: ecfe 673d f85d 67bd 9a8d 733d 0cea 0e3d
000002c0: e976 c1bc b352 cabd c150 8ebc ab69 95bd
000002d0: 256a 94bd 13a4 9fbd e577 6e3d 760e 2a3d
000002e0: 43c1 97bd 95ce a53c 65db 433d 7152 76bd
000002f0: 23db a0bc 4495 753d eac1 f33d f2da e83c
00000300: 2a1b 3fbd 655d 6abc af3a 94bb 317c c53d
00000310: 73d6 29be 3914 cabd 5bfc 03bd 4411 68bd
00000320: 6e42 afbd 7282 95bd 9a2d fd3d 18af 0fbd
00000330: 78ac e7bc 6105 233c 04f3 0ebd b7b1 6ebd
00000340: c192 0e3e 5177 583d fa5b 28bc 8669 913c
00000350: 00b4 83bc 8090 eb3a bcfc 1e3d d05b 323d
00000360: 62c8 d33c 4279 9ebd 89d5 39bd ca05 4e3d
00000370: f7da cabd f899 59bc 27b1 2a3d 833c 903d
00000380: cecc bf3c f8fd c1bb 8ffe 20bd 4127 79bc
00000390: 2a57 3dbc 121b 3fbc a22f 4abc fa83 4c3d
000003a0: d682 e8bc eb79 c13c 68b6 c3bd c203 f0bc
000003b0: 33f0 aabd aa8a 1c3d 5365 c83d 5e43 85bd
000003c0: 404b 9e3d b9e2 473d b817 4f3d 74c4 04bd
000003d0: 2ced ab3b b60a abbc 4b28 a43c 1a05 51bd
000003e0: 1b4e b0bc dc91 10bd 13e6 10bd 7db1 2f3d
000003f0: 69c7 d4bb 6341 103c f451 e33d 7e5b 2c3d

bias f4 [64]
0.32527858 0.01913016 -0.028143674 0.08533257 0.021335764 0.048300527 -0.0009154156 0.16360465
-0.0058806674 0.1050223 -0.0429864 -0.018714985 0.08265176 0.02016019 0.012614066 0.22391452
-0.00010294567 -0.011765648 0.020408176 0.07523536 -0.0936312 0.09531806 -0.0011691161 -0.067796476
0.07357522 -0.026230672 0.0072407546 0.09204073 0.029219083 0.02317101 -0.0025404259 -0.09149957
0.04332078 -0.0040954174 0.04758886 -0.02988562 -0.08409948 0.002080272 0.06369102 -0.046497878
0.047976986 -0.0029761372 -0.015450824 0.027781006 -0.047079194 0.044778958 -0.051088568 0.058206074
0.0161549 -0.018487668 0.08473277 0.056246635 -0.0051564784 -0.058071822 0.027168892 -0.06047472
-0.02003875 0.09549856 0.0018756967 -0.017466914 0.019912353 -0.0040800646 0.07763768 0.021842986
00000000: ea8a a63e dab6 9c3c 908d e6bc d8c2 ae3d
00000010: 57c8 ae3c c6d6 453d 80f8 6fba fa87 273e
00000020: 9db2 c0bb ee15 d73d 8212 30bd 2b50 99bc
00000030: 5345 a93d fc26 a53c 3aab 4e3c d949 653e
00000040: 89e4 d7b8 b4c4 40bc 0c2f a73c ff14 9a3d
00000050: b7c1 bfbd 1d36 c33d 073d 99ba e1d8 8abd
00000060: 9bae 963d b5e1 d6bc da43 ed3b da7f bc3d
00000070: dc5c ef3c 21d1 bd3c 467d 26bb 2064 bbbd
00000080: 2171 313d da32 86bb 89ec 423d b0d2 f4bc
00000090: 593c acbd 2c55 083b 7070 823d 8f74 3ebd
000000a0: 8483 443d 4c0b 43bb 7425 7dbc fe94 e33c
000000b0: 1dd6 40bd 246a 373d 3f42 51bd 7e69 6e3d
000000c0: 4857 843c 7373 97bc 6088 ad3d df62 663d
000000d0: adf7 a8bb b8dc 6dbd 4c91 de3c 57b4 77bd
000000e0: 4e28 a4bc c094 c33d f0d9 f53a c616 8fbc
000000f0: 3b1f a33c 10b2 85bb 8100 9f3d 10f0 b23c

weight f4 [3, 64]
0.03598024 0.047294192 -0.018920003 0.008497005 0.000332203 0.02260886 -0.01177454 -0.017602308
0.15406609 -0.14637287 -0.0048088133 0.028070407 0.06346965 -0.0672099 -0.029419553 0.08422366
0.06500898 0.07382427 -0.022308456 -0.11766044 -0.04430293 0.05202109 -0.081988834 0.1364111
0.053190224 -0.082187 -0.047835726 -0.031230275 0.050888814 0.00024312417 0.004983085 0.12413662
0.11226289 -0.11993591 -0.1279147 0.069600716 0.08994984 -0.08013884 0.07661368 -0.06290238
-0.10875924 -0.06802354 -0.11723749 -0.039404683 -0.07647206 -0.07502089 0.1439706 -0.09211171
0.08941577 0.083233334 -0.029236326 0.00865328 0.026291627 0.076320484 0.06978975 -0.01430814
0.10030545 0.050794248 -0.16589974 -0.04263616 0.027515123 -0.0009444207 -0.0022383481 -0.055098783
-0.22754772 0.1262627 -0.017675057 0.08719207 0.04368371 -0.06867629 0.09691562 0.12931158
-0.013969548 -0.06629896 0.050222483 0.011005886 0.011488564 -0.14128394 -0.0233652 -0.09934782
0.09136899 -0.007927708 0.13754827 -0.060090132 -0.074915275 0.085777566 0.007213173 -0.09782088
-0.063514195 -0.043254636 -0.057529442 0.15889013 -0.05760911 -0.09263129 -0.08023771 -0.090586424
0.009112328 0.06980144 -0.027569018 -0.12905009 0.0749533 0.10655909 0.07679593 -0.099861234
-0.0017225601 0.068733744 -0.09980392 0.14511997 0.05955548 0.111957416 -0.12090914 0.01953564
0.07221739 -0.02269915 0.09987179 0.022727106 -0.057434224 -0.10123629 -0.0044909976 -0.079492055
0.07280601 0.08445492 -0.14229295 -0.010238473 0.09233175 -0.07086472 0.10463932 0.03442721
-0.10565264 -0.07185707 -0.08039737 0.08555711 0.068941735 0.030988462 0.088656634 -0.10089761
-0.030454872 -0.091656655 0.04517626 0.11464549 0.12790626 0.12103504 -0.06550802 0.101848975
-0.058417834 0.10494522 -0.0043588476 0.14231484 -0.008430746 0.1088588 -0.077786915 -0.10899854
-0.03544372 -0.24147886 -0.07173664 -0.04460986 -0.08167957 -0.087891206 -0.112817295 0.08599653
-0.014235609 0.13792655 -0.0433143 0.026650008 -0.10910735 -0.08940106 0.045980748 0.021824494
-0.055595703 -0.015922157 -0.10745993 -0.12016988 -0.047901247 0.09796301 -0.027176233 -0.039695993
0.045286123 -0.04094303 0.13950874 0.058342606 -0.05865313 -0.024917256 0.094487004 0.105071
-0.047797132 0.093439244 -0.015581334 -0.0067954706 0.14216411 0.04474792 -0.08842559 0.11792129
00000000: 0460 133d 8eb7 413d 1ffe 9abc 0637 0b3c
00000010: 882b ae39 3736 b93c 00ea 40bc b732 90bc
00000020: 80c3 1d3e c5e2 15be 4093 9dbb e9f3 e53c
00000030: 60fc 813d 58a5 89bd 4601 f1bc 747d ac3d
00000040: 6e23 853d 2e31 973d 39c0 b6bc f5f7 f0bd
00000050: fd76 35bd 1114 553d c3e9 a7bd 5aaf 0b3e
00000060: fedd 593d a851 a8bd 65ef 43bd a2d6 ffbc
00000070: ca70 503d 26ef 7e39 2649 a33b 573b fe3d
00000080: 16ea e53d f5a0 f5bd 12fc 02be d28a 8e3d
00000090: 9f37 b83d d51f a4bd a2e7 9c3d f7d2 80bd
000000a0: 2abd debd ed4f 8bbd 361a f0bd ce66 21bd
000000b0: 629d 9cbd 8da4 99bd 076d 133e 10a5 bcbd
000000c0: 9d1f b73d 3d76 aa3d 0581 efbc 7dc6 0d3c
000000d0: 8a61 d73c ea4d 9c3d eeed 8e3d b06c 6abc
000000e0: f26c cd3d a10d 503d 9fe1 29be 41a3 2ebd
000000f0: 6567 e13c 0093 77ba 40b1 12bb 43af 61bd
00000100: 4502 69be 024b 013e 48cb 90bc c291 b23d
00000110: b1ed 323d 28a6 8cbd b27b c63d 416a 043e
00000120: 88e0 64bc c0c7 87bd 17b6 4d3d 0852 343c
00000130: 883a 3c3c bdac 10be 6068 bfbc df76 cbbd
00000140: aa1f bb3d 38e3 01bc 74d9 0c3e 1221 76bd
00000150: 2e6d 99bd 26ac af3d 7b5c ec3b 5056 c8bd
00000160: bb13 82bd c62b 31bd fea3 6bbd 18b4 223e
00000170: 88f7 6bbd 79b5 bdbd ab53 a4bd 6085 b9bd
00000180: e04b 153c 0ff4 8e3d 6cd8 e1bc b525 04be
00000190: 1e81 993d a73b da3d 2f47 9d3d 0c84 ccbd
000001a0: 87c7 e1ba 47c4 8c3d ff65 ccbd 549a 143e
000001b0: 72f0 733d ee49 e53d 369f f7bd 3509 a03c
000001c0: b6e6 933d 91f3 b9bc 9589 cc3d 322e ba3c
000001d0: 2640 6bbd f954 cfbd 3829 93bb bbcc a2bd
000001e0: 511b 953d b3f6 ac3d 3eb5 11be 45bf 27bc
000001f0: 6e18 bd3d 8621 91bd 244d d63d 8c03 0d3d
00000200: 6960 d8bd cd29 93bd 60a7 a4bd 9138 af3d
00000210: 5331 8d3d 84db fd3c 9c91 b53d 68a3 cebd
00000220: 7f7c f9bc 7cb6 bbbd be0a 393d 41cb ea3d
00000230: dcf9 023e 38e1 f73d 1229 86bd 3296 d03d
00000240: 8a47 6fbd 85ed d63d aad4 8ebb fbba 113e
00000250: 1d21 0abc 5df1 de3d bf4e 9fbd a03a dfbd
00000260: 6f2d 11bd 3c46 77be a9ea 92bd d4b8 36bd
00000270: 9e47 a7bd 4e00 b4bd c10c e7bd f31e b03d
00000280: 793c 69bc 9e3c 0d3e 566a 31bd 1e51 da3c
00000290: ad73 dfbd e717 b7bd 4f56 3c3d 48c9 b23c
000002a0: 52b8 63bd 2f6f 82bc f413 dcbd a01b f6bd
000002b0: 1934 44bd d5a0 c83d b1a0 debc 4498 22bd
000002c0: f17d 393d e1b3 27bd 61db 0e3e a8f8 6e3d
000002d0: 443e 70bd 461f ccbc 6782 c13d 772f d73d
000002e0: edc6 43bd 135d bf3d da48 7fbc 8aac debb
000002f0: 7893 113e 9849 373d 7a18 b5bd b880 f13d

bias f4 [3]
0.013319537 -0.15724948 -0.10153564
00000000: 303a 5a3c 0206 21be ebf1 cfbd
