LorenzSystem/TrainedModels/LSNNModel(Noise = Normal).pth (torch, 73304 bytes, 8 tensors)

weight f4 [64, 3]
0.38712072 -0.5576918 0.283563 -0.04723978 -0.41297188 0.3334597 0.2746054 -0.1251252
-0.03586876 0.38233906 0.061755028 0.18402605 0.39388922 -0.16759636 0.23954189 0.2619186
0.2900707 -0.40859875 0.5400643 0.47811118 -0.22152579 0.084431194 0.44440684 0.41503507
-0.2702649 -0.20984134 -0.01889245 -0.16541244 -0.12074636 0.18347801 -0.21892451 -0.319132
-0.05690982 -0.61624813 -0.031799093 -0.42391598 0.6147036 -0.09335608 -0.3263145 0.118763834
0.29947746 -0.5106858 -0.19804107 0.51858 0.34301654 0.009088445 -0.08159665 0.32772872
-0.59164643 -0.25264838 0.4943541 0.23343092 0.17956854 -0.24439037 -0.46982995 0.110612646
-0.20204647 0.60415274 -0.10766528 -0.29233614 0.49033773 -0.16535568 -0.067678444 0.19655356
0.06348423 0.03132033 0.45631468 0.21207938 0.19988973 -0.3603553 0.2498625 0.1261787
-0.33926877 -0.21572888 0.42959622 0.27257666 -0.49972302 -0.16102777 -0.3339908 -0.48788178
0.0697312 0.16904879 0.19848 -0.02287198 -0.25031877 0.104911745 0.2790206 0.049297847
-0.53263205 0.3848498 0.39762965 -0.023145 0.02980804 0.39231765 -0.5875531 -0.24977316
0.5455225 0.17747341 0.3424233 -0.20635113 -0.012718558 -0.49492586 -0.6000952 -0.44613832
0.541099 -0.2992181 -0.31955343 -0.3297901 -0.068266526 -0.108602874 -0.0955534 -0.028564516
0.39505526 -0.04914916 -0.2395228 0.25371924 0.41511938 -0.1981897 0.5589715 -0.3617154
0.19253454 0.009563793 -0.22072189 -0.52355933 0.064363055 0.08250208 0.45358476 0.17573673
-0.45607635 0.5100379 0.1159452 0.0067778225 0.11392412 -0.09285208 0.038844388 -0.059640698
-0.14451632 -0.4111795 0.10574446 0.22653899 -0.093916155 0.23433438 0.5916189 0.18640561
-0.20584595 0.072532 -0.085334 0.36801133 -0.25891656 0.10711497 -0.31640843 -0.36016202
0.45850673 0.38320062 0.22291438 -0.26984984 -0.22721069 -0.09529573 -0.06360825 -0.33490998
-0.423978 0.49772063 -0.14913699 -0.105503164 -0.32123938 0.88675827 -0.119420126 -0.2651023
-0.39138708 -0.48875195 -0.28702015 0.18816218 0.2730093 -0.31888688 -0.0067209215 -0.44909075
-0.036503445 -0.052760277 0.15473318 0.088391714 -0.36054972 0.47814482 -0.42709437 0.1487418
-0.5198862 0.45438278 0.44707105 0.11603278 -0.38675237 -0.42122307 -0.56572294 0.29434478
00000000: b034 c63e e4c4 0ebf 2b2f 913e 807e 41bd
00000010: 0d71 d3be 3bbb aa3e 1499 8c3e d220 00be
00000020: 1feb 12bd f2c1 c33e d7f2 7c3d 5371 3c3e
00000030: d9ab c93e 619e 2bbe 784a 753e 321a 863e
00000040: 2684 943e db33 d1be a741 0a3f fdca f43e
00000050: a8d7 62be 43ea ac3d 4b89 e33e 7a7f d43e
00000060: 2960 8abe a6e0 56be 57c4 9abc e161 29be
00000070: de49 f7bd a9e1 3b3e bf2d 60be 4565 a3be
00000080: 451a 69bd 70c2 1dbf c43f 02bd 840b d9be
00000090: 375d 1d3f 7931 bfbd b212 a7be 743a f33d
000000a0: 1c55 993e 4ebc 02bf 47cb 4abe a9c1 043f
000000b0: dd9f af3e b4e7 143c 251c a7bd 0fcc a73e
000000c0: 2476 17bf 215b 81be fb1b fd3e 8408 6f3e
000000d0: d1e0 373e 7841 7abe 8d8d f0be e288 e23d
000000e0: 45e5 4ebe c1a9 1a3f 9d7f dcbd 15ad 95be
000000f0: 8c0d fb3e 0053 29be ff9a 8abd 5645 493e
00000100: 0504 823d bf49 003d 14a2 e93e 562b 593e
00000110: e5af 4c3e 7d80 b8be f5db 7f3e fd34 013e
00000120: a3b4 adbe 08e8 5cbe 09f4 db3e 2b8f 8b3e
00000130: b2db ffbe 77e4 24be d800 abbe a4cb f9be
00000140: 3bcf 8e3d 201b 2d3e 573e 4b3e 055e bbbc
00000150: c829 80be f8db d63d cadb 8e3e 8aec 493d
00000160: 935a 08bf 080b c53e 1d96 cb3e 959a bdbc
00000170: fe2f f43c dcdd c83e e169 16bf 89c4 7fbe
00000180: 5da7 0b3f 97bb 353e 1b52 af3e b64d 53be
00000190: 8061 50bc ec66 fdbe d79f 19bf 3e6c e4be
000001a0: 7785 0a3f 1d33 99be 829c a3be 3fda a8be
000001b0: 52cf 8bbd 2f6b debd 80b1 c3bd 2200 eabc
000001c0: af44 ca3e a150 49bd 7745 75be 7de7 813e
000001d0: 878a d43e 3ef2 4abe c218 0f3f c332 b9be
000001e0: c627 453e 75b1 1c3c eb04 62be fc07 06bf
000001f0: c7d0 833d daf6 a83d 433c e83e 54f4 333e
00000200: d782 e9be d891 023f ad74 ed3d 7f18 de3b
00000210: 0d51 e93d 3b29 bebd 4b1b 1f3d ce49 74bd
00000220: 16fc 13be 1f86 d2be 8d90 d83d d6f9 673e
00000230: 1d57 c0bd 5af5 6f3e 5674 173f 1de1 3e3e
00000240: 48c9 52be a88b 943d 98c3 aebd fb6b bc3e
00000250: b690 84be 185f db3d 4900 a2be 2867 b8be
00000260: 65c1 ea3e df32 c43e ab43 643e c229 8abe
00000270: eba9 68be 682a c3bd 0b45 82bd 5279 abbe
00000280: a513 d9be 3dd5 fe3e 5eb7 18be 0b12 d8bd
00000290: 7d79 a4be 9702 633f 8a92 f4bd 7dbb 87be
000002a0: e363 c8be b23d fabe 4ef4 92be 96ad 403e
000002b0: e0c7 8b3e 2445 a3be 2d3b dcbb 39ef e5be
000002c0: a384 15bd 291b 58bd 6072 1e3e b706 b53d
000002d0: f999 b8be 66cf f43e 1dac dabe c54f 183e
000002e0: 4317 05bf dca4 e83e 7fe6 e43e 98a2 ed3d
000002f0: 6804 c6be 8daa d7be 38d3 10bf 5cb4 963e

bias f4 [64]
0.5434049 0.45066217 -0.17043793 0.45224032 0.15552533 0.39044526 -0.38042256 0.18204649
-0.4781392 0.37889704 -0.50637317 0.6497177 0.37737486 -0.39506078 0.13032262 0.052376494
0.24156092 0.13600455 -0.5747664 0.56283027 -0.47720066 0.3421796 -0.3575987 0.46070948
-0.14773259 0.57536614 0.20242406 0.1640895 0.28023127 0.4828454 0.4049477 -0.13822252
-0.31815764 0.34650296 -0.30403185 0.15042634 0.27824944 -0.013186113 0.3337545 0.57296145
-0.06450843 0.38037243 -0.17903928 -0.5208348 -0.02391535 0.19913083 0.5333239 -0.47407407
-0.28239486 -0.30880138 0.09603398 0.4534232 0.4204485 0.052544463 -0.4065091 0.15456037
-0.20061365 0.64982474 0.048805784 -0.06959704 0.41404527 -0.112237975 0.15122223 -0.5284098
00000000: 951c 0b3f 31bd e63e 4887 2ebe 0b8c e73e
00000010: 0842 1f3e 71e8 c73e bfc6 c2be 656a 3a3e
00000020: a9ce f4be cbfe c13e aca1 01bf e653 263f
00000030: 4737 c13e 6845 cabe 4b73 053e bc88 563d
00000040: bf5b 773e c744 0b3e e423 13bf a515 103f
00000050: a553 f4be 2a32 af3e 2d17 b7be 1de2 eb3e
00000060: 3647 17be 324b 133f 4148 4f3e 1407 283e
00000070: 797a 8f3e 8337 f73e 4e55 cf3e 348a 0dbe
00000080: 8fe5 a2be d668 b13e 10aa 9bbe 5d09 1a3e
00000090: b676 8e3e 910a 58bc dfe1 aa3e 9aad 123f
000000a0: ff1c 84bd 2dc0 c23e 1356 37be 6e55 05bf
000000b0: 20ea c3bc f4e8 4b3e ea87 083f d6b9 f2be
000000c0: 0f96 90be 371b 9ebe 77ad c43d 1627 e83e
000000d0: 0745 d73e dd38 573d f621 d0be 1345 1e3e
000000e0: aa6d 4dbe ea5a 263f 93e8 473d e588 8ebd
000000f0: befd d33e 06dd e5bd 00da 1a3e dd45 07bf

weight f4 [128, 64]
0.007099045 -0.079388775 -0.07738464 -0.034670483 0.022075308 0.026888214 0.12494281 -0.10351194
0.080977984 0.060674246 -0.058042098 0.032767344 0.12918355 0.056736533 -0.10830911 0.066658884
-0.0365547 0.12825488 -0.044414952 0.23875062 0.04585159 0.02367589 0.056522213 -0.050418492
-0.10132549 0.11828444 -0.13937914 0.06134584 0.003222092 -0.07161392 0.123871915 -0.10867548
0.054276124 0.12471028 -0.0067082494 -0.033795968 -0.013267845 0.03423728 -0.010774677 0.1690113
0.13198352 -0.08711408 0.17098096 0.11144839 -0.11353606 0.003421083 -0.063831 -0.09232014
-0.105138466 0.07653048 0.06139432 0.1016208 0.07140824 -0.06378321 0.10548942 0.17232555
-0.087640956 0.07182092 -0.10533849 -0.024283605 0.18900663 0.019807493 0.11006054 0.03435642
0.021432493 0.077345654 -0.09942212 0.036378317 0.07691603 -0.20349829 0.07318475 0.12920773
0.019212587 0.0893099 0.023262747 -0.07897461 -0.027425133 0.045378055 0.013530754 0.14138663
0.015877314 -0.020795776 -0.07818548 -0.1609991 -0.006539145 -0.051064953 -0.03669788 0.006635289
0.04868345 -0.102970585 -0.0034450141 -0.028930945 -0.020691594 0.011407001 0.1410248 -0.15763684
0.04812196 0.049074426 -0.037987757 -0.103431284 -0.035653554 -0.15953884 0.034755096 -0.107867315
0.18956718 -0.06535065 0.014140456 -0.078914054 0.037749063 -0.026846573 -0.11719251 0.12523006
0.090012774 0.1368377 0.00183495 -0.18629651 0.02739928 0.1050075 -0.064962074 0.15499623
0.0055055087 -0.16209227 -0.045870073 0.004095243 0.059854213 0.13627815 -0.009724846 -0.022255225
0.109731875 0.016586341 -0.026989078 0.11082458 -0.07864136 -0.10422532 -0.06946292 -0.10259391
0.1226501 -0.0027842945 0.10629037 0.17336856 -0.06101914 0.10198131 -0.088476636 -0.038379606
0.11073933 0.08374292 -0.1105837 -0.2902281 0.050671604 -0.044976614 -0.070307106 -0.021983279
-0.013833162 0.10937297 0.12513846 0.0063555534 0.104340024 -0.06317721 -0.11406783 0.17388684
0.049259778 0.11081742 0.026825923 0.032819554 0.016067278 0.0077549876 0.10696077 0.114390686
-0.0152516365 0.0314709 -0.03377001 0.07562998 -0.023013426 -0.106044725 0.016168747 -0.054500166
0.016237393 -0.025670297 -0.06438568 -0.22489218 0.12177742 0.018949075 -0.10291178 0.08038499
-0.019066641 0.050665744 -0.040868703 0.016721468 -0.08884446 0.04144155 0.06429541 0.047978472
0.092701174 -0.01799914 0.018672746 -0.09880815 0.11944789 -0.05623892 0.04576052 -0.043303587
-0.009818677 -0.018564511 -0.11083786 -0.08704151 -0.101285815 -0.11538887 0.1358263 0.09261685
0.104958326 -0.024260787 0.034591157 -0.13404456 -0.0031902562 -0.092133686 0.016532268 -0.022397468
-0.02538777 -0.0304738 -0.017650986 0.09325938 0.039120004 -0.0691947 -0.094842345 -0.13434158
0.14163405 0.023678064 0.1179237 -0.05292862 0.060449064 0.0905561 -0.004942333 -0.014264379
0.044545352 0.13428932 -0.03984093 0.02985619 -0.078495964 -0.07386688 0.029177947 0.033089895
-0.0794255 -0.09449485 0.002385603 -0.10687079 0.035855252 0.09956547 0.102067105 0.09143808
0.09705364 0.07287493 -0.118486375 -0.07338005 -0.16447945 -0.04382322 -0.01365654 0.03550425
00000000: 1b9f e83b 9596 a2bd d77b 9ebd a302 0ebd
00000010: 47d7 b43c ac44 dc3c 04e2 ff3d 11fe d3bd
00000020: c9d7 a53d 8f85 783d 8dbd 6dbd 0d37 063d
00000030: b148 043e 9164 683d 2bd1 ddbd 7484 883d
00000040: 62ba 15bd 3f55 033e 74ec 35bd 0b7b 743e
00000050: e0ce 3b3d f1f3 c13c d683 673d 9f83 4ebd
00000060: bd83 cfbd 1d3f f23d 68b9 0ebe c745 7b3d
00000070: bc29 533b 52aa 92bd 8fb0 fd3d 4091 debd
00000080: a450 5e3d 1a68 ff3d e0d0 dbbb a46d 0abd
00000090: 6061 59bc 643c 0c3d 4588 30bc 4c11 2d3e
000000a0: b026 073e de68 b2bd a215 2f3e 0e3f e43d
000000b0: 9885 e8bd 4034 603b d4b9 82bd 5712 bdbd
000000c0: d652 d7bd 03bc 9c3d 9c78 7b3d 911e d03d
000000d0: 7c3e 923d c6a0 82bd d60a d83d 1c76 303e
000000e0: 1a7d b3bd d916 933d b5bb d7bd 69ee c6bc
000000f0: f48a 413e 5343 a23c 6c67 e13d 51b9 0c3d
00000100: 3293 af3c 6667 9e3d d39d cbbd 6e01 153d
00000110: 2786 9d3d db61 50be e3e1 953d 084f 043e
00000120: b763 9d3c 1ce8 b63d 8491 be3c 71bd a1bd
00000130: acaa e0bc 57de 393d 18b0 5d3c a8c7 103e
00000140: 2411 823c e75b aabc b51f a0bd f3dc 24be
00000150: 5346 d6bb 7c29 51bd 8450 16bd d76c d93b
00000160: 4c68 473d 3ee2 d2bd bfc5 61bb 9700 edbc
00000170: 6b81 a9bc 6ee4 3a3c ce68 103e 8d6b 21be
00000180: 881b 453d 4402 493d 0d99 1bbd c8d3 d3bd
00000190: 7609 12bd 265e 23be 5c5b 0e3d 8ae9 dcbd
000001a0: e61d 423e 90d6 85bd 5fad 673c b19d a1bd
000001b0: c39e 1a3d 58ed dbbc a002 f0bd 4f3c 003e
000001c0: 9e58 b83d 2f1f 0c3e b482 f03a 83c4 3ebe
000001d0: 7474 e03c 2c0e d73d d60a 85bd 55b7 1e3e
000001e0: 8e67 b43b 84fb 25be 42e2 3bbd 6331 863b
000001f0: b129 753d 808c 0b3e f654 1fbc 9750 b6bc
00000200: 1bbb e03d 14e0 873c 3318 ddbc fff7 e23d
00000210: b90e a1bd 1674 d5bd 9342 8ebd c21c d2bd
00000220: fa2f fb3d b678 36bb c4ae d93d 8787 313e
00000230: 35ef 79bd 94db d03d 3d33 b5bd ef33 1dbd
00000240: 4dcb e23d 6881 ab3d b579 e2bd c798 94be
00000250: 078d 4f3d 6639 38bd 2cfd 8fbd 4716 b4bc
00000260: 7da4 62bc f0fe df3d 4c24 003e 3f42 d03b
00000270: 39b0 d53d 0e63 81bd 659c e9bd 640f 323e
00000280: 9fc4 493d 3ef4 e23d 0ac2 db3c cc6d 063d
00000290: 869f 833c 8d1d fe3b 400e db3d aa45 ea3d
000002a0: 00e2 79bc a1e7 003d 6c52 0abd e4e3 9a3d
000002b0: a786 bcbc fa2d d9bd 5274 843c 913b 5fbd
000002c0: 4804 853c 844a d2bc a4dc 83bd 234a 66be
000002d0: 7166 f93d 173b 9b3c 69c3 d2bd e3a0 a43d
000002e0: a531 9cbc e286 4f3d f165 27bd 76fb 883c
000002f0: 16f4 b5bd 9dbe 293d 50ad 833d 1385 443d
00000300: 1dda bd3d ef72 93bc 96f7 983c ed5b cabd
00000310: 18a1 f43d c85a 66bd 626f 3b3d 1a5f 31bd
00000320: 84de 20bc 9a14 98bc f6fe e2bd d242 b2bd
00000330: f06e cfbd 0051 ecbd 0d16 0b3e e7ad bd3d
00000340: 64f4 d63d 8fbe c6bc 75af 0d3d fa42 09be
00000350: 9e13 51bb 96b0 bcbd ae6e 873c e57a b7bc
00000360: 03fa cfbc 31a4 f9bc cd98 90bc c6fe be3d
00000370: 4c3c 203d f3b5 8dbd b43c c2bd d790 09be
00000380: 8408 113e 80f8 c13c fb81 f13d aecb 58bd
00000390: 7099 773d 7a75 b93d 4bf3 a1bb 24b5 69bc
000003a0: 3075 363d 2483 093e 3e30 23bd f894 f43c
000003b0: 7ec2 a0bd 8547 97bd 9706 ef3c 4589 073d
000003c0: d6a9 a2bd 8486 c1bd c757 1c3b 13df dabd
000003d0: f5dc 123d fbe8 cb3d 8f08 d13d e343 bb3d
000003e0: 0fc4 c63d 743f 953d fca8 f2bd 4848 96bd
000003f0: 4d6d 28be fa7f 33bd aebf 5fbc e86c 113d

bias f4 [128]
-0.06539979 -0.09423268 -0.033288833 0.0076973285 -0.0037120949 0.13968869 -0.0852118 -0.039961472
0.12750547 -0.037390962 -0.011727638 0.04020813 0.005457371 0.111745976 -0.050725557 -0.002836206
-0.019122913 -0.09417534 0.061981454 -0.106563784 0.10943681 -0.015166968 0.104156 0.05549325
0.12599242 0.04232443 0.01726955 0.037446707 -0.098929904 0.04411175 0.040480062 -0.075983755
0.11055014 -0.03380128 0.13396436 0.045092996 0.1100516 -0.019993732 -0.106103964 -0.09020103
-0.07071697 0.12275007 -0.08662193 -0.047229983 0.098834455 -0.106980845 -0.035646424 0.0726209
0.18834555 0.10158892 0.04561023 0.090457626 0.030088 0.08325132 -0.083081245 0.060221273
0.121905446 0.051881373 -0.0823723 0.106534764 -0.11473961 0.13266343 0.16952163 0.02431901
-0.044481527 0.15536387 -0.0037919076 0.010926947 0.060252115 -0.07115308 0.057148933 -0.095069855
-0.05672276 0.014615968 0.063237876 -0.0018620319 0.05345163 -0.019669194 0.08717873 0.083295345
0.079221986 0.12658155 -0.0311293 0.105188236 0.07948218 0.026738215 0.04778642 -0.049364395
-0.10172599 0.03723092 0.002901595 0.11750154 0.06357135 0.1386463 -0.02427113 0.40459067
0.08742786 -0.018232778 -0.09329914 -0.043255363 0.12878263 -0.029340275 0.09172353 0.0054240674
-0.10769749 0.027466701 -0.045560583 -0.089148365 0.13704482 0.09450352 -0.10967272 0.13491137
-0.04527013 -0.03241265 0.043988883 -0.0015643303 0.058786396 0.029815549 -0.06510603 -0.08144228
-0.061288547 -0.09973397 0.053482994 0.026762255 -0.08471502 -0.10100074 -0.03710796 0.13359992
00000000: 53f0 85bd 10fd c0bd df59 08bd df39 fc3b
00000010: 9e46 73bb 8d0a 0f3e 8683 aebd a4ae 23bd
00000020: cb90 023e 4427 19bd 4725 40bc 48b1 243d
00000030: bfd3 b23b 13db e43d 9ac5 4fbd a4df 39bb
00000040: a8a7 9cbc 00df c0bd 44e0 7d3d 1d3e dabd
00000050: 6820 e03d e07e 78bc be4f d53d e44c 633d
00000060: 2804 013e 625c 2d3d df78 8d3c b861 193d
00000070: c39b cabd 86ae 343d 6cce 253d 5f9d 9bbd
00000080: 1d68 e23d 3673 0abd f42d 093e 6fb3 383d
00000090: bc62 e13d e5c9 a3bc 094d d9bd 51bb b8bd
000000a0: 0fd4 90bd 6464 fb3d d766 b1bd 3a74 41bd
000000b0: b869 ca3d c618 dbbd fc01 12bd 44ba 943d
000000c0: a8dd 403e da0d d03d cbd1 3a3d d941 b93d
000000d0: 1c7b f63c ab7f aa3d 8026 aabd 95aa 763d
000000e0: 90a9 f93d 9081 543d cfb2 a8bd e62e da3d
000000f0: 9afc eabd ecd8 073e 1497 2d3e a938 c73c
00000100: 4332 36bd b517 1f3e a781 78bb f006 333c
00000110: ecca 763d b5b8 91bd 0015 6a3d fcb3 c2bd
00000120: 2056 68bd d077 6f3c dc82 813d 6c0f f4ba
00000130: 19f0 5a3d 4a21 a1bc c38a b23d c096 aa3d
00000140: 233f a23d 989e 013e e002 ffbc ee6c d73d
00000150: 8ec7 a23d 1a0a db3c b1bb 433d 5232 4abd
00000160: b755 d0bd 737f 183d b028 3e3b a6a4 f03d
00000170: b231 823d 4cf9 0d3e 40d4 c6bc 8226 cf3e
00000180: 610d b33d e85c 95bc 9f13 bfbd 892c 31bd
00000190: 98df 033e 045b f0bc 8cd9 bb3d 60bc b13b
000001a0: 8090 dcbd d901 e13c bc9d 3abd 6b93 b6bd
000001b0: 7a55 0c3e 108b c13d 179c e0bd 3526 0a3e
000001c0: 2c6d 39bd 20c3 04bd b02d 343d 370a cdba
000001d0: 01ca 703d bd3f f43c 4f56 85bd 36cb a6bd
000001e0: b309 7bbd 5341 ccbd fc10 5b3d 843c db3c
000001f0: 127f adbd 7ad9 cebd 84fe 17bd 6bce 083e

weight f4 [64, 128]
-0.03788469 0.07863794 0.04568185 -0.012089478 0.0237886 0.0024124302 0.043952018 0.008155919
0.055638373 0.045353018 0.10262056 0.099724606 0.040963933 0.103357375 -0.040740978 -0.043773558
0.08028391 0.044479303 0.12683184 -0.052169017 -0.07909988 -0.053699553 0.060286056 0.0047831903
0.050430622 0.03227182 0.045663964 -0.05596998 0.07947109 -0.03258246 -0.06800203 -0.053128585
0.08915836 0.03468465 0.0045564133 0.10098712 0.031685304 0.064496934 0.037077945 -0.06444389
0.1011576 0.03814002 0.060544226 0.055951044 -0.0665353 0.027837161 0.026772497 0.091961354
-0.025143929 -0.044096645 0.0008859354 0.08877613 0.023929495 0.0463277 -0.0023699657 -0.030855041
0.006612654 0.0609574 -0.06590986 -0.030591689 -0.05170745 0.080615476 0.11118321 0.035476275
-0.034813944 -0.08869187 0.07867104 0.0520603 0.097585596 -0.043220114 -0.047577724 -0.024459222
0.09158883 0.0072058663 0.051629163 -0.07777117 0.0039385376 0.094950944 -0.056941997 0.051662706
0.03909945 -0.009293499 -0.0062849503 0.04681125 0.09503391 0.116751686 0.032232568 -0.018874802
0.11492488 0.07546436 0.070532106 0.0679439 -0.01456832 -0.08432995 0.06626537 -0.4212143
-0.089574635 -0.04501321 -0.031782202 0.024117552 -0.025666159 0.058961116 0.054663517 0.038547598
-0.0519036 0.026305402 -0.0033379644 -0.026433649 -0.0023533902 -0.084798224 0.059845753 0.061474636
-0.03577317 0.026467001 0.06878782 -0.009162018 0.085409254 -0.05199304 0.12175077 -0.04771651
-0.029405084 0.016843058 -0.04078988 0.032476757 -0.001547951 -0.026866013 0.11210269 0.09891919
0.049448304 -0.08430415 -0.06551934 0.011404581 -0.09502881 -0.011184375 0.05378464 -0.05646158
0.05505532 0.030762836 -0.044016417 0.05796855 0.009220992 -0.040186774 -0.06912435 0.06240504
-0.038634446 0.007085881 -0.04368617 -0.0871044 0.07250866 -0.057346985 -0.0038962045 0.058154542
0.024779415 0.021446398 -0.03106692 0.056127198 0.044178814 0.07911803 0.039888006 -0.0054351073
-0.020394633 -0.059790254 -0.02394297 0.008091559 0.0069604577 0.0640626 0.043822028 -0.0029638389
0.025340851 0.0069234446 -0.05029284 0.058462497 -0.092993006 -0.045190267 0.010558253 0.027215894
-0.015671821 -0.093038976 0.050955646 -0.0043954477 -0.021898976 0.0719291 0.005511248 -0.0035649901
-0.057923254 -0.020171981 0.053340033 0.058410965 0.086485006 -0.042103045 0.088937305 -0.052494753
0.047334556 0.046004627 -0.084392436 0.041143306 0.06789268 -0.020673051 -0.05553725 -0.0716065
-0.08258039 0.0056237504 0.032846984 -0.07571999 0.031927016 -0.016723597 0.026134882 -0.06724973
-0.065134354 -0.031348683 0.048661143 -0.019316602 0.03332793 0.0064554517 0.019420426 -0.0975463
0.023907548 -0.058755156 -0.07789685 -0.08598702 -0.04153309 0.0034191543 -0.061845046 -0.073081866
-0.039915282 0.040570267 0.060010917 -0.07493627 0.067039594 -0.08602111 -0.08865151 -0.034382578
0.071934454 -0.02121621 0.07374527 -0.021168865 -0.05811626 0.006841868 -0.047912993 0.07448652
-0.03955077 0.046433464 -0.039480943 -0.04240755 -0.048198104 -0.05008122 -0.061217733 0.0056687603
-0.033810496 -0.064748794 -0.011204981 -0.09760776 0.0024175965 0.03784492 -0.08772359 0.013490111
00000000: fa2c 1bbd ee0c a13d e41c 3b3d f212 46bc
00000010: 4fe0 c23c dd19 1e3b 0807 343d 67a0 053c
00000020: 10e5 633d 16c4 393d ba2a d23d 6a3c cc3d
00000030: ccc9 273d 08ad d33d 03e0 26bd e74b 33bd
00000040: e46b a43d ee2f 363d 35e0 013e 2eaf 55bd
00000050: 1eff a1bd 10f4 5bbd 83ee 763d 4fbc 9c3b
00000060: 5790 4e3d 752f 043d 230a 3b3d c740 65bd
00000070: bdc1 a23d 3075 05bd a644 8bbd 5c9d 59bd
00000080: a998 b63d 7e11 0e3d f74d 953b 56d2 ce3d
00000090: 73c8 013d f816 843d 0bdf 173d 28fb 83bd
000000a0: b72b cf3d b638 1c3d 39fd 773d ec2c 653d
000000b0: a943 88bd c20a e43c ff51 db3c 3c56 bc3d
000000c0: a4fa cdbc af9e 34bd 1e3e 683a 42d0 b53d
000000d0: ca07 c43c 1dc2 3d3d 6d51 1bbb b6c3 fcbc
000000e0: f6ae d83b 77ae 793d c0fb 86bd 6c9b fabc
000000f0: 31cb 53bd ba19 a53d 06b4 e33d 924f 113d
00000100: 1199 0ebd 15a4 b5bd 481e a13d 2e3d 553d
00000110: f5da c73d 9307 31bd dce0 42bd b55e c8bc
00000120: ed92 bb3d 301f ec3b 1a79 533d 7e46 9fbd
00000130: d90e 813b a475 c23d 033c 69bd 469c 533d
00000140: bf26 203d c343 18bc fcf1 cdbb 27bd 3f3d
00000150: 23a1 c23d 821b ef3d 4c06 043d 549f 9abc
00000160: bc5d eb3d 0f8d 9a3d 2373 903d 2c26 8b3d
00000170: f6af 6ebc 2eb5 acbd 23b6 873d 67a9 d7be
00000180: e872 b7bd c65f 38bd 0e2e 02bd 2c92 c53c
00000190: d641 d2bc 3681 713d dae6 5f3d 16e4 1d3d
000001a0: df98 54bd 6d7e d73c c0c1 5abb 618b d8bc
000001b0: 563b 1abb b1aa adbd d220 753d d4cc 7b3d
000001c0: e386 12bd 53d1 d83c a1e0 8c3d 4a1c 16bc
000001d0: 0ceb ae3d a7f6 54bd 7858 f93d 6372 43bd
000001e0: eee2 f0bc 74fa 893c 4a13 27bd 5906 053d
000001f0: 9ee4 caba 1d16 dcbc 1896 e53d 2596 ca3d
00000200: 4e8a 4a3d a7a7 acbd 012f 86bd 48da 3a3c
00000210: 779e c2bd ab3e 37bc 484d 5c3d 4244 67bd
00000220: b081 613d 5802 fc3c 8f4a 34bd 6e70 6d3d
00000230: a513 173c e39a 24bd 1191 8dbd 6d9c 7f3d
00000240: 273f 1ebd ae30 e83b 45f0 32bd cb63 b2bd
00000250: 6c7f 943d ace4 6abd 7757 7fbb 7533 6e3d
00000260: 33fe ca3c 5bb0 af3c 0e80 febc a2e5 653d
00000270: d8f4 343d a208 a23d 9b61 233d fc18 b2bb
00000280: a512 a7bc a0e6 74bd 0c24 c4bc 7592 043c
00000290: 8d14 e43b 4133 833d ba7e 333d f73c 42bb
000002a0: 9e97 cf3c 10de e23b ddff 4dbd 5f76 6f3d
000002b0: 1e73 bebd 6e19 39bd 86fc 2c3c def3 de3c
000002c0: 3162 80bc 388b bebd deb6 503d b007 90bb
000002d0: 7b65 b3bc 904f 933d b397 b43b 9ca2 69bb
000002e0: ef40 6dbd b63f a5bc 147b 5a3d 5640 6f3d
000002f0: 0d1f b13d 3e74 2cbd c324 b63d bd04 57bd
00000300: e1e1 413d 596f 3c3d f1d5 acbd e285 283d
00000310: 510b 8b3d 885a a9bc 077b 63bd 6ea6 92bd
00000320: e81f a9bd 7047 b83b 8f8a 063d 1513 9bbd
00000330: e7c5 023d edff 88bc d218 d63c 3aba 89bd
00000340: 2965 85bd 7a67 00bd e850 473d da3d 9ebc
00000350: de82 083d 4188 d33b 9617 9f3c 5bc6 c7bd
00000360: c3d9 c33c 3fa9 70bd 6288 9fbd f619 b0bd
00000370: 9a1e 2abd e413 603b 3b51 7dbd f2ab 95bd
00000380: 357e 23bd 022d 263d 02ce 753d 3078 99bd
00000390: 0e4c 893d d62b b0bd ec8e b5bd bfd4 0cbd
000003a0: 5f52 933d 9ecd adbc c307 973d 546a adbc
000003b0: 510b 6ebd c031 e03b 6a40 44bd 638c 983d
000003c0: fdff 21bd 0431 3e3d c5b6 21bd 8ab3 2dbd
000003d0: 606b 45bd f721 4dbd 72bf 7abd 02c1 b93b
000003e0: e07c 0abd 049b 84bd 1995 37bc 94e6 c7bd
000003f0: 8a70 1e3b 4603 1b3d 6da8 b3bd a005 5d3c

bias f4 [64]
-0.011278439 -0.028483173 -0.04296793 0.023321137 -0.047837898 0.35758236 0.058743395 0.099715985
0.0233623 0.039802484 0.044171944 0.07914916 0.016789246 0.056771554 -0.0114220455 0.06410847
-0.046681534 0.022052143 0.04553563 -0.05709961 0.05314337 0.427897 -0.032564472 0.042624284
0.0049994034 -0.06686404 0.021608869 0.05380807 -0.03760433 0.16842021 -0.05039575 0.06523652
0.042956386 -0.0016140307 -0.0035941722 -0.013188608 -0.027823793 0.028972983 0.033576373 0.049550965
-0.030801533 0.007073419 -0.051763993 -0.058594286 -0.018450871 0.0059708366 -0.06617837 0.01523417
-0.0629116 -0.0527655 0.036920052 0.02985864 0.04337907 -0.0343288 -0.0501777 0.01442464
0.06877478 0.066271596 0.020452578 0.053437136 -0.018026587 -0.008887151 -0.015644409 -0.02013587
00000000: 34c9 38bc 8b55 e9bc 24ff 2fbd f80b bf3c
00000010: acf1 43bd 0915 b73e ea9c 703d e537 cc3d
00000020: 4b62 bf3c ee07 233d a4ed 343d f418 a23d
00000030: 9a89 893c 4a89 683d 8823 3bbc 4d4b 833d
00000040: 2335 3fbd b2a6 b43c 9283 3a3d 48e1 69bd
00000050: ddac 593d 5115 db3e 5362 05bd cd96 2e3d
00000060: 09d2 a33b 04f0 88bd 1505 b13c da65 5c3d
00000070: ff06 1abd 5976 2c3e c66b 4ebd b99a 853d
00000080: 09f3 2f3d e28d d3ba 348c 6bbb 0815 58bc
00000090: b9ee e3bc c058 ed3c 6187 093d f4f5 4a3d
000000a0: 7f53 fcbc 24c8 e73b 7b06 54bd 9000 70bd
000000b0: 4826 97bc 02a7 c33b 8688 87bd bd98 793c
000000c0: ccd7 80bd a320 58bd 7b39 173d 1b9a f43c
000000d0: 40ae 313d 5b9c 0cbd 2287 4dbd 5355 6c3c
000000e0: cbd9 8c3d 67b9 873d 2a8c a73c e6e0 5a3d
000000f0: 7eac 93bc 6a9b 11bc b428 80bc fbf3 a4bc

weight f4 [3, 64]
0.107626475 -0.130432 0.024796195 0.060163338 -0.02184389 -0.18278241 -0.12792593 -0.07436525
0.081872895 0.1613173 0.11287384 0.0038923211 -0.008603362 -0.038520765 -0.021873461 0.09101316
-0.056721892 0.004422024 -0.08472007 -0.12339446 0.04920391 0.09364099 -0.043955695 -0.055668432
0.07574614 -0.10910627 0.045926113 0.12253861 -0.0775501 0.16376556 -0.14227219 -0.10748315
0.07579472 0.008689677 0.120474994 0.017804936 0.053784795 0.05600947 -0.101777904 0.026686415
-0.069378845 -0.07054216 0.11522275 0.089232475 -0.0071090264 -0.02595981 -0.08605611 0.04516134
0.020405903 -0.07354054 -0.100546755 0.024089979 -0.14314039 0.040952604 0.07773432 0.052783042
0.068092 0.08366846 -0.0043464787 0.13950779 -0.12459633 0.011856712 -0.09145903 -0.18968523
0.07933371 -0.09074257 0.0341029 0.13602577 0.085302845 0.31869093 -0.040943243 -0.03142933
0.09710516 0.13152671 0.130273 0.08592635 0.10227842 0.09878613 -0.13597463 -0.049410656
-0.117744125 -0.04949115 0.17277038 -0.018165648 -0.081091516 0.049963154 0.05839473 -0.106533855
0.016174465 -0.03746447 -0.072136104 0.0060848594 -0.13975817 -0.20216385 -0.113326445 -0.018933853
-0.106595576 -0.046116143 0.043464247 -0.05824539 0.0055485396 -0.09775844 -0.14547026 -0.109972894
-0.13358976 -0.03256962 0.159152 -0.090661086 0.011851635 0.07961954 -0.087364465 0.10674644
0.114062 0.031217055 -0.14257917 -0.019421225 0.033193614 -0.139904 0.106938004 -0.0498088
-0.031578526 -0.015602618 0.0043579433 -0.09756198 0.063373506 -0.049186133 0.033570364 0.12774597
0.1393049 -0.11171023 -0.104754254 0.0018309862 0.12760498 -0.2198632 0.027126297 0.08708548
0.08272611 -0.03658032 0.07129508 0.008311636 0.08990573 0.042041257 0.0052827946 0.028874263
0.08171256 -0.052427225 0.04021794 0.023421437 0.03608282 -0.2997135 -0.05830759 0.13031779
0.13025865 -0.044557065 -0.113446444 -0.11245528 0.041782785 -0.07838849 0.121679306 0.06507485
0.06902768 -0.08880844 -0.021065924 0.08163944 0.057623703 0.07366602 0.12029238 0.04720449
-0.027433753 0.016062377 0.088917926 -0.031419996 -0.083589986 -0.075175084 0.07323867 0.007530581
0.10076365 0.09990661 0.0065861796 0.1110081 0.10561563 0.054704662 0.06484029 -0.034946427
-0.104290456 0.08210962 -0.105071716 0.09585652 0.07601411 0.05021819 0.1355708 -0.068815626
00000000: 456b dc3d f78f 05be 6421 cb3c d56d 763d
00000010: f5f1 b2bc 502b 3bbe 04ff 02be cf4c 98bd
00000020: faac a73d 5d30 253e 662a e73d 5016 7f3b
00000030: 1ef5 0cbc f3c7 1dbd f92f b3bc 1c65 ba3d
00000040: 3755 68bd a0e6 903b b781 adbd 3cb6 fcbd
00000050: 0a8a 493d d9c6 bf3d e30a 34bd 9504 64bd
00000060: cb20 9b3d 1c73 dfbd 051d 3c3d 86f5 fa3d
00000070: 96d2 9ebd 29b2 273e cdaf 11be 2020 dcbd
00000080: 433a 9b3d 265f 0e3c 98bb f63d a8db 913c
00000090: 724d 5c3d 306a 653d ef70 d0bd 789d da3c
000000a0: 7f16 8ebd 6878 90bd e8f9 eb3d 84bf b63d
000000b0: d6f2 e8bb aba9 d4bc 303e b0bd 19fb 383d
000000c0: 482a a73c 6c9c 96bd 75eb cdbd 5958 c53c
000000d0: 6593 12be ebbd 273d 2c33 9f3d 0833 583d
000000e0: d273 8b3d 5f5a ab3d e86c 8ebb 21db 0e3e
000000f0: 5c2c ffbd a842 423c df4e bbbd d83c 42be
00000100: b679 a23d 3ed7 b9bd 7caf 0b3d 574a 0b3e
00000110: 42b3 ae3d 752b a33e 1ab4 27bd 0bbc 00bd
00000120: 12df c63d f0ae 063e 4966 053e 27fa af3d
00000130: 5977 d13d 6250 ca3d ef3c 0bbe d462 4abd
00000140: d523 f1bd 3bb7 4abd b8ea 303e 20d0 94bc
00000150: 4f13 a6bd 2aa6 4c3d 502f 6f3d 6c2e dabd
00000160: 5080 843c 5874 19bd 18bc 93bd 8063 c73b
00000170: c41c 0fbe 0a04 4fbe b217 e8bd 2b1b 9bbc
00000180: c84e dabd 48e4 3cbd 9107 323d b892 6ebd
00000190: 86d0 b53b 9435 c8bd 28f6 14be 7839 e1bd
000001a0: c1cb 08be b967 05bd bef8 223e 85ac b9bd
000001b0: 5c2d 423c 920f a33d 24ec b2bd e19d da3d
000001c0: 5699 e93d e9ba ff3c 4600 12be 4319 9fbc
000001d0: 07f6 073d ff42 0fbe 5002 db3d 5004 4cbd
000001e0: 7c58 01bd 20a2 7fbc 14cd 8e3b 93ce c7bd
000001f0: f8c9 813d 6677 49bd 1481 093d d7cf 023e
00000200: f2a5 0e3e 55c8 e4bd 6689 d6bd b4fd ef3a
00000210: e1aa 023e d223 61be f837 de3c df59 b23d
00000220: 4f6c a93d 3fd5 15bd 2803 923d 872d 083c
00000230: 7f20 b83d 7433 2c3d 4b1b ad3b b889 ec3c
00000240: ea58 a73d eebd 56bd 91bb 243d 50de bf3c
00000250: 94cb 133d 0c74 99be f1d3 6ebd 0772 053e
00000260: 8662 053e 7881 36bd 9c56 e8bd f44e e6bd
00000270: 6d24 2b3d 258a a0bd 0033 f93d f745 853d
00000280: 625e 8d3d 33e1 b5bd 7292 acbc 9432 a73d
00000290: d506 6c3d 36de 963d da5b f63d 7f59 413d
000002a0: c0bc e0bc 3f95 833c 9a1a b63d 41b2 00bd
000002b0: 3a31 abbd 65f5 99bd 28fe 953d 18c3 f63b
000002c0: 2c5d ce3d d69b cc3d e1d0 d73b 3758 e33d
000002d0: 024d d83d ff11 603d fcca 843d fc23 0fbd
000002e0: 3c96 d5bd 1729 a83d d72f d7bd 6c50 c43d
000002f0: 49ad 9b3d 97b1 4d3d 12d3 0a3e 35ef 8cbd

bias f4 [3]
-0.11162347 0.036541265 0.120014936
00000000: d99a e4bd 4bac 153d 64ca f53d
