LorenzSystem/TrainedModels/LSNNModel_FFT(Noise = Normal).pth (torch, 73352 bytes, 8 tensors)

weight f4 [64, 3]
00000000: 9b67 363e 9e0d 06bf 2007 313e de38 3e3d
00000010: 9153 913e 84ff c3bd fcbe 4c3e 7b03 dbbe
00000020: dd29 023f 66b2 24bd 4602 0bbf 9de2 f0be
00000030: 8a41 e7be 0c21 123e 00e2 6abe 72b8 f53e
00000040: d134 f33e 2550 d1be 56a6 e43d 2e4e 5cbe
00000050: 520b 0b3f 5217 14be 184b b4be 6030 95be
00000060: 391a 0dbe cbab 8ebd 7fb0 e13e ded7 c1be
00000070: 90f8 a63e f09b aa3b 91b7 80be 9126 923e
00000080: 8ac7 a03d 144f 593e 6f4a 923d 2996 143f
00000090: 5956 2fbe 3431 af3c 83b1 5f3e 9745 a33e
000000a0: 60ff e73d a608 5ebe fa38 4b3f 9fd6 84be
000000b0: 1253 8cbe dc86 d53c a5c4 ffbe 6f31 823e
000000c0: 9ffe 3b3e edc8 c63e 2477 69be 1cbb a1bc
000000d0: f632 143f 0751 f33d a04d 22be 1b21 043f
000000e0: b255 e33b ce42 5cbe 43be 083f c157 af3e
000000f0: d046 c4be 36ed 86be cded 9a3e 534d 83be
00000100: 7f32 e13e 2197 703e af12 05be 9805 d13e
00000110: ece7 143f 3acb 21be c2fe b43e 575a 3b3e
00000120: f32f 8a3e bca5 ad3e e164 0dbf 2a66 8bbe
00000130: a248 e73e bb9f e2be 19e9 953e 4b22 483e
00000140: befd f5be 36fd ffbe e5af 43be d408 dabe
00000150: 9100 6bbe 2517 0a3f b10f 25be a643 b03e
00000160: 65d8 17bf 2bc0 bbbc 246e 3f3e 4f46 0c3f
00000170: 94b7 3d3c ab2e bc3b c238 12bf 77c4 0c3e
00000180: 167d 0cbf 94f7 fe3e 55cf 903e 8807 033f
00000190: 9ea3 1d3e 8ca7 013f 6a51 09bf 2d03 e43c
000001a0: 31ca 963e 40a6 59bd f4ce edbd b46b 04bf
000001b0: af49 bebe 444a 0bbe 762c b13e 2a3c dbbe
000001c0: ef91 14bf 2bc8 babe f9c2 1a3f 0a90 f43e
000001d0: 1f3f 85bc 1096 81be 59fa c83e cc91 bb3e
000001e0: 589f 293d e1af cc3e 90ec ddbd 98f8 bf3e
000001f0: 82c8 a9be a665 f53e 18d0 9f3e 0dc6 963e
00000200: 2342 d5be 2989 a5be c091 20be bea9 d23e
00000210: b5bf 183f c570 05bf 1ece cc3d 66ce ccbe
00000220: cb8e fcbe 39e7 e7be 6073 453d c2b7 df3c
00000230: 18d2 103f ad70 fa3d 244d 953e 45d1 abbd
00000240: e96b 18be c8f6 8d3e b0fb 6c3e 5ac8 1cbe
00000250: 3dcf 1a3e 4587 0d3e 3b21 72be 508e efbd
00000260: fbe1 833d feaf 1c3f adcf a3bd 5676 f9bd
00000270: 7566 aabe a666 c23e 092e a53e 1680 81bd
00000280: 0392 acbe 1ccc 933e 76b2 f1bd 56c2 2dbd
00000290: 0d44 ad3e 20da eb3e f17d 873e d8aa b6bd
000002a0: e7d9 febd f945 bdbe e9d1 7bbe 5cb4 f8be
000002b0: c189 f0be e5d7 c33e b379 04be a86e edbe
000002c0: 9faf c53c 4143 c4be 0c75 c4bd 29dc 0c3e
000002d0: 51f3 653d b891 783e b541 163f f0bc 08bf
000002e0: f210 73be 7598 dbbe a0eb b53c 32fa 38be
000002f0: 186d c0be f1d5 f93e c7c4 8d3e 2157 ff3e
0.1781296 -0.5236453 0.17287874 0.04644095 0.2838407 -0.0957022 0.1999473 -0.42776093
0.5084513 -0.040209197 -0.54300344 -0.47047892 -0.4516719 0.14270419 -0.22937775 0.47992283
0.47501233 -0.40881458 0.111645386 -0.21514198 0.5431415 -0.14462021 -0.35213542 -0.2913847
-0.13779534 -0.06966361 0.44079968 -0.37860006 0.32611513 0.0052065775 -0.2514005 0.2854505
0.07850559 0.21221572 0.07143103 0.58041626 -0.17122783 0.021385767 0.21845059 0.3188903
0.11328006 -0.21682987 0.79383814 -0.25944993 -0.27407128 0.026065283 -0.49954715 0.2542834
0.18358849 0.3882517 -0.22799355 -0.019742541 0.5789026 0.11880689 -0.15849924 0.51613015
0.006937706 -0.21509859 0.53415316 0.34246638 -0.38335276 -0.26352853 0.30259553 -0.2564493
0.43983838 0.23495151 -0.12995408 0.4082458 0.58166385 -0.15800181 0.35350615 0.1829618
0.26989707 0.33915508 -0.55232054 -0.27226382 0.45172602 -0.4426249 0.29279402 0.19544332
-0.48045152 -0.49997872 -0.19110067 -0.4258486 -0.22949435 0.53941566 -0.16119267 0.34426612
-0.59314567 -0.022918781 0.18694359 0.5479478 0.011579413 0.005742868 -0.57117856 0.1374682
-0.54878366 0.49798262 0.28283182 0.51183367 0.15394446 0.5064628 -0.53639853 0.027833546
0.29451135 -0.053137064 -0.11611739 -0.5172684 -0.3716559 -0.13602549 0.34604234 -0.4281934
-0.58035177 -0.3648084 0.60453755 0.47766143 -0.01626545 -0.253098 0.392535 0.36634672
0.041411728 0.39977935 -0.10836136 0.3749435 -0.33160788 0.47929114 0.3121345 0.29447976
-0.4165202 -0.32331207 -0.15680599 0.41145128 0.5966752 -0.521252 0.10000251 -0.4000122
-0.49327692 -0.45293596 0.048205733 0.027309302 0.5657058 0.122285224 0.29160416 -0.08389524
-0.14884914 0.27727342 0.23142886 -0.15310803 0.15118118 0.13821132 -0.23645489 -0.11697066
0.06439587 0.6120604 -0.079985954 -0.12180774 -0.33281294 0.3796894 0.32261685 -0.063232586
-0.33705148 0.2886666 -0.11801617 -0.04242166 0.3384098 0.46064854 0.26463273 -0.089193046
-0.12443905 -0.36967447 -0.24591793 -0.48575103 -0.46980098 0.38250652 -0.1293705 -0.46373487
0.024131594 -0.3833256 -0.095926374 0.1375586 0.056140248 0.24274337 0.5869401 -0.53413296
-0.23736933 -0.42889753 0.022207081 -0.18064192 -0.37583232 0.48796037 0.27689192 0.49871162

bias f4 [64]
00000000: efa4 633d 1faf 1a3e b042 c1be 55a6 df3c
00000010: 01e6 cdbe 9980 edbd 8b09 f2be 916e 7c3e
00000020: a4bc fc3e 255d 4e3f 7e68 08bf 4018 de3e
00000030: 695e ec3e a237 8e3e 44fa 3e3f 753b 0dbf
00000040: 9fed a23c b045 833e 729d 94be 16af b73d
00000050: 7011 e2be e359 bdbe ed9d ed3e e4bf aa3e
00000060: a151 e8be 87ec f93e 3736 a6be 3a33 123f
00000070: a4d8 343c c06f af3e 0f8a 80be cc6a 193f
00000080: 7784 a53e 51c8 acbe 5092 a4be 009a ff3d
00000090: 9bc8 5f3e f843 91bd ddf2 163f ff85 173e
000000a0: b702 383d 6730 1a3d 5ca7 1f3f eda8 9bbe
000000b0: da62 9dbe 5ae8 60be e078 903e 9d19 053d
000000c0: 2098 c6be 5a56 ab3e 9884 8bbc cd92 e93e
000000d0: a86c 523e 6e25 4d3e a8c5 c6be 1883 103f
000000e0: e659 3c3f 0190 c8bd bd9f fe3e ea9a 24be
000000f0: 4eaa 97be b5f1 a6be 3459 9abe 9e0b 0abf
0.055577215 0.15105866 -0.3774619 0.027300993 -0.40214542 -0.11596794 -0.47272906 0.24651553
0.4936267 0.8061088 -0.5328444 0.43377876 0.4616578 0.2777682 0.74600625 -0.5516885
0.019888697 0.25639105 -0.2902637 0.08968942 -0.4415393 -0.3698264 0.4640955 0.33349526
-0.45374778 0.4881327 -0.32463238 0.57109416 0.011037979 0.34264946 -0.2510533 0.59928584
0.32327625 -0.3374658 -0.32142878 0.12480545 0.21853869 -0.07093042 0.5896433 0.14797209
0.044924464 0.037643816 0.62364745 -0.30402318 -0.3073948 -0.21963635 0.2821722 0.03249513
-0.38787937 0.3346432 -0.017030999 0.45619813 0.20549262 0.2003381 -0.38822675 0.56450033
0.73574674 -0.097930916 0.49731246 -0.1607472 -0.2962212 -0.32606283 -0.30146182 -0.53923976

weight f4 [128, 64]
00000000: b3ff bb3d d867 a33d ae59 be3d 0b7e 343e
00000010: 3875 003d 084d 133e 67e0 ea3d f5b9 dfbb
00000020: 0f16 fc3d 2b55 27bd b898 e1bd 7034 04bc
00000030: f26d 50bd 56fe b83d d6fe 30bf df6e 9c3d
00000040: 8bb2 de3d 0ae1 723d 6b06 f53c c9cd 573d
00000050: a4dd a5bd 2227 dd3c 14e2 a03d 808f e7bd
00000060: 9d57 a1be 2bff 033f a939 5dbe 5748 4e3e
00000070: ce7e 9ebd 82a6 f73b 78f8 a7bb cc8f 903d
00000080: 754e d5bd 4ef8 3c3d efc7 76bd 7029 22bd
00000090: 3d6b 26bd b214 6a3d 1d3f 6dbd 2d33 953d
000000a0: 5cf7 d1bd f61e 35bd e565 1ebd c035 a13d
000000b0: 10e8 8abd 5738 37bd 0a46 fabd a33c 963c
000000c0: d457 e9bb 601c ab3d 1ac8 c9bd 1823 b63e
000000d0: 6ee4 afbd 8d48 f7bc f664 cbbd c718 9dbd
000000e0: ca97 243e 1386 8e3d 4681 973d de3f 563b
000000f0: 01f7 a2bb 08ca 0e3e defb a4bd 6964 cbbd
00000100: 8cec 1e3d 4b08 a93b 962a 803d ccd0 f7bd
00000110: 1802 eebd e9d8 31bd bd61 033d 7f9c c83c
00000120: 0a32 8b3c 7df0 64be 6973 f2bd 2cca 5a3d
00000130: 1a3e 8ebd 49e7 953d d962 0f3e 6967 8dbd
00000140: 8634 90bd 4c2a 003c 78c8 743d 920d 1ebd
00000150: b72e e03c 5461 953d 3abe 92bd 9fdd 893c
00000160: 2c91 d23d eceb 2ebe f5d5 7e3d 103f debd
00000170: b83b 283d 8ec4 383e 7978 723d 4df2 243d
00000180: 2c6f f1bc 3316 0f3e 5a63 d1bd 806d c1bc
00000190: 534c b6bd 1e09 02be ac99 7e3b 114d bd3c
000001a0: 5d3e 183e 0a0f a83d 310d 82bd 02cf 2dbd
000001b0: ae78 873e 71b6 f6bd cee4 c0bc b6c8 9f3d
000001c0: 171d c7bc ebff cb3d f697 87bd 209b 3d3e
000001d0: ca1b d53d fe8c 82ba 4592 453d 9de0 253e
000001e0: a059 a43c 88de ae3d b583 5c3c 0366 8bbd
000001f0: 2efe f2bc 8499 1abe e8fa 2cbd 2199 b33d
00000200: 8369 52bd 992d 353d 45fc 933d 2053 cebd
00000210: 40c5 a33d c221 0bbb 4294 bc3d 6264 a2bd
00000220: c500 5e3d 7534 ad3d bfda 38bc e3c5 e73c
00000230: 3f67 ca3d e85b 1d3d 8e49 cabd 5306 0c3c
00000240: f100 1e3d f913 d2bd f7d7 b4bd ee08 2a3d
00000250: fa9b dcbd 1b02 093d 948c 23bd 1a96 50bd
00000260: d1b3 47bc 8e4e 14ba 784b 93bd 6735 883d
00000270: 7e3e 893d 5087 3fbc 98fb 22bd fbbe eabd
00000280: e61f 033d a89e 823d 5626 a43d 60a3 403d
00000290: 5ca7 943d 40fd f23c b2f2 263d 979b 04be
000002a0: d13b 04bd 1aa4 efbd 8d27 87bd 282f 9d3c
000002b0: 9c5b d4bd 480d 9dbd 74b6 7ebd d4ca 6dbc
000002c0: 23cc bcbd 44f7 083d 8eef 663c 167e a03d
000002d0: 0bdb b73d 2f03 9fbd d560 bb3d 909b a9bd
000002e0: 0dae 713c 72cd 213c 22bd b2bd 7014 19bc
000002f0: a97e 06be 439b 45bd 7ed2 80bd 9b48 b7bc
00000300: be82 853d 9225 0d3e b001 ee3a e557 07bd
00000310: ac8a 963d 4b38 88bd c731 893b 5ce5 0fbe
00000320: 5d58 003e 3551 013e c829 2c3c d710 f33d
00000330: 9fb7 343d 73da e13d 1e31 c43c 7e47 babc
00000340: a7a7 a53d 8a98 de3d 4b50 a23d a228 113e
00000350: 28cd 813d 3384 153d e3ae f43c 5607 0b3e
00000360: b123 443c 379d 243d 5bd2 0c3e fe8c cebd
00000370: 0d58 7abd 96f1 8c3d e89c 9b3d ffa6 c53c
00000380: 1f12 5ebd 6fca 05bd 533f acbd a00a 79bd
00000390: 8286 04bc ccc6 00be 8e91 a83d 2025 12bd
000003a0: 53d1 8b3d 0c06 89bd e433 a63d f7f7 4a3c
000003b0: 923d 41bd 26b2 bcbc a986 293d 1b38 153d
000003c0: 03a6 bbbc 1051 b83d c38a 8dbd 4cb3 d7bd
000003d0: e3ce 853d 0669 b63d aa3f e63c e7c5 05bd
000003e0: e1c1 2abe df6c a3bd 8875 e73d 863e 1cbd
000003f0: e50b 5c3d 2813 ad3d 0c60 ce3d 7efc 09bd
0.0917963 0.07978791 0.09294449 0.17626207 0.03136179 0.14384854 0.114685826 -0.0068275877
0.12308895 -0.040852707 -0.11015457 -0.008069143 -0.050886102 0.09032886 -0.6913885 0.076383345
0.10873898 0.059296645 0.029910287 0.052686486 -0.08098915 0.026996199 0.07855621 -0.11306667
-0.31512156 0.5156123 -0.21604027 0.20144783 -0.0773903 0.007557691 -0.0051260553 0.07058677
-0.10415355 0.04613524 -0.060249265 -0.0395903 -0.040629614 0.057148643 -0.057921518 0.07285152
-0.10252258 -0.04421898 -0.038671393 0.0787158 -0.06782544 -0.044731464 -0.1222039 0.01833946
-0.0071210656 0.083550215 -0.098526195 0.3557365 -0.085884914 -0.030185962 -0.09931366 -0.076707415
0.16073528 0.069591664 0.07397704 0.0032691876 -0.004973293 0.13944256 -0.08055852 -0.09931261
0.038799807 0.0051584593 0.062581226 -0.12100372 -0.11621493 -0.043419752 0.032075632 0.024488686
0.016991634 -0.22357364 -0.11838419 0.053415462 -0.06945439 0.07319505 0.14002551 -0.069044895
-0.07041268 0.007822584 0.059761494 -0.03858716 0.027366025 0.072939545 -0.07165189 0.01682931
0.102815956 -0.17082185 0.062215764 -0.10851872 0.041072577 0.1804373 0.059196923 0.04027014
-0.029471956 0.13973312 -0.10224028 -0.023611784 -0.089012764 -0.1269879 0.003884892 0.023108037
0.1486754 0.082059935 -0.06350172 -0.042433746 0.2645926 -0.12046517 -0.023546603 0.078019544
-0.024305863 0.09960922 -0.06620781 0.18516207 0.10405691 -0.0009960232 0.048235197 0.16198964
0.020062268 0.08538538 0.013459136 -0.068065666 -0.029662218 -0.15097624 -0.04223147 0.087694414
-0.051370155 0.04423294 0.07225851 -0.100744486 0.07996607 -0.0021229838 0.092079654 -0.07929303
0.054199953 0.08457271 -0.011282622 0.028292602 0.09882974 0.038417727 -0.09877311 0.00854643
0.038575117 -0.10257716 -0.088302545 0.041512422 -0.10771938 0.033449274 -0.039928988 -0.050924398
-0.012188868 -0.00056574575 -0.07192129 0.06650811 0.067013726 -0.011689976 -0.03979072 -0.11462208
0.032012843 0.063779175 0.080151245 0.047030807 0.07258484 0.029661775 0.040758796 -0.12949978
-0.032283608 -0.11701222 -0.065993406 0.019187525 -0.103690356 -0.07668549 -0.06218572 -0.01451369
-0.092186235 0.033438936 0.0140952 0.07836549 0.08977326 -0.07764279 0.091493286 -0.08281624
0.01475097 0.009875642 -0.087274805 -0.009343252 -0.13134255 -0.048243772 -0.06290148 -0.022373488
0.06519078 0.13783863 0.0018158462 -0.033042807 0.07350668 -0.06651362 0.004186842 -0.14052337
0.12533708 0.12628634 0.010508008 0.11868446 0.044120427 0.11027994 0.023949202 -0.022739168
0.08088618 0.10868938 0.07925471 0.14175656 0.063379586 0.036503028 0.029868549 0.13577017
0.0119714 0.040188994 0.13752119 -0.10085486 -0.061119128 0.06882016 0.07598287 0.024127482
-0.0542165 -0.03266376 -0.08410516 -0.06080115 -0.00808871 -0.12575835 0.08230887 -0.035679936
0.06827035 -0.066906065 0.08115366 0.012388221 -0.04717786 -0.023034167 0.041388188 0.03643046
-0.022906309 0.089998364 -0.06911232 -0.10532245 0.06533601 0.089067504 0.02810653 -0.032659438
-0.16675521 -0.0797975 0.11301714 -0.038145564 0.05372228 0.084509194 0.10076913 -0.03368806

bias f4 [128]
00000000: f339 d13d 70b5 923c 5215 10be 90be 023d
00000010: bdba a2bd ecc8 0dbe c3f0 5ebd 8623 bdbd
00000020: ae3c ae3d bc6d 823d 7ee9 38bc d0b2 cfbd
00000030: 6d25 053e 4604 543d 793d d7bd 711b 53bd
00000040: ed8e 99bd ce8e 97bd 5172 bfbd 244b 843d
00000050: bdab 74bc be16 183d af95 0e3e 6a70 8c3d
00000060: 9bb2 613d 4000 053b 74b6 c2b9 0266 21bd
00000070: 699d aa3d f5b3 0c3e ae19 8dbd 306d 2a3d
00000080: 0a9f a9bc 03a8 043e 237b 67bd 47e2 15bc
00000090: 5c81 023d d198 86bd 8afe 69bc 20c0 2b3d
000000a0: b263 abbd 1451 4ebd 2adf 3f3d 14bc 4f3d
000000b0: 67b9 0e3e 0f9a 35bd 355f f43d 0042 aeba
000000c0: 4307 273e 5f33 a43d e1cc 35bd b7da 6fbd
000000d0: 7c30 643d e326 24bd ca4a a7bd 6f5b 163d
000000e0: 1015 8dbd c60b 913d 6894 a93d f9f6 1cbd
000000f0: e90a 8fbc 7c2a bfbc 8e2f a83d 2239 8fbd
00000100: 46a4 263d 479a 4d3d 6931 afba 17cc b53c
00000110: a4ca d83b 9081 0fbd 2df6 d0bd 54cc 483e
00000120: 0206 a03d 95e9 85bd b3b0 603d 3d5e d8bc
00000130: 7bcc e63d bfd2 6e3c b5d6 153d f436 293d
00000140: 98ab 86bd 66e0 523d 5103 19bd 6bf2 c83d
00000150: 3f8a 02be a838 babd 06e7 d73d d4ab 43bd
00000160: 59fb 5d3c 40c4 003c f34d b0bd a95e 7dbd
00000170: 62df bd3d 189d de3d 6ada d63d f958 5abd
00000180: 0846 863d 3cf5 dc3c f04d c4bd 7c86 9fbd
00000190: 5af1 ea3d ce4c 11be f337 82bd 7ce2 11bd
000001a0: 0ff7 dbbd 90f6 f6bc f901 ad3c f044 5bbd
000001b0: 88bc 923c adfa 8239 2283 dfbd 01b8 433d
000001c0: 87b4 09bd f6fa a43d eaf6 2b3a 809a d3bb
000001d0: 0cbd 593d ccb0 773e cb65 f8bd c1eb 413d
000001e0: 0907 95bd bf1a c13c 4eaf c93d d0d4 ce3d
000001f0: 32f7 fbbc 14a5 1e3d b954 dfba f013 ec3c
0.10216131 0.017908782 -0.14070633 0.031920016 -0.07945774 -0.13846177 -0.054428827 -0.09235291
0.085076675 0.063685864 -0.011286138 -0.10141528 0.13002558 0.051761888 -0.10509772 -0.051539842
-0.07497964 -0.07400285 -0.09347976 0.064596444 -0.014933524 0.037131064 0.13924287 0.06857379
0.055101972 0.0020294338 -0.00037138502 -0.039403923 0.08330805 0.13740523 -0.06889664 0.041608036
-0.020705719 0.12954716 -0.056513917 -0.009148187 0.031861648 -0.06572116 -0.014281878 0.04193127
-0.08368625 -0.05037029 0.046843685 0.050716475 0.13937913 -0.044336375 0.11932222 -0.0013294816
0.16311364 0.08017611 -0.04438484 -0.058558192 0.0557103 -0.040076148 -0.08168562 0.03670829
-0.06888783 0.07082324 0.08280259 -0.03832147 -0.017461257 -0.023335688 0.08212195 -0.06993319
0.040684007 0.05019596 -0.0013366166 0.022192044 0.0066159535 -0.03503567 -0.10203204 0.19609195
0.07813646 -0.06538693 0.054856014 -0.026412124 0.1126947 0.014576613 0.036581714 0.041312173
-0.06575698 0.051483534 -0.03735668 0.098118626 -0.12748049 -0.090928376 0.10542111 -0.04777129
0.0135486955 0.00785929 -0.08608618 -0.061857853 0.092711225 0.10869807 0.10490878 -0.053307507
0.06556326 0.026972406 -0.09585178 -0.07789323 0.114718154 -0.14189455 -0.06358328 -0.035616383
-0.10740482 -0.030146867 0.021119105 -0.05353254 0.017912164 0.000249823 -0.109136835 0.0477829
-0.03361943 0.080556795 0.00065599254 -0.006457627 0.053158805 0.24188536 -0.121287905 0.047343973
-0.072767325 0.023572324 0.0984789 0.100991845 -0.03075752 0.03873165 -0.0017038799 0.0288181

weight f4 [64, 128]
00000000: 26c7 fdbb abb4 d53d edd0 72bc 2b36 9e3d
00000010: ec6a 523b 86cc 833d b77e 69bd 9c8c 31bd
00000020: 7959 0f3d 87ee a1bc d025 9c3d 0e45 933d
00000030: 363a bc3b a385 2abd 2da1 533d 61f3 9a3c
00000040: ee0f cc3d 7ed8 243d 0c5f 953c aff8 c6bd
00000050: adea 363d 7b9b dfbc e937 253c 6605 873d
00000060: ac36 41bd df7a 1ebd f344 b23d 8656 e53d
00000070: 35de 8cbc 279b 883c b8b3 75bc 77a2 56be
00000080: 0654 0abd be1e 983d 3815 9fbd 22ee e4bc
00000090: d193 b83d 253f b33d 6074 20bd 9f22 12bb
000000a0: 2ecc 0ebd 742a a03d 3769 7ebc 7983 b3bd
000000b0: 0708 30bd b0eb 353c dbdc 45bd 41f7 0ebc
000000c0: 3ac0 4e3d 5ad2 abbb baa2 833a bf97 17bd
000000d0: 00e8 93bd 0ed4 c93d 5603 133d d263 48bd
000000e0: b0e7 1abc b052 d83d 217d 7d3c 001e 213a
000000f0: 5199 7b3d 69a1 b43c d42d a3bd ec91 90bc
00000100: 2454 163d b88f 8e3c 9136 643c 7e14 6bbd
00000110: 28cd fdbd 29c6 b03d 54b3 80bc 6319 6e3d
00000120: d545 61bd c835 89bd 40bd 51bd 6787 56bb
00000130: fc11 3abd 7870 6dbd f284 5a3d 954f d93d
00000140: e9d3 883c 5bf3 4ebd 4f1f 8b3c d0e9 61bd
00000150: 3f6a 853d 4cb5 d03d 7971 bf3d 6ea0 43bd
00000160: a9d4 b4ba 658f 51bd 713a 203d 963e 80bd
00000170: 591e b53b 82f8 153c b3f0 44bd c6ef 30bd
00000180: 5de0 85bd 581c 39bd a9fc 31bb 5c4d cc3c
00000190: e6a8 e13d 9387 42bd 4911 71bd 0ebb b1bd
000001a0: 73e2 9ebe 29b8 c73d 4ec9 263d dc3a e1bc
000001b0: 04a0 9cbd ed31 a33d 1400 42bc 60a3 953d
000001c0: b007 763d 1432 5e3d 60f6 6c3d 666c 0ebd
000001d0: e41c 73bc e58a a53d 17ad 0f3c a46e b33d
000001e0: 9149 c8bd 4144 ed3c 91f2 55bc 4648 603d
000001f0: 5754 6f3d 9f33 363d d658 ab3d c13c a93d
00000200: 8039 3ebd e171 973b 2253 0abd 2be1 c03c
00000210: 7e1c 433d a917 3fbd d61b 7fbd 25ac 783d
00000220: 879c c23d d342 bd3c 9d18 5dbd 4090 6e3d
00000230: 7bee 933d 4521 04bc b64b 2f3d 14b6 a93d
00000240: 6972 403d 73dd 933d 778c cf3c 1de4 24bd
00000250: 2715 ef3b c349 ef3c 3e78 1d3c 2c5c 273d
00000260: 1099 ba3d 1c9a e23c e2b8 b0bd b4e7 763d
00000270: c597 753d ee51 863d 1052 cb3b 37a5 bdbe
00000280: 3c7e 92bd 41a3 373e f904 9cbd c8e3 c1bc
00000290: 0d24 27bb c651 7fbd 449a 6b3d ea7d f3ba
000002a0: 0f77 d83c 08ac 363d 5a16 d3bd b742 19bd
000002b0: d168 79bd 5c98 6cbd b49e ab3d 57e1 c1bc
000002c0: 35df 8f3d 933f 783c 0b3e b23d 0761 123d
000002d0: 3d55 83bd bb72 61bd 3ccf 1bbd 650c 103d
000002e0: 5283 5a3d b00b c6bc 53f7 e83b 9efa 643d
000002f0: b2ac ea3c 5e3d 093c 22e0 06bc 2c6f 9ebc
00000300: 249a eabc aedf 5fbd 6950 f83c 02df 493d
00000310: 53d2 47bc d0e1 a93b d863 c7bd 64cd d03d
00000320: facd 92bc d941 953c b4b3 4abd 7773 f3bb
00000330: dc1f 97bd 739c 0fbd 5ffd 29bd 1814 62bc
00000340: c8bd 6b3c 178f 50bb 25df 85bb a1df 4fbd
00000350: 3115 293d 181b 45bd 84ff 403d 4048 5fbc
00000360: 0128 c93d c15e 59bd d236 4bbd 16cb 7cbb
00000370: e9c0 923d 1ce6 d53c 65f8 83bd 3cfe febc
00000380: 18c0 20bd 41d3 0f3d f534 65bd c204 5fbc
00000390: ecfa a73d 0869 c4bb e892 1abd 708e 88bd
000003a0: 0475 88be 56ad caba c7ba 08bd d712 a6bd
000003b0: f072 9a3c c528 4f3d 4491 3ebd f601 923d
000003c0: 416d d6bc 4597 113d 42d3 b3bd 5439 d1bd
000003d0: 3ace 17bd 7e6d 553d 3ef4 c1bc 6c30 8d3d
000003e0: 6625 8bbc e89e af3d ef94 85bd de67 c4bc
000003f0: 5676 ddbc d2c4 f73b ab6a 963d 6170 a93d
-0.0077446876 0.1043485 -0.01482032 0.077251755 0.0032107187 0.06435494 -0.05700561 -0.043346986
0.034997437 -0.019767059 0.076244 0.071909055 0.005744244 -0.041631352 0.05166738 0.01891488
0.09963976 0.040245526 0.018233798 -0.097154014 0.044657398 -0.027295819 0.010084131 0.065928265
-0.04717128 -0.038691398 0.08704557 0.11198144 -0.0171958 0.016675545 -0.014996462 -0.20960413
-0.033771537 0.074277386 -0.07767719 -0.027945582 0.09012569 0.08752278 -0.039173484 -0.0022298468
-0.03486269 0.07820597 -0.015528015 -0.08765311 -0.042976405 0.011103556 -0.048306327 -0.008725942
0.05047629 -0.0052435817 0.0010043003 -0.03700995 -0.07221985 0.09854899 0.035891853 -0.04892332
-0.009454653 0.105626464 0.015471728 0.0006146133 0.06142551 0.022049623 -0.079677254 -0.017647706
0.036701337 0.017402515 0.013929025 -0.05739259 -0.12392646 0.08631546 -0.01571051 0.05812968
-0.054998238 -0.06699711 -0.051205873 -0.0032734515 -0.045427307 -0.057968587 0.053349443 0.10610882
0.01670261 -0.05052505 0.016982703 -0.05515462 0.065144055 0.1019083 0.09347815 -0.04776042
-0.0013796288 -0.051162142 0.039118234 -0.06261937 0.0055272994 0.009153487 -0.04808111 -0.043197416
-0.065369345 -0.045193046 -0.0027158654 0.024939232 0.11018543 -0.047492575 -0.058854375 -0.08678256
-0.31032142 0.09751923 0.040719323 -0.027493887 -0.07647708 0.07968507 -0.011840839 0.07306552
0.060065925 0.054246977 0.05785215 -0.034771346 -0.014838431 0.08083133 0.008769295 0.087613374
-0.09779657 0.02896321 -0.013058321 0.054756425 0.058430042 0.044482823 0.083665535 0.08263541
-0.046441555 0.0046217297 -0.033770688 0.023544868 0.047634594 -0.046653423 -0.062282406 0.060711045
0.095025115 0.023103153 -0.05397855 0.058243036 0.07223221 -0.008064573 0.042796813 0.08286682
0.04698411 0.072199725 0.025335534 -0.04025661 0.0072962227 0.029209977 0.0096111875 0.040859386
0.091112256 0.027661376 -0.086290136 0.060279563 0.05995919 0.065585956 0.006204851 -0.3704011
-0.071529835 0.1793337 -0.07618136 -0.023668185 -0.0025503666 -0.062333845 0.057520166 -0.0018576954
0.026423959 0.044597656 -0.103069976 -0.03741714 -0.060890976 -0.05776249 0.083798796 -0.02366702
0.07024995 0.015151876 0.0870324 0.035737064 -0.06412742 -0.055041056 -0.03803943 0.03516807
0.053347893 -0.024175495 0.0071095615 0.05590307 0.0286468 0.0083764475 -0.008232148 -0.01934012
-0.028637953 -0.054656677 0.03031178 0.049284942 -0.012196141 0.0051843897 -0.097358406 0.10195425
-0.017920483 0.018219875 -0.049487785 -0.007429536 -0.073791236 -0.03506131 -0.0415014 -0.013798736
0.014388509 -0.003182357 -0.004085439 -0.05075038 0.041279975 -0.04812154 0.04711868 -0.013628066
0.09822083 -0.05306888 -0.049612828 -0.0038573197 0.07165701 0.026110701 -0.06443862 -0.031127088
-0.039245695 0.035113577 -0.055958707 -0.013611974 0.082021564 -0.005993966 -0.037737757 -0.06667793
-0.26651776 -0.0015463035 -0.03338125 -0.08109062 0.018853635 0.05057599 -0.046525255 0.0712928
-0.026175143 0.035544652 -0.087805286 -0.102160126 -0.037061907 0.052106373 -0.023676034 0.06894001
-0.016985606 0.08575231 -0.065225475 -0.023975309 -0.027033966 0.0075613046 0.07344564 0.08273388

bias f4 [64]
00000000: 36f2 a93d 4dae 7e3d 7677 863d e27f ca3d
00000010: 2177 483d bd10 38bd 1f93 db3d 7134 39bd
00000020: 9168 6cbd a896 2d3d aef0 93bd eab0 15bd
00000030: 0cde be3d fb0d 923d 62ca 60bc b168 7a3b
00000040: 0fe2 d43d e438 093d 1f40 773c e056 023d
00000050: f7b5 d13b f32c 5d3d c41f bf3c c3f0 b83d
00000060: 7b60 30bc 7f4c b43c 15a0 893d 510d 533d
00000070: ccc6 abbc 4530 2a3d 7412 9e3d b2ac 433c
00000080: 2f5f b9bd f122 5c3e 5310 66bd cef7 013f
00000090: 95b1 31bd 2b73 b7bd 6676 8a3d 13b5 573d
000000a0: 7960 c33d af7e e1bc e2a1 da3d 6650 843b
000000b0: 8f06 bc3b a3ef b8bc 9e66 4c3d 9c03 9bbd
000000c0: 8a14 963d 7ca9 a03d b145 aebd 34f5 1abd
000000d0: 2ff3 a53d 872a 883b 6731 403d 7cf0 f5bc
000000e0: 43ad b93d 5e00 6abd bbd5 8d3d af80 8bbd
000000f0: 3ed9 9fbd 7afb 3dbd 81da 31bd fc32 13bc
0.08298151 0.062177945 0.06565754 0.09887673 0.048941735 -0.044937838 0.107214205 -0.045216028
-0.05771691 0.042380005 -0.072236404 -0.03654567 0.09319696 0.07131573 -0.013720127 0.0038209374
0.1039468 0.03350152 0.015090971 0.03182113 0.0063998657 0.053997945 0.023330577 0.09030297
-0.01076519 0.022009132 0.06719986 0.05152637 -0.020968817 0.04154994 0.077183634 0.011943029
-0.09051358 0.21497704 -0.05616791 0.50768745 -0.043382246 -0.089575134 0.06760864 0.05266292
0.09539885 -0.027526228 0.10675408 0.0040379046 0.0057380865 -0.022575205 0.04990255 -0.07569048
0.07328136 0.078448266 -0.08509386 -0.0378315 0.08103024 0.0041554603 0.046922114 -0.030021898
0.0906625 -0.057129256 0.069255315 -0.06811654 -0.078051075 -0.046382405 -0.043421272 -0.008984324

weight f4 [3, 64]
00000000: 3130 d4bb f585 c33c e657 df3d 633b da3d
00000010: 3faf c93d 191e 07bd a0b6 babd 0b8d f5bc
00000020: 0c38 fe3d ba4b c5bd 6c5e ae3d bc8a 1cbd
00000030: 9188 c13c 0e34 073d 57e3 aa3d 30e9 453d
00000040: d0bc 48bd fb6d f83d 2d0d db3d 94e2 b8bc
00000050: 170a 17be cb4f 01bc 1876 4c3d 8ccf ecbd
00000060: 5a83 713d cdc1 03be ea5f 7dbc 4d52 b83d
00000070: 7168 ab3a 32bc d6bc 2c09 5b3d 78ff 1fbd
00000080: 12f8 ecbc 7c4e a53c 9e0d a53d f4ee c83c
00000090: 8895 ca3c e71b 9d3d 4c4b d43b b3a1 803d
000000a0: 3d05 09be 2914 983d 5c76 30bd 34ae 8abd
000000b0: 0097 fcbd 8d63 ec3d 9ad7 9fbd 3851 84bc
000000c0: bb30 1e3d 4592 06be 8879 9c3d 3fd3 95bd
000000d0: 124d e8bd 9e57 58bd 9dea e33d f4ad 1a3e
000000e0: 798c c0bd 266f 70bd 7511 ba3d c1fa 39bd
000000f0: 5460 50bd 7ae6 323d 3b91 acbd 520e 21be
00000100: 6552 dcbd 83dc 0cbe d088 1e3e a07d 0a3e
00000110: 7571 c33d da7c 93bc 7ed3 803d 79ed dabb
00000120: ffb8 183e e25a 073e 8eab 3abd f6fd 823d
00000130: 43ff 113e 38a1 82bd 94ad debd 2968 b0bd
00000140: f25a a83c 46a2 c73c 8d61 b7bd f3df b63d
00000150: 8fa8 e7bd 2961 debd 1cb1 59bd 3d76 b7bd
00000160: 0612 a13d 20f2 93bd cce5 3c3b b8c8 bf3d
00000170: 8b74 39bd dc45 7cbd 20ac 9cbd 42d1 cc3c
00000180: 4c20 b73b 7c9f f63d 006d dfbc 9231 04be
00000190: 93c4 33bc 20ea 1cbd 3723 1f3d 30b8 1d3d
000001a0: 7272 5bbc 0a2d aebd 54dd 2c3c 79b9 10bd
000001b0: e582 b6bd fa2d fbbd b253 37be 2d6e d5bd
000001c0: 9898 293d 7a54 523a 6005 a43d c5a7 2cbd
000001d0: 62f4 b5bd acda dabd a49d 3abe a0d0 643c
000001e0: 933a d03d 0e8d 213c 6759 243e 176b dc3c
000001f0: a81a a5bc 5f6e 903d f4a9 653d 9a7e c9bd
00000200: 0a03 b93d 3743 b03d 7fa9 db3c 1e5e 513b
00000210: ea57 c1bd cac2 133e 9436 043e 338b 92bd
00000220: d159 e0bd 145e a8bd 0548 a4bd 8f03 0ebd
00000230: 57c7 11bd 51c9 d43d 3596 133d 1b87 0f3e
00000240: c298 043d 391f a2bd c7fc 88bd 2b98 59bb
00000250: b142 78bd 5581 153d 74a1 7cbd 6159 d43c
00000260: 2e21 debd d202 1b3d 8dd7 42bc a398 aa3d
00000270: cdf7 acbb 70b8 cebd 8e63 71bd e515 c03d
00000280: 0b7b 30bd bbc0 74bd 7206 7b3d fc97 83be
00000290: 0223 a23d 6e9c d13c a1fc 0d3e 90ad ec3d
000002a0: 4aee ee3d 72e3 263d 8439 6a3d 3c40 d63b
000002b0: ee9e 52bd 091d a13d c70b d1bd 66a0 0dbd
000002c0: 2dfb 04bd 6b4b 283d 705f 84bd ac61 88bd
000002d0: 904d 5cbc 4fa0 a1bd 61b1 b8bd d685 a93d
000002e0: 9a67 ca3d 1338 ee3d 34ba fdba 8d95 673d
000002f0: ee0f a4bd 1839 2e3d 7d3e 7e3d d3de e23d
-0.0064754714 0.023867587 0.10905437 0.10655858 0.09847879 -0.032987688 -0.09116864 -0.029974481
0.12413034 -0.09633584 0.08514103 -0.038218245 0.02362469 0.033008628 0.08344143 0.048318088
-0.04900819 0.12130352 0.106958725 -0.022568978 -0.14749943 -0.007892559 0.04991731 -0.11563024
0.058963157 -0.12866898 -0.015464762 0.09000073 0.0013077391 -0.026212785 0.053475544 -0.039061993
-0.028926883 0.020179026 0.08059238 0.024528004 0.024729505 0.076713376 0.0064787026 0.06280842
-0.13380904 0.0742572 -0.043081626 -0.06771508 -0.123334885 0.11542425 -0.078047946 -0.01615201
0.03862069 -0.13141735 0.07640368 -0.073156826 -0.11342825 -0.052817933 0.11128733 0.1510542
-0.09401793 -0.05869975 0.09085361 -0.045405153 -0.050873116 0.04367683 -0.08426138 -0.15728119
-0.10757903 -0.13755994 0.15481877 0.13524485 0.095431246 -0.01800387 0.06290339 -0.006681141
0.1491432 0.13218263 -0.045573764 0.063960955 0.14257531 -0.06378406 -0.10872951 -0.08613617
0.020551179 0.02436937 -0.08954153 0.08929434 -0.11311447 -0.108583756 -0.05314742 -0.08958099
0.07864766 -0.07223916 0.0028823493 0.09364456 -0.04527716 -0.06159006 -0.07650018 0.025002126
0.005588567 0.12042138 -0.027273655 -0.12909535 -0.01097216 -0.038309216 0.038851943 0.038505733
-0.013393985 -0.08504684 0.010550816 -0.03533313 -0.08911685 -0.12264629 -0.17903021 -0.10421405
0.04140529 0.0008023452 0.08008838 -0.042152185 -0.08884503 -0.106862396 -0.18224198 0.013965756
0.10167422 0.00986029 0.1604973 0.026906533 -0.020154312 0.070523016 0.056070283 -0.098386005
0.09033783 0.0860657 0.02681422 0.0031946967 -0.094405964 0.14429775 0.12911445 -0.071554564
-0.10954631 -0.08221069 -0.08021549 -0.034671362 -0.035590496 0.103899606 0.03603192 0.14016382
0.032372244 -0.079161115 -0.066888385 -0.0033202271 -0.060610477 0.036500294 -0.06167741 0.025921525
-0.10846172 0.037844487 -0.011892212 0.083298944 -0.0052785636 -0.100937724 -0.058932833 0.09379176
-0.043086093 -0.059754115 0.061285444 -0.25701892 0.079168335 0.025587287 0.13865902 0.11556542
0.11666544 0.040744253 0.057183757 0.006538419 -0.0514211 0.07866866 -0.102073245 -0.034576796
-0.032466102 0.04108755 -0.06463516 -0.066592544 -0.013446227 -0.078919046 -0.09018207 0.0827748
0.09883042 0.11631789 -0.0019357861 0.056539107 -0.08010851 0.042534918 0.062071312 0.110776566

bias f4 [3]
00000000: 49f7 a63d 9fe4 623d 28f0 a3bc
0.08152635 0.05539381 -0.020011976
