LorenzSystem/TrainedModels/LSNNModel_FFT(Noise = Noisy).pth (torch, 73340 bytes, 8 tensors)

weight f4 [64, 3]
000000 e9 1c e1 bd 2e 2f f6 3d 79 2e 6d 3e 59 ed 90 3d
       -0.10991842 0.120207176 0.23162259 0.070765205
000010 c4 fb e7 3e 02 05 95 be 15 49 e8 3e a4 67 0f 3f
       0.4530927 -0.29105383 0.45368257 0.5601752
000020 e7 e0 40 bd fb 95 1e 3e 7a 56 9a 3e bf 62 0d 3f
       -0.047089484 0.154869 0.301441 0.552288
000030 7f 8f 12 3f 49 bf 06 bf 65 6f 36 3e 33 0b 07 bf
       0.5725021 -0.5263563 0.17815931 -0.52751464
000040 95 6c e2 bd c4 d2 a8 bc 4d 74 ae be 10 fe 0a be
       -0.11055867 -0.020608313 -0.34073105 -0.1357348
000050 95 9a da 3e 74 59 f0 be 09 8c 07 3f 7a fa df 3e
       0.42696062 -0.46943247 0.5294805 0.43745786
000060 87 40 e5 3e bb c1 09 3f 46 2e d6 be b0 f2 d6 3d
       0.44775793 0.53811234 -0.4183218 0.10495508
000070 ee a5 ee 3d 0a b3 60 bf 80 93 28 3d 35 8d 0a 3f
       0.11652742 -0.8777319 0.041156292 0.54121715
000080 69 4c c8 3e d3 d2 73 3e 9a 87 70 3e 0a 9e 40 bd
       0.39120796 0.23810892 0.23489228 -0.047025718
000090 3e 04 cf be b2 35 7c 3e 27 90 11 3f a1 e5 d1 3e
       -0.40432924 0.24629858 0.56860584 0.40995505
0000a0 0c 16 11 be 3a 3f 8f 3e 2d 8f 82 3e 8a 4d 03 bf
       -0.14168566 0.27977926 0.2549986 -0.5129019
0000b0 c2 66 0b 3f f6 78 5c 3e 91 2f 0b bf a5 b8 02 3f
       0.5445367 0.21530518 -0.54369456 0.51062995
0000c0 f8 0a d7 3e 49 bf a7 be 4c 27 c4 3e c9 38 6f be
       0.42000556 -0.32763126 0.3831123 -0.23361506
0000d0 a2 68 d8 3e 45 ee b7 3e df cc 76 be 1d 70 8d be
       0.42267329 0.35923973 -0.2410159 -0.27624598
0000e0 d3 08 f9 3d 26 ff 62 bd 10 cf 72 3e 52 70 91 bd
       0.12159886 -0.05541911 0.237118 -0.071015015
0000f0 82 ab 19 bf c2 13 56 be 5b d7 a2 3e bc ac fb be
       -0.60027325 -0.20905975 0.31804928 -0.49155223
000100 b9 13 56 3c 0b 6e 12 be d4 09 1d 3e cb c0 47 bd
       0.013066226 -0.1429979 0.1533578 -0.048767846
000110 d8 92 73 3e 1c 7e ac 3d 63 a1 e2 3d 74 3b 96 bd
       0.23786485 0.08422491 0.11065938 -0.073355585
000120 9c a4 ee be 76 a5 d5 be 3d 3a cc be bf 27 8e 3b
       -0.46609962 -0.417278 -0.39888182 0.004338234
000130 98 6b dd be f6 7b 81 bd f5 52 a0 3e 11 c9 0f 3f
       -0.4324615 -0.06322472 0.3131329 0.5616618
000140 48 03 2f 3e 56 bb fd 3e ff 61 00 bb 56 e4 5a be
       0.17091095 0.49556988 -0.001958966 -0.21376166
000150 45 00 77 3d 82 f7 87 3e f9 98 dc 3d dd ec cd be
       0.06030299 0.2655602 0.10771365 -0.40219775
000160 99 68 89 3e 96 aa a0 3e 4a 12 a0 3e 92 c4 8f bd
       0.26837614 0.31380147 0.31263953 -0.07019915
000170 0a b1 05 be 15 be 0f bc 48 da 02 bf 19 e5 a8 3d
       -0.13055816 -0.008773346 -0.5111432 0.08246822
000180 34 75 dd be 00 a2 16 be 76 89 e7 3e 40 e8 89 be
       -0.4325348 -0.14710236 0.45222062 -0.26935005
000190 7e f7 1c be ed 06 a1 3e af 0f be be 5e d1 c9 be
       -0.15328786 0.31450596 -0.3712134 -0.39417547
0001a0 f5 e1 db be dc c6 03 3e 23 7b 15 bf b2 47 0c 3f
       -0.4294583 0.12868828 -0.58391017 0.547969
0001b0 da b2 a2 be 69 71 0b bf 8d bb d2 3e 45 f5 ea 3d
       -0.31777078 -0.54469925 0.41158715 0.11472563
0001c0 8c 7a b0 3e 2d 0e a8 bd 93 b8 ae be f4 33 05 3f
       0.34468496 -0.08205829 -0.34125194 0.520324
0001d0 b0 0a 94 be 73 6d c3 3e 1b b7 10 bc e2 fa 3e be
       -0.28914404 0.3816944 -0.008832718 -0.18650392
0001e0 88 9c 95 bc cb 0c 96 3e 05 c1 02 3f 2d 98 06 3f
       -0.018263116 0.29306635 0.51075774 0.5257595
0001f0 f4 df e5 3e dc 39 d9 3e 44 14 60 3e 98 19 f0 3e
       0.44897425 0.42426956 0.2188273 0.46894526
000200 c3 5c e9 be 39 95 05 be cc 1f 16 be ac 5e ec 3e
       -0.45578584 -0.13045205 -0.14660567 0.4616598
000210 9b 97 cd 3e 0e fb d9 be e3 ec 6d 3e 4c fb 8e bd
       0.40154728 -0.42574352 0.23234896 -0.06981525
000220 e0 7e 5a 3e 8d 08 85 bd 77 d2 46 3e b5 d7 12 3d
       0.21337461 -0.064957716 0.19416223 0.035850246
000230 f3 06 0a 3f 36 71 76 3e c8 57 bd 3d f6 6e a6 be
       0.53916854 0.24066624 0.092452586 -0.3250653
000240 69 f2 81 be d7 f3 0b 3f 4f 6a f8 3d a5 8b 0c 3f
       -0.25380257 0.54668945 0.12129652 0.5490058
000250 d2 c8 23 be 34 20 58 be d6 e4 00 3f 53 a0 aa 3e
       -0.15994576 -0.21106035 0.50349176 0.33325443
000260 40 a4 3f be 30 1e a4 3e 25 8a 0a be 20 b2 b6 3e
       -0.18715 0.3205428 -0.1352926 0.35682774
000270 9e 51 17 3f e0 31 48 bc 72 1d e9 be b4 2a 43 3f
       0.5910891 -0.012218922 -0.45530277 0.76237035
000280 0f 06 8b be 60 3d 89 be 71 89 c7 3e 2b 13 10 be
       -0.2715306 -0.26804638 0.38972047 -0.14069812
000290 d2 ac 57 3d 59 c6 9a 3d 82 e4 da 3e 80 41 9d be
       0.05265505 0.07557363 0.42752463 -0.30714035
0002a0 ac fb 05 bf 6e 7c 10 be f0 a3 71 be 6a fd b6 3e
       -0.52337146 -0.14109966 -0.23597693 0.35740215
0002b0 78 a6 ac 3e c2 3a 23 3c 8f a0 2a 3e 95 d0 1a be
       0.33720756 0.009962739 0.1666281 -0.1511863
0002c0 e0 c6 e5 3e b2 51 00 be 1a ac 04 bf 72 c3 3f be
       0.44878292 -0.12531164 -0.51825106 -0.187269
0002d0 20 9d 42 be 6a bf ad bd 7f 73 a4 3d 04 7f 6f 3e
       -0.19005251 -0.08483775 0.08029842 0.23388296
0002e0 9c 8f ff be 58 94 80 3e 24 e4 ff be bc ef 23 be
       -0.49914253 0.25113177 -0.49978745 -0.1600942
0002f0 c9 ec 8e 3e b3 dc 03 3e d2 22 d1 3e 54 14 98 bd
       0.27915028 0.12877159 0.40846878 -0.07425752

bias f4 [64]
000000 64 77 e1 be 8a 09 4b 3d 30 50 d0 3e 39 9b f3 be
       -0.440364 0.049569644 0.40686178 -0.47579363
000010 12 c4 84 be e9 57 9b be 85 a5 06 3e 43 eb a8 be
       -0.2593084 -0.30340508 0.13149078 -0.3299199
000020 f4 7f ba 3e ca fd fc 3e 2a 27 60 3c 52 41 b5 3e
       0.36425745 0.49412376 0.013681212 0.35401398
000030 7b 97 b6 bd 93 d0 f9 3e 5f 16 10 bf 59 ce 7a bd
       -0.08915611 0.48791942 -0.56284136 -0.061231945
000040 4c 04 df bd a5 19 b9 3e af 9b 69 3e 63 6b 55 be
       -0.108894914 0.36152378 0.22813295 -0.20841746
000050 14 0b 9b 3d 9e 90 18 3f c5 04 6f bd 2b 83 46 3f
       0.07570472 0.5959567 -0.058354158 0.77543896
000060 2e c0 a4 bd f5 8a 9b 3d b3 38 ab be 89 a8 0d 3e
       -0.08044468 0.07594863 -0.33441696 0.13833822
000070 12 cb b4 3e b8 9e 09 bf f3 ae e9 bc 42 4e 37 3e
       0.3531118 -0.5375781 -0.028525805 0.17900947
000080 5a 97 77 3e d5 15 c0 3e 97 53 b8 3e 63 af a3 be
       0.2417883 0.37516657 0.36001274 -0.31969747
000090 a1 00 23 bd 34 d8 fa 3e 5b 41 0d 3f 40 f8 e6 be
       -0.03979552 0.48993075 0.5517785 -0.45111275
0000a0 51 80 c1 be 62 47 16 3c 06 70 b3 be 5e d0 f9 3d
       -0.3779321 0.009172292 -0.35046405 0.12197946
0000b0 71 58 8e bb d0 64 8d 3f 65 53 ff 3e 90 9a b5 3e
       -0.004344039 1.104639 0.49868312 0.35469484
0000c0 e2 00 05 3e 87 15 3e 3f 66 08 4b bd 97 a0 aa 3d
       0.12988618 0.742516 -0.049568556 0.08331411
0000d0 84 16 03 bf 9f 3d f6 3e f9 2a 26 be b9 0b a3 be
       -0.5120623 0.48093888 -0.1622733 -0.3184488
0000e0 bb 55 93 3e 54 a9 49 3d 84 dd dc 3e cf e5 8e be
       0.28776345 0.04923375 0.43137753 -0.27909705
0000f0 a9 a1 df be 40 22 9a be 83 9c 85 3e 3f 07 19 3f
       -0.43678024 -0.30104256 0.2609597 0.5977668

weight f4 [128, 64]
000000 d5 03 ce bd 61 80 8b 3d ae f6 2c 3d 98 c3 bb 3d
       -0.10059325 0.06811596 0.04222744 0.09168166
000010 7a aa e5 bd bc 9e cf bc f9 08 d0 bd 82 07 bd 3d
       -0.112141564 -0.025344245 -0.101579614 0.092299476
000020 e6 d5 c4 bd 49 34 ca bd c0 d0 17 bd ac ac 8e bd
       -0.096111104 -0.09873254 -0.037064314 -0.06966528
000030 75 52 be bd 9d 60 48 3d 83 19 5c 3d 2f ad bb 3d
       -0.09293071 0.048920263 0.053735267 0.091638915
000040 6a 0b c1 3d 86 1f ef 3d 7e bd 9a bd 08 36 0f be
       0.09426005 0.116759345 -0.07555674 -0.13985455
000050 c8 0e bc bd 8a 41 d8 bd 24 f0 86 3d 4f 69 9d 3d
       -0.09182507 -0.105593756 0.06588772 0.07686102
000060 d7 ad cb bc 9d de 00 be a2 37 69 3d 64 0e 4d bc
       -0.024863167 -0.1258492 0.05693782 -0.012515638
000070 dc 9e 1f 3d ee e1 37 bc bd 01 d4 bd c1 83 01 3e
       0.03896986 -0.011223299 -0.10351894 0.12647916
000080 59 98 e6 3d e6 1f e3 3d f3 bb f1 bd 7c a2 d6 bd
       0.11259527 0.110900685 -0.118034266 -0.1048021
000090 32 de 06 3e d9 a7 80 bc e4 dc 02 be 0c e8 39 bd
       0.13170698 -0.015705036 -0.12779576 -0.045387313
0000a0 6e 88 04 3e 2f 1b a1 bd c1 3e 43 3d 61 71 60 bd
       0.12942669 -0.07866513 0.04766727 -0.054795627
0000b0 e2 56 68 bd 10 21 a7 bc 39 eb 88 3d 69 72 e0 bb
       -0.056723483 -0.020401508 0.0668549 -0.0068495763
0000c0 c1 5b a7 3d 16 74 04 be 30 82 af bd 17 43 ec bc
       0.081717975 -0.12934908 -0.08569753 -0.028840585
0000d0 fa 39 3a 3d dc de 69 3d dd 56 d9 3c eb 5b 23 bd
       0.045465447 0.0570973 0.026530677 -0.03988258
0000e0 92 d4 c9 3d 56 d0 44 3d 75 b8 f4 3d 9c f3 d3 bc
       0.09854998 0.048050247 0.11949245 -0.025872998
0000f0 d5 a4 bd bd 5a 2f 9f bd 21 6c b0 bd 6b 7b cc 3d
       -0.09259955 -0.077727035 -0.08614374 0.099844776
000100 fa 40 fb bd d6 4f fe bd d6 d2 87 3d 4e e8 e6 bd
       -0.12268253 -0.12417571 0.06632011 -0.11274777
000110 9c 95 40 3d b5 16 80 3d dd a1 f5 bc 64 2c cb bd
       0.04701768 0.06254331 -0.029984409 -0.09920576
000120 f0 43 3b bd c8 4a 56 bd b0 fb 64 bd e8 be de bd
       -0.045719087 -0.05231741 -0.05590409 -0.10876256
000130 b6 ce 1b 3b af 84 44 bd 31 1a d5 3d 76 ee f9 bc
       0.0023774332 -0.0479781 0.10405386 -0.030509215
000140 12 14 a9 bb 60 a4 cb bd ef ec ba bc 62 45 e3 bd
       -0.0051598633 -0.099434614 -0.022818057 -0.11097218
000150 ab 3b a3 bd 33 01 65 bc cb f3 41 bd b0 02 75 3d
       -0.07970365 -0.013977337 -0.04735164 0.059817016
000160 82 23 9f 3c 7a 45 b1 bb 68 b3 d9 bd 80 6e 48 3d
       0.019426111 -0.0054098936 -0.10629922 0.048933506
000170 a8 14 3d bd 02 0c 7c bd 18 6c 94 bc 3a 7d d4 3d
       -0.046162277 -0.06153489 -0.01811795 0.103754476
000180 e1 af 13 bd ec 91 0d 3d 0a a7 ce 3d 3e b8 7b bd
       -0.036056403 0.03456299 0.10090454 -0.061455004
000190 b6 15 9e bd 1e 6d ee bd 6a d4 9f bd 2c fa 74 3d
       -0.07718985 -0.11641906 -0.07804187 0.059808895
0001a0 c0 07 97 bd 44 08 58 bd b8 76 a8 bd f3 3a 65 bc
       -0.07374525 -0.052742258 -0.08225769 -0.013991105
0001b0 6a da 3b 3d c0 c1 29 3d ea ca 26 bd a0 f9 3e bc
       0.045862593 0.04144454 -0.040720858 -0.011656195
0001c0 50 63 eb 3d f6 aa 80 3d 28 d1 80 3c c1 f0 fc bd
       0.11493552 0.06282608 0.015724733 -0.12350608
0001d0 06 d3 ba 3d ac 61 bd bd 9c 49 07 3d d4 3b ca 3d
       0.09122281 -0.09247145 0.033029184 0.098746926
0001e0 7f 61 b6 3b 78 23 4a 3d d0 9c 54 3c 3f b5 d5 bd
       0.0055658217 0.049350232 0.01297684 -0.104349606
0001f0 c1 68 96 bb d6 ac a1 3d c3 77 be ba 34 9b c8 bd
       -0.0045901244 0.07894294 -0.0014531541 -0.09795228
000200 27 04 09 3e 6f aa bd 3d a2 b5 60 bd 7a 8f ed bc
       0.1338049 0.09261023 -0.05486072 -0.028999079
000210 18 eb 57 bd b1 33 8f bc 7e 26 09 3e 71 59 a3 ba
       -0.052714437 -0.017480703 0.1339359 -0.0012462569
000220 77 70 9d bd be 38 8b 3c c0 5a a8 bd 16 ae c4 ba
       -0.076874666 0.01699483 -0.08220434 -0.0015005495
000230 e5 06 11 bc 43 4d b7 bc 90 a3 e8 bc e2 9c f6 3d
       -0.008851741 -0.022375708 -0.028398305 0.12041642
000240 49 44 68 3d 67 ce c8 3d 34 dc 4b 3b 7f ed d1 bd
       0.056705747 0.09804993 0.0031106593 -0.10250377
000250 f8 a0 09 3e 62 bf 48 bd 51 51 b3 3d 61 73 3c be
       0.13440311 -0.049010642 0.08755744 -0.18403389
000260 2b 0c 0e 3c c1 7e a2 3d ea 3e a3 3c 2d c3 ac 3b
       0.008669893 0.07934333 0.01992746 0.00527229
000270 4d 11 d9 3d 33 78 e0 3d d6 f3 b3 bd b6 73 b4 3d
       0.10599003 0.10960426 -0.087867424 0.088111326
000280 e7 d1 3c 3d fc d6 9c 3d 28 c3 a1 bc 8e 92 be 3d
       0.046098616 0.076581925 -0.019746378 0.09305297
000290 72 ce cb bc 3a fc fb 3d 3c 89 01 be 89 13 e8 bd
       -0.024878714 0.12303968 -0.12650007 -0.11331851
0002a0 9b fd 40 3d d8 88 05 3c 80 6a 6e bd bf 34 a6 3d
       0.047116857 0.008150302 -0.058207035 0.08115529
0002b0 07 c8 49 3d df bc fe bd 8b 80 0a 3e 9d a2 85 bd
       0.049263027 -0.12438368 0.13525598 -0.06525157
0002c0 10 ff e3 3d cb b2 8b be c0 b0 49 bb a6 bd 11 bd
       0.11132634 -0.27284846 -0.0030775517 -0.035581253
0002d0 da a7 2e bd c0 0b f5 be 66 22 ce 3c 5a 17 0e be
       -0.042640544 -0.47860527 0.025162887 -0.13876095
0002e0 d9 f7 35 3d de 45 0e bd 07 7a a8 3d e8 dd 20 3d
       0.04442582 -0.0347346 0.082264 0.039274126
0002f0 fb a7 8b 3d bb 80 2e bd b2 e9 b1 bd c3 2b 9b 3b
       0.06819149 -0.042603236 -0.08687152 0.0047354414
000300 6c ae c6 3c d2 5b cf bd 6d d5 21 bd 17 0c 87 3d
       0.024253093 -0.10124935 -0.03951018 0.06594103
000310 26 83 cb 3b 55 52 ba bd 9e ca b5 bc 04 ee bb bd
       0.0062107025 -0.09097735 -0.022191342 -0.09176257
000320 e4 c4 cf bd 20 05 9a 3b 6c 68 63 bd 4e 74 0e 3c
       -0.10144976 0.004700318 -0.055519506 0.008694721
000330 5b 88 a0 3d cf 80 66 bd 5c 3d 63 3c 59 65 87 bd
       0.07838508 -0.056275185 0.01386961 -0.066111274
000340 de 5d 8e 3c a6 ee 00 bd e0 3b f3 bd 26 01 a4 bd
       0.017378744 -0.031477593 -0.118766546 -0.080080315
000350 74 fd 7f 3d ff 1c c3 bd 93 b2 bd bd f2 46 ad 3d
       0.06249757 -0.09527015 -0.09262576 0.08460797
000360 be 4f 39 3d 70 29 87 bd 64 cb a1 bd d8 8a 8d bd
       0.045242064 -0.065997005 -0.07900122 -0.06911248
000370 41 ad ce 3d ad f0 4e 3d 2c aa 97 bd 27 04 fd 3c
       0.10091639 0.050522495 -0.074055046 0.030885769
000380 06 79 c0 bd 9e 31 42 3c 05 b5 89 bd e1 7d e9 3d
       -0.093980834 0.01185265 -0.0672398 0.114009626
000390 92 a6 94 bd 21 b6 03 3d b4 68 c3 3d 9d 28 8c 3d
       -0.07258333 0.032156114 0.09541455 0.06843684
0003a0 9d f1 a0 3d da e7 1e 3d ca 04 b5 bd f8 9e 8b bd
       0.07858584 0.03879533 -0.08838804 -0.0681743
0003b0 55 5e 05 be e6 a8 ba 3d 43 20 ef bd 3a 00 ad 3d
       -0.13024266 0.09114246 -0.11676075 0.08447309
0003c0 58 88 3a 3c a0 8b 37 3d 9b 31 22 bd 74 07 9c bd
       0.011385046 0.04481089 -0.03959809 -0.07618609
0003d0 78 4b b3 bc 94 34 5b 3d bb 2b c8 3d 00 35 61 3d
       -0.021886572 0.05351694 0.09773966 0.054982185
0003e0 91 53 38 3d 8c 79 ff bc 4d 04 4f 3d c5 7b d0 3d
       0.04500157 -0.031185888 0.05054121 0.10179857
0003f0 cb 57 2c 3d 8a 03 d4 3d 2d 98 26 3d 12 ae 03 be
       0.042075913 0.103522375 0.04067247 -0.12859371

bias f4 [128]
000000 1f 45 99 3c be 1d c1 bd a9 61 d6 bd 79 16 8e bd
       0.018709717 -0.09429501 -0.10467846 -0.0693788
000010 7c 12 6a bd 48 62 bd bd 8b f8 7e bc a8 cd 8b 3d
       -0.057146534 -0.09247261 -0.015562187 0.06826335
000020 28 5b 1c 3d 31 00 b9 3d 73 79 06 bd d1 6a 9b bd
       0.03817287 0.0903324 -0.032830667 -0.07588733
000030 2d d0 c1 bd 1e 7d 5e bd 5c 2e cf 3d 41 eb e9 3d
       -0.094635345 -0.05431854 0.10116264 0.11421824
000040 28 d8 aa bd 37 43 0f 3d 26 0f a0 bd 89 ad c6 bd
       -0.0834201 0.03497621 -0.07815389 -0.09701068
000050 32 e5 aa bd 13 af 06 3d c0 dc f6 bd 6e 5f 50 bd
       -0.08344497 0.032881808 -0.120538235 -0.05087226
000060 2e fb 56 bd 87 5d ba 3d 2d 44 17 bd bb 56 c1 3d
       -0.052485637 0.0909987 -0.036930252 0.09440371
000070 ba 5d d0 bd 35 cc be 3d 59 78 c5 bd e1 38 b0 bd
       -0.10174127 0.09316293 -0.09642095 -0.08604599
000080 7b 46 3d bd 92 c8 8b bc 52 58 03 3e 63 e1 24 bd
       -0.046209794 -0.017063413 0.1282666 -0.040254008
000090 fe 2f 8f 3d 39 76 cb bd 66 55 b2 bc f8 e0 47 3d
       0.06991576 -0.099346586 -0.021769237 0.04879853
0000a0 5e ac bb 3d b0 e0 5d bd 02 0d 89 3d f1 49 88 3d
       0.09163736 -0.054169357 0.06691934 0.06654728
0000b0 27 a2 bf 3d 95 a0 03 3e 14 45 96 3d 96 64 fc bd
       0.093571 0.12854226 0.07337394 -0.12323873
0000c0 c4 a0 5e 3d c7 68 7f 3d 50 db b9 3d ad ac c2 3c
       0.054352537 0.062355783 0.09075034 0.023763979
0000d0 d4 e9 1a 3d 1f 5b dc 3e 94 5f a9 bd 46 96 50 bc
       0.037820652 0.4303827 -0.08270183 -0.0127311405
0000e0 c3 2f ca 3d 1f a6 f8 bc 41 ac e2 bd 7f 6d 3f bd
       0.09872391 -0.03035265 -0.11068011 -0.046735283
0000f0 08 36 f8 3d 3c a4 11 3d 4a e0 82 3d 1b ae c9 bc
       0.12119681 0.035557017 0.06390436 -0.024619153
000100 e9 bc ee bd 06 c0 da 3d c4 e9 85 bc 91 36 11 3d
       -0.116571255 0.10681157 -0.01634682 0.03545243
000110 b8 04 4c bd 01 ae f5 bc 35 2a 43 3d 2e e7 ee 3c
       -0.049809188 -0.029990198 0.047647674 0.02916297
000120 83 ee 4f bd 12 ca 05 be d2 16 be bd 72 f2 73 bd
       -0.050764572 -0.13065365 -0.092816964 -0.059557386
000130 15 17 b3 bd 15 a7 7d bd 6c e5 1b bd 4b 38 86 3d
       -0.08744637 -0.06192692 -0.03806059 0.06553706
000140 21 82 a1 3b a9 89 d8 bd 60 97 0d 3e c4 70 da 3c
       0.0049288427 -0.105731316 0.13827276 0.026665099
000150 e6 c3 13 bd 2a 9a ef bb eb 83 02 be d9 bc 95 3d
       -0.036075495 -0.007312079 -0.12745635 0.073114105
000160 3d f7 34 bd d8 64 ed 3d 31 de da 3d 28 25 8f 3d
       -0.044181097 0.115915 0.10686911 0.06989509
000170 17 cc 97 bc 87 0f 7c 3d 72 dc c7 bd ac 49 d6 3d
       -0.018529935 0.061538246 -0.097588435 0.104632705
000180 14 e6 c5 3d b8 40 a5 3d 01 ca a3 3d 89 e0 4f bd
       0.096630245 0.08068985 0.079975136 -0.050751243
000190 f8 95 0e b9 c0 f2 2d bb 00 ec 91 bd ed 38 4f bd
       -0.00013598043 -0.0026542395 -0.071250916 -0.050591398
0001a0 92 59 38 bd 3a bd 3b 3d a0 ef 82 bb 82 c0 cb 3d
       -0.045007296 0.045834757 -0.0039958507 0.09948827
0001b0 68 c1 30 bd b0 ac f9 bd da 0f cb 3d eb e1 67 bd
       -0.043153197 -0.12191141 0.09915133 -0.056611937
0001c0 0a b2 bd bd e8 af 6e bd 83 bf 42 bd d2 c1 22 bd
       -0.09262474 -0.058273226 -0.04754592 -0.039735623
0001d0 d6 84 e7 3d 15 58 ca 3d f5 41 ec 3d de f6 f9 3c
       0.11304633 0.098800816 0.11536018 0.030513223
0001e0 15 2a bd 3d e1 ba ba bb 74 8f 52 bd b1 64 72 3d
       0.09236542 -0.0056985472 -0.05140634 0.059178058
0001f0 df 3d 47 bd 4f d2 14 3f ac d3 83 bc 3e 98 a6 3d
       -0.04864299 0.58133405 -0.016092144 0.08134507

weight f4 [64, 128]
000000 73 1d 62 3d 4c ac fa 3c 4a 98 8c 3c 1f 54 4c 3d
       0.055203866 0.030599736 0.01716246 0.04988491
000010 8b 48 a2 3d fa 1c 11 bd 90 c7 82 3c 8d 7d a5 bd
       0.07923993 -0.035428025 0.0159643 -0.080805875
000020 81 b6 45 3c ce ca 31 3d 37 0e 35 3e fa 06 41 bd
       0.012067438 0.0434063 0.17681204 -0.047125794
000030 bf af b2 38 41 6b 2f bd a4 68 c8 3c ae af 22 3d
       8.520437e-05 -0.042826895 0.024463959 0.039718322
000040 03 eb 65 3d 06 1c 2b bc 46 4f 32 3d e5 18 35 bd
       0.056132328 -0.010443693 0.043532632 -0.044213194
000050 0d 7f dc 3c 7e 15 4e bd 28 50 5b bd 8e e6 55 3d
       0.026916051 -0.050313465 -0.05354324 0.052221827
000060 cb c7 19 3c 5a 11 77 bd 3f ae ae 3d ef 8b 61 bb
       0.009386013 -0.060319282 0.085293286 -0.0034415682
000070 24 34 8f 3d bf a8 8e bd 1b 4b 3e 3d ef 13 1b bd
       0.06992367 -0.069657795 0.046458345 -0.037860807
000080 4b 48 3b 3c f2 8b aa 3c 07 67 83 bd 85 9c 05 3d
       0.01143081 0.020818684 -0.06416135 0.03261997
000090 f5 32 35 bd 7e 1c 57 3d 1a 55 27 ba b0 6c bf 3b
       -0.04423805 0.052517407 -0.00063832256 0.005841814
0000a0 b5 35 9e bc 7c 08 b5 bc 81 15 a7 3c c2 52 88 bd
       -0.019312719 -0.022098772 0.020395996 -0.0665641
0000b0 96 cb 2e 3d a3 08 f1 3d 60 d3 5f bc 6a fd fc bc
       0.042674623 0.117692254 -0.013661236 -0.030882556
0000c0 70 e7 8c bc 1d 97 0b 3d a8 bb b5 bd 80 c9 e6 3c
       -0.017200202 0.03407966 -0.08873683 0.028172255
0000d0 61 fe fc 3c 7a e5 08 be f6 ab 02 bd 1b bf 16 be
       0.030883016 -0.13368788 -0.031902276 -0.14721338
0000e0 68 5c b4 bc 42 fd 89 3c c6 32 ae 3c a9 78 98 3c
       -0.022016719 0.016844396 0.021264445 0.018612223
0000f0 d1 cb 99 be 91 56 56 bd ee 40 95 3d d9 01 8f 3d
       -0.30038312 -0.05232865 0.07287775 0.06982774
000100 b2 c3 a6 3d c6 68 ee ba 1e 0a 2b bc ec ad 25 3d
       0.08142795 -0.0018189184 -0.010439424 0.040449068
000110 06 d3 ee 3c 34 e8 d0 3d 98 26 46 bd a9 13 97 bd
       0.029153358 0.10200539 -0.04837665 -0.07376797
000120 d1 0d f3 3c 1a 3c f3 bc d1 2a 69 bc 89 a2 97 bb
       0.029669674 -0.029691745 -0.0142314 -0.00462753
000130 2a 05 d1 3a fe 81 82 bd be 4a 7b bd 47 3d 5d bd
       0.0015946974 -0.0637245 -0.061350577 -0.054013517
000140 56 04 90 bc b9 25 c4 bd 70 03 a9 bb 88 58 3c 3d
       -0.017580193 -0.095775075 -0.0051578805 0.045982867
000150 19 e6 41 3d cc 5d 0e 3d 97 30 a0 bd a8 de 8a 3d
       0.04733858 0.03475742 -0.07821768 0.067807496
000160 f7 76 1e bc f1 05 28 bd c1 6c 94 3d 8c 7e 5f 3d
       -0.009671918 -0.04102129 0.07247306 0.054564044
000170 b7 ff 02 bd e5 3e 09 bd 54 d0 b2 3c 1f 55 c8 3c
       -0.03198215 -0.033507247 0.021827854 0.024454651
000180 29 c4 24 3d f4 41 23 3d db 18 00 3d 8b 84 bb bd
       0.040226135 0.03985782 0.031273704 -0.0915614
000190 b1 d2 6e 3d 08 2f ee 3c 59 7e 56 3d fb 93 50 bd
       0.0583064 0.02907516 0.05236659 -0.050922375
0001a0 c6 e2 9c bd 7d 7d 2d bc 81 01 86 3d 04 4f 6c bc
       -0.07660441 -0.010589001 0.065432556 -0.014423136
0001b0 a3 72 0f 3d ed 1a 71 3d 34 02 4d 3c dd 61 23 3d
       0.035021435 0.05886357 0.012512732 0.03988825
0001c0 54 8d 26 3d 9a 13 69 bd 1f 44 c6 bd 0d cd 35 3e
       0.040662125 -0.05690346 -0.09680962 0.17754002
0001d0 ce 6d 0b 3e 00 40 21 3c fc 7b 9c bc c8 98 a3 bc
       0.13616106 0.009841919 -0.01910209 -0.019970313
0001e0 f9 cc 10 bc 7d a5 89 3d 53 bd 47 bd 5a 00 5d 3c
       -0.008837932 0.067210175 -0.048764538 0.013488853
0001f0 4a 1e 68 3d 40 12 a1 bb bf fe ee bc d3 01 a7 3d
       0.05666951 -0.0049155056 -0.029174207 0.08154645
000200 fe 8b 89 bd 61 ec ae bb 5e 84 5e 3c 0b 0c bc bc
       -0.067161545 -0.005338237 0.0135813635 -0.022954961
000210 31 bf f7 bc ef 9f 87 bb ca 6f 5f 3d 1d 40 bc bd
       -0.030242534 -0.0041389386 0.05454997 -0.09191916
000220 38 7c 1a 3d 5e d6 c3 bd 8a 0d cf bd 74 79 e0 3c
       0.03771612 -0.09562372 -0.10110004 0.027401663
000230 6f 92 79 3d 3d 71 d0 bc 60 62 4b bb ca bf 8e 3d
       0.060930666 -0.025444621 -0.0031033978 0.069701746
000240 50 d1 7a 3d 9e 20 31 3d 08 af 82 bc 6c 7f e2 3c
       0.061234772 0.043243997 -0.015952602 0.02764865
000250 e0 c9 08 b9 0a a9 72 bd 2f b5 ad bd c8 80 b6 3c
       -0.00013045175 -0.05924324 -0.08481824 0.022278205
000260 06 94 58 bd 4d af 3e bd 51 a0 ff 3b fb 35 51 bd
       -0.05287554 -0.0465539 0.0078010936 -0.05107687
000270 32 e4 c5 bd c1 60 82 3d 0f e4 af bc 05 63 d2 bc
       -0.096626654 0.063661106 -0.021471051 -0.025681982
000280 13 a6 3c bd b6 1f b3 bd c5 fa d1 3b 21 2f 4d bd
       -0.04605682 -0.08746283 0.006408068 -0.050093774
000290 8e 93 2f 3d 68 83 0c 3d aa a5 a8 3b ce 2f b1 bd
       0.04286533 0.034305006 0.005146702 -0.08651696
0002a0 f3 23 82 3c 1f 34 4f 3c 30 43 6c 3d 93 c8 17 bd
       0.015886283 0.012646704 0.057681262 -0.037056517
0002b0 ff 2d 9f 3d 6e 42 28 3d c2 60 4f bd f4 5f b4 3c
       0.07772445 0.041078977 -0.050629385 0.02201841
0002c0 83 2a 38 3c 83 a9 09 bd 0e 0c 2f bd 67 c5 c2 3b
       0.011240604 -0.033608925 -0.042736106 0.0059439423
0002d0 f8 00 3d 3d a0 27 2b bd 98 58 ac bd 7b a0 8d bd
       0.046143502 -0.041785836 -0.084153354 -0.06915375
0002e0 52 17 4d 3c ed 3f 03 3d 6b 7a 2f 3d f5 8c a2 ba
       0.012517767 0.032043386 0.042841356 -0.0012401628
0002f0 38 9f 21 3c 38 bf f1 3c f9 9f 76 bc 01 97 35 bd
       0.009864621 0.029510126 -0.015052789 -0.04433346
000300 c2 94 a0 bb 8c d0 00 3d 53 30 58 bd 38 94 2b bd
       -0.004900546 0.031448886 -0.05278046 -0.0418894
000310 fc b4 d9 bd e3 4f f8 bc c1 90 4a 3d 80 32 86 bd
       -0.10630223 -0.03031153 0.049454454 -0.06552601
000320 37 30 32 bc bb d0 b4 3c b4 a7 6d bd 04 a9 43 bc
       -0.010875753 0.022072187 -0.058021262 -0.011942152
000330 88 4b 27 bd 43 3b 4b 3d bc 81 d3 bd d7 4f ad bd
       -0.040843517 0.049617063 -0.10327479 -0.08462494
000340 76 88 6d 3d 9d eb 5c 3c 90 33 23 bd 8d d3 b3 bd
       0.057991467 0.013483909 -0.039844096 -0.087805845
000350 58 43 ef bb d2 cf 8a bd 66 69 41 3d 91 a2 a0 3c
       -0.007301729 -0.0677792 0.047219656 0.019608768
000360 2e 6e 62 39 59 a7 ed bc 8e 3c 3d bc 1f 63 e3 bc
       0.00021594085 -0.029010462 -0.011550082 -0.027757226
000370 48 34 1a 3c c8 17 4b bd 33 7f dc bc e3 02 df bd
       0.009411879 -0.049583226 -0.026916122 -0.108892225
000380 d0 a4 ab bd 53 0f ac bd 96 ae 0a bc 03 a4 aa bc
       -0.08381045 -0.0840136 -0.008464476 -0.02083016
000390 d4 11 84 3d 68 83 23 bc e2 87 bf bc 37 72 d2 3c
       0.06448713 -0.00998006 -0.023380224 0.025689228
0003a0 69 fe e5 bd 24 aa 19 3d 0c 2d e0 bc ff ca 85 bd
       -0.112301655 0.037515774 -0.02736523 -0.06532859
0003b0 4a 94 bb bd 7e 18 63 3d 30 1f e4 bc 1c 44 a7 3c
       -0.09159143 0.05544328 -0.027846903 0.02041822
0003c0 c2 bf ae bd cf 5d 8a 3d 0c 1a 94 bd 24 4a 1c 3d
       -0.08532669 0.06756174 -0.072315305 0.038156644
0003d0 6e 2c 0b bd 8e 50 f4 3c 90 7b 53 3d 90 4f 9b bb
       -0.03397792 0.029823568 0.05163151 -0.004739709
0003e0 ed 56 ce bd 1a 06 98 bd ba 25 86 bd 67 92 4e 3d
       -0.100751735 -0.07423039 -0.065501645 0.05043259
0003f0 1e 04 fd bb dc 09 98 3d d7 2c ad bd 13 ba ae 3d
       -0.007721438 0.074237555 -0.08455818 0.085315846

bias f4 [64]
000000 83 92 81 3c c2 9e d0 bd 48 bf 98 3c e5 5a 76 bd
       0.015816933 -0.10186531 0.018645898 -0.060145278
000010 4d 8c d1 3c 0c 39 94 3c e5 46 82 bc 93 e9 d7 bd
       0.025579596 0.018093608 -0.015902946 -0.105425976
000020 cc ff f0 bc 53 2a de 3c 99 9a ae 3c f6 e3 c8 3b
       -0.029418848 0.027119791 0.021313952 0.0061306907
000030 68 cd 43 bd be ce 54 bd 4a 8d 4d 3d fe de 8d 3c
       -0.047803313 -0.051954977 0.050183572 0.017318245
000040 86 07 e3 3c 5d f1 a7 bd d0 cd 0a 3d 58 fd 9b 3d
       0.027713548 -0.08200333 0.033887684 0.07616681
000050 ef 9c 7e 3c 6a 64 74 be 28 93 e3 bb 65 63 df bc
       0.015540346 -0.2386643 -0.0069450326 -0.027269075
000060 d3 59 0c bc c9 65 94 3d e3 78 0b 3d d9 46 6c bb
       -0.008566338 0.072459765 0.034050833 -0.003605297
000070 ad 7d cc 3d 3b 2b 54 bd eb e1 73 bd a4 74 ff 3c
       0.09984908 -0.05179904 -0.059541624 0.031183548
000080 af a5 b4 3c 38 eb 81 3d 59 f3 bf 3c 75 ba c0 3d
       0.02205166 0.063436925 0.023431467 0.09410564
000090 02 11 9d bd a4 a4 71 bd 75 91 1e 3d 6f 03 fd bc
       -0.076692596 -0.058994904 0.038712937 -0.030885426
0000a0 e6 bc af bc 22 25 3a bd b4 7b bb 3b 35 6f 2b bd
       -0.021452378 -0.04544557 0.0057215337 -0.041854102
0000b0 e4 e4 54 3d 93 80 da 3c 71 f0 3a 3d f8 7a 5b 3c
       0.0519761 0.026672637 0.04563946 0.013396017
0000c0 f3 03 da 3d 6b 2c 30 3c c2 2c 15 3d 82 b0 6d ba
       0.106452845 0.010752778 0.036419638 -0.0009067134
0000d0 b1 f2 cb bd 28 88 92 bd 91 8d bc bc b5 f7 03 bd
       -0.09958399 -0.07154876 -0.023016723 -0.032218654
0000e0 5c 88 46 3d 03 48 46 bc d4 89 8b 3d cb db 7e 3e
       0.048469886 -0.01210213 0.06813398 0.24888532
0000f0 01 b4 8e bc 12 e3 bd 3b 8a 81 75 3c de 50 a3 3d
       -0.017419817 0.005794891 0.014984498 0.079744086

weight f4 [3, 64]
000000 31 b0 29 bc 8f 8f 73 bd 3a cd c2 bb 89 7e ed 3c
       -0.010356949 -0.05946308 -0.005944875 0.028991
000010 2a e3 79 bc 53 f1 f2 bd d9 30 b9 bd e5 4e be 3d
       -0.015251914 -0.11862435 -0.0904252 0.09292392
000020 60 82 49 bc 41 68 2a 3c 55 b4 e8 3c b6 0c cc bd
       -0.01229915 0.010400833 0.028406302 -0.09963362
000030 ba 19 cb 3d c1 16 7a bd 40 b0 fb bd b1 50 a8 3d
       0.09917016 -0.061056856 -0.122894764 0.08218516
000040 a3 34 57 bd 19 5e 0c be 70 d5 10 3d e2 97 dd bd
       -0.052540433 -0.1370777 0.0353598 -0.10819985
000050 c5 b8 fd 3d 98 67 08 bd 06 51 de bb 2c 87 16 be
       0.123887576 -0.03330192 -0.006784561 -0.14700001
000060 31 71 94 bc 2e 77 b5 bd 5b dd ac 3d 15 10 50 3d
       -0.01812038 -0.08860622 0.08440658 0.050796587
000070 f7 40 af 3d 52 28 aa 3d 56 83 be 3b 70 fd 01 be
       0.08557313 0.08308472 0.0058139963 -0.12694335
000080 c4 b0 1e be 4a 74 80 bb fb 7c e0 3d 34 17 15 3e
       -0.15497118 -0.0039201127 0.10961338 0.14559633
000090 ed 50 dd 3d aa 80 45 3d c8 dc cd bd ba 83 28 bc
       0.10806451 0.048218407 -0.10051876 -0.010285312
0000a0 eb 46 c8 bd a8 09 ff bd 9d af fe 3d fd 9e ec 3c
       -0.097791515 -0.12453014 0.12435839 0.028884405
0000b0 49 49 7d 3d 89 1f f0 ba 0c 7c 53 3b c8 9d 61 3d
       0.06183747 -0.0018319945 0.0032269983 0.055082113
0000c0 ca d9 52 bd ed ab f0 bc 7d 33 09 be 1c d7 42 bd
       -0.05147723 -0.029378856 -0.13398547 -0.047568426
0000d0 ce 7c 44 be 00 13 c3 bd 1b f6 ec bd 2e 5f a0 3d
       -0.19188234 -0.09525108 -0.115703784 0.07830654
0000e0 d5 04 e1 3d 56 4a 65 bd 6a d6 e3 bc 8b e0 93 3d
       0.1098725 -0.055979095 -0.027812202 0.072205625
0000f0 19 db ec 3d ca 49 71 3d 68 4e a4 3d d7 cc b5 bd
       0.11565227 0.05890826 0.08022767 -0.08876961
000100 d5 f1 d0 3d f8 79 ad bd f9 b7 f0 3d 11 ad c9 bc
       0.10202376 -0.08470529 0.1175384 -0.024618657
000110 97 8b 89 3d bd 5c 20 be 33 c1 78 bd b2 20 ec 3c
       0.06716078 -0.15660377 -0.060731124 0.028824184
000120 88 22 e6 bd 84 f9 9f 3d 41 23 9d 3d a3 12 86 bd
       -0.11237055 0.07811263 0.0767274 -0.065465234
000130 80 8e 08 bd 0f f5 cb 3b 68 a2 eb bc 57 08 05 be
       -0.033339024 0.0062242816 -0.028763965 -0.12991463
000140 e0 59 e5 bd 7c 19 ed bc 68 1d 53 3d 40 80 91 bd
       -0.11198783 -0.028942816 0.051541716 -0.0710454
000150 4f 67 a1 3c 12 0a c9 3e cb 1b a9 bc 25 e9 09 be
       0.019702582 0.39265496 -0.020643136 -0.13467844
000160 cd b4 c1 bd 7f 6f e2 3d 07 14 65 3d 36 cc dd bc
       -0.09458313 0.110564224 0.055927303 -0.027074914
000170 cf b6 b8 3c fb 11 cd 3c 15 85 b4 3d af bb 9f 3a
       0.022548107 0.025032988 0.08814446 0.0012186671
000180 fb c4 53 bd a5 29 04 bd 29 45 89 bd cf 93 9e 3d
       -0.051701527 -0.032266278 -0.067026444 0.07743036
000190 ad fc 7f 3d 0e 08 fe 3d a2 a9 a4 bc 8c b9 06 be
       0.06249683 0.1240388 -0.020100418 -0.13156718
0001a0 ed b0 b3 bc 01 98 86 3c 77 4f 46 bd 9e fe 0c be
       -0.02193495 0.016429903 -0.048415627 -0.13769004
0001b0 7b 56 2b 3e 63 d3 73 3d c0 08 3e 3d 7b 9f dd 3d
       0.16732208 0.059527766 0.046395063 0.10821434
0001c0 d5 04 84 bd b7 bb b5 bd 74 72 ae bd 34 ca b4 3c
       -0.06446234 -0.088736944 -0.08517924 0.022069074
0001d0 d2 99 04 3e 66 51 ac bd c0 81 81 bd 89 15 9d bc
       0.12949303 -0.08413963 -0.06323576 -0.019175308
0001e0 67 8d 0c 3d be dc 7d bc 0c db ce bc 07 e0 cf 3d
       0.03431454 -0.015494524 -0.025250934 0.10150152
0001f0 1c 6a 09 3e e2 ca da bd 91 02 2d bd 4e 66 65 3d
       0.13419384 -0.10683228 -0.042238776 0.05600577
000200 4a 6f f5 bc 2c 5f 6c bd f2 97 48 3d 68 ad dd bd
       -0.029960293 -0.05770795 0.04897303 -0.1082409
000210 6a 7d 17 3d 96 ce ec 3d 5a ae df bd 2d 4e 41 bb
       0.03698484 0.11562841 -0.10921927 -0.002949606
000220 00 aa cd 3c 83 c6 8c bd 06 08 f5 bc 86 a3 96 3d
       0.025105476 -0.068738006 -0.029911052 0.07355408
000230 00 d0 1e 3b 43 e3 85 3c 3e 30 82 bc 9f dd d1 bd
       0.0024232864 0.016343718 -0.015892144 -0.10247349
000240 2c 47 15 3d e2 51 97 bc 13 9e a8 3d 86 8a 39 3d
       0.036444828 -0.018471662 0.08233275 0.045298122
000250 6b 3f 10 bc 97 ce 79 3d 8c 0c bb bd fa fd 9a 3d
       -0.0088041825 0.060988035 -0.091332525 0.075679734
000260 e6 25 e9 3d 30 dc 02 3e 5c 52 16 bd 82 83 f7 3d
       0.11384182 0.12779307 -0.036699638 0.1208563
000270 25 44 01 3e f7 4e ef 3b 7d 7b 6d bd 9e c6 0b bc
       0.12623651 0.0073031145 -0.057979096 -0.008531241
000280 49 80 28 bc 84 e9 80 3d 22 99 66 3d 3b a0 26 bd
       -0.010284492 0.062945396 0.056298383 -0.04068015
000290 d0 4a bb 3d 50 bf c6 3c 00 6a d9 bd cd be f9 3c
       0.09145129 0.024261147 -0.10615921 0.030486489
0002a0 fc 8a 03 3e 2e f3 5e 3d b5 98 00 3e 8c 11 cc 3c
       0.12845987 0.054431133 0.12558253 0.02491071
0002b0 27 f7 2e bd ee aa d9 bd ca af 11 3d 5f c1 07 3e
       -0.04271617 -0.106283054 0.035568036 0.13257359
0002c0 09 8b c9 3d da a2 af 3d 90 ce 32 bd d7 05 cc 3d
       0.09840972 0.08575983 -0.043654025 0.09962051
0002d0 ee f1 a9 bc f1 a1 97 bd 79 9d 5b bd b7 1d ff 3d
       -0.020745244 -0.07403935 -0.053616975 0.124568395
0002e0 85 10 6c bc cc 65 ac 3d d0 1a d9 bd 56 c2 3c be
       -0.014408235 0.08417854 -0.10600817 -0.18433508
0002f0 48 1b 0f bd f7 b7 5b 3d 55 e4 d3 3d e2 43 94 3d
       -0.034938127 0.05364224 0.10346285 0.0723951

bias f4 [3]
000000 43 c9 9b bd 1a 20 ad bd b4 91 a2 3d
       -0.07606747 -0.084533885 0.07937947
