LorenzSystem/TrainedModels/LSNNModel_FFT(Noise = Normal).pth (torch, 73352 bytes, 8 tensors)

weight f4 [64, 3]
000000 f0 41 aa 3e 40 77 ce 3e b0 42 08 3f 2d eb 0b 3f
       0.3325343 0.40325356 0.5322676 0.54655725
000010 1b d4 91 3e 66 29 8c bd bb 7a 61 be 44 09 de 3e
       0.28482136 -0.068438336 -0.22019474 0.43366444
000020 63 20 01 3e 04 af 01 3f 1d 3f f3 3e e1 a8 0f 3f
       0.12610011 0.5065768 0.4750909 0.56117064
000030 d5 1c ae bb 45 6c 9a 3e d7 a2 d9 bd fc 5a d3 bc
       -0.0053134956 0.30160728 -0.10626762 -0.02580022
000040 1a fc 25 bf 61 3d 6e be e2 61 f0 be e2 e4 4b be
       -0.648378 -0.23265602 -0.4694968 -0.1991153
000050 d4 1f 53 be cb 52 08 bd 43 c3 21 3f 04 a6 06 bf
       -0.2061761 -0.033282083 0.6318857 -0.5259707
000060 c8 8a 58 be e3 73 ff bc ce c4 a2 bd 5d 58 08 3f
       -0.21146691 -0.031183189 -0.07947694 0.5325983
000070 94 d2 81 bc d2 61 80 3e 0c ed c8 be 5a d7 df be
       -0.015847482 0.2507463 -0.39243352 -0.43718988
000080 d2 67 cd be bb 55 8b be f6 2a 05 3f e5 62 9b be
       -0.4011827 -0.27213845 0.5201868 -0.30348888
000090 35 3b 42 3e 55 a0 0c 3e c2 fc 10 3d 8e 93 12 3f
       0.18967898 0.13733037 0.0353973 0.572564
0000a0 a6 e1 af 3d 7f fb 92 be 87 05 82 3e 78 b3 fe 3c
       0.08587961 -0.287075 0.25394842 0.031091437
0000b0 2d ad 81 bd 18 e6 b4 3c 40 f2 f3 be 32 64 be 3e
       -0.06331859 0.022082373 -0.4764576 0.37185818
0000c0 8f 01 e6 3d 8f 64 93 3e 74 4e e2 be d9 15 ee be
       0.11230766 0.28787658 -0.4420048 -0.46501043
0000d0 e9 2f 6d 3e b5 0d c7 3b 38 f7 ae 3e 7f 6a 01 bf
       0.23162808 0.006074632 0.34172988 -0.50553125
0000e0 19 a3 96 3e f7 21 2d be a8 41 b2 3e e3 e0 2e bd
       0.2942131 -0.16907488 0.34815717 -0.042694937
0000f0 90 60 79 be 94 be ed be b6 cf 06 3f 01 41 a3 be
       -0.24353242 -0.46434462 0.5266069 -0.31885532
000100 7a 93 83 be 6d f7 03 be 68 c2 87 be 5a f0 a0 3e
       -0.25698453 -0.12887354 -0.26515508 0.31433374
000110 5d b8 6d 3d 7d 6b ca be 53 ed 33 be 56 81 ee 3e
       0.05803715 -0.39535132 -0.17571001 0.4658305
000120 8b 9e c3 be ab a7 b5 3e 89 6b 99 3e 84 0e bd be
       -0.38206896 0.35479483 0.29964855 -0.36925137
000130 18 48 dc 3c 26 5b 09 3f 17 09 8e 3e 6c 78 f0 be
       0.026889846 0.53654706 0.2774131 -0.46966875
000140 ea f9 0d 3f d1 86 ee 3d 3c e6 6a 3e 78 bf 69 3e
       0.55459464 0.11646808 0.2293939 0.22826946
000150 e8 f7 32 3e 29 59 d2 3e d2 10 cc be 54 c6 a5 be
       0.17477381 0.4108365 -0.39856583 -0.32377875
000160 cf 7a 1a 3f 71 d9 d0 be ad 3a 2c 3e 0d f7 a6 3e
       0.6034364 -0.40790895 0.16819258 0.3261036
000170 bb bd f2 be 31 8a 84 3d 56 a3 d6 3e 9f 96 9f be
       -0.47410378 0.064716704 0.4192149 -0.31169602
000180 e3 02 0c 3f fa 06 47 3a fb 05 ac be a0 b8 87 3e
       0.54691905 0.0007592287 -0.33598313 0.26508045
000190 ee f2 2a bf 03 53 9d be 33 03 7e be ee 18 0e 3f
       -0.6677693 -0.30727395 -0.24805908 0.5550679
0001a0 84 a4 15 3f 82 18 c8 3d f8 76 af 3d 52 54 10 3f
       0.58454156 0.097702995 0.08567613 0.5637866
0001b0 8e 98 49 3e 51 71 ec be 9e 0f 8a 3e 5b 57 3f 3e
       0.19687101 -0.46180204 0.2696504 0.18685667
0001c0 ca 99 27 3e 6c 4c 04 3f 78 ca 48 3f f9 7f ca be
       0.1636726 0.5167911 0.7843394 -0.3955076
0001d0 80 55 8c bd 15 af 0d be ae 5a c8 3e 2e ef 02 bf
       -0.06852245 -0.1383632 0.39131683 -0.5114621
0001e0 eb e3 53 3c e5 1b c1 3e b5 cc c7 3e 69 65 fd 3e
       0.012932758 0.37716594 0.39023367 0.49491432
0001f0 9a 59 05 3f 35 a4 58 3e 0a f9 0a 3f de 07 6a 3e
       0.52089846 0.2115639 0.54286253 0.22854564
000200 ba c4 46 3e 46 0b a1 3e d6 21 81 bd 42 ee 7b 3d
       0.19410983 0.31453913 -0.06305282 0.061506517
000210 e0 12 93 be 50 b9 bd bc 4b c9 86 3e 1c 4c 04 bf
       -0.28725338 -0.023159653 0.2632545 -0.51678634
000220 9b 56 e2 be de 50 9a 3e 42 be 8b be ca 6f c2 be
       -0.442067 0.30139822 -0.27293593 -0.37975913
000230 4f dc 0e 3f 03 bc f3 3e 42 7d 98 3d e9 21 ac bd
       0.55804914 0.4760438 0.07445766 -0.08404905
000240 27 53 3a 3e 22 a5 3e 3e e4 14 ab 3e 93 39 c6 3e
       0.18195783 0.1861768 0.33414376 0.387158
000250 fe 99 e2 3e 7d 65 0e 3f 39 6c 90 3d 1f 7a cd 3e
       0.44258112 0.5562361 0.07051892 0.40132234
000260 eb 4a 81 3e e3 63 00 3e 39 85 30 be da dc a6 3e
       0.2525247 0.12538104 -0.1723832 0.3259037
000270 50 a8 98 3e 84 90 e2 3d da d3 8c 3e 82 3d e5 be
       0.29815912 0.110627204 0.2750538 -0.4477349
000280 22 ef c2 3e 00 16 9c 3d ad 2a 32 be 94 a0 02 3f
       0.3807307 0.07621384 -0.17399092 0.5102627
000290 18 a1 8e be 66 6d e1 3e 0c be 51 be 1e c6 c2 3e
       -0.2785728 0.44028777 -0.20482653 0.38041776
0002a0 94 12 c6 3d 79 14 78 be 4e d1 fa 3d 11 ed ac be
       0.09671512 -0.2422656 0.12246953 -0.33774617
0002b0 6d 2f 0f bf 11 26 e4 3e 9d cc 04 3f db 06 29 be
       -0.5593174 0.44560292 0.51874715 -0.16506521
0002c0 c9 6a 2f be 85 0a d2 bd e6 5e e7 3e 41 42 08 3f
       -0.17130579 -0.10255913 0.4518959 0.53226095
0002d0 7f 38 b3 be 99 8e 0a bf f3 e6 03 3f a9 ab f2 bd
       -0.3500404 -0.54123837 0.51524276 -0.11849148
0002e0 38 46 21 3f 88 5a 92 be 05 ea 13 bd 01 ad f7 3e
       0.6299777 -0.28584695 -0.03611185 0.4837418
0002f0 be 31 01 3f 68 b7 c8 be 0a ae 5a be e9 f3 49 be
       0.50466526 -0.39202428 -0.21355453 -0.1972195

bias f4 [64]
000000 55 bf a8 3d fe ee 3f 3d 2e 80 04 bf ee f1 4e 3e
       0.08239619 0.04685878 -0.51758087 0.20209476
000010 3f 71 85 be bd 48 bf bd a3 d6 02 be 22 1a ad 3e
       -0.26062962 -0.093400456 -0.1277719 0.33809
000020 3f ab 22 be 9c 2a 87 be e4 37 20 3e 6f 90 4c 3f
       -0.15885638 -0.26399696 0.1564632 0.7990789
000030 7f 2e 9f be 18 d3 52 be 4c dc b9 be 31 93 cb be
       -0.3109016 -0.20588338 -0.36300886 -0.39760736
000040 03 25 28 3f cf 57 9f 3d 1c de 81 be e9 d1 bf bd
       0.65681475 0.0778042 -0.25364769 -0.09366209
000050 7a 69 55 3d 7e 77 90 3d 58 7c 0e 3f d0 e1 05 be
       0.052102543 0.07054041 0.55658484 -0.13074422
000060 e4 50 10 bf 96 e4 90 3e c6 26 ec 3e ec 93 7e 3d
       -0.5637343 0.28299397 0.46123332 0.062152788
000070 6b f4 90 bd e7 66 57 3b 8f 0d 35 3f cf 02 fb 3e
       -0.07077869 0.003286773 0.70723814 0.4902558
000080 04 8e 29 3e 46 48 a2 3e b7 cc 7f 3e 64 fe 5e 3d
       0.16558081 0.31695765 0.24980436 0.054441825
000090 19 f8 0f 3f d3 ef 8f be b5 ea 0e 3e 6f 52 d3 bd
       0.5623794 -0.2811266 0.13956721 -0.10318457
0000a0 85 8b ca be 16 fa 65 be 36 29 9c be f2 bb d5 bc
       -0.3955957 -0.22458681 -0.3050019 -0.026090596
0000b0 2f db ae be bb d8 cf be 43 18 e2 bd 03 0c 8a 3e
       -0.341516 -0.4059504 -0.11039784 0.2696229
0000c0 50 76 6f bd db 3f 87 3e 07 58 ff bd 66 80 8c 3e
       -0.05846244 0.26415905 -0.12467962 0.2744171
0000d0 44 ee d3 be f8 00 47 be 44 b4 05 3f 60 8c ca 3e
       -0.4139272 -0.19433963 0.5222819 0.39560223
0000e0 57 19 d4 bc c1 b9 24 bd 60 f3 06 3e f3 2a 1c bf
       -0.02589099 -0.04021621 0.13178778 -0.61003035
0000f0 96 ec ac 3e 1b a5 2d 3e 28 aa 84 be 96 1c b6 be
       0.3377425 0.16957514 -0.2591107 -0.35568684

weight f4 [128, 64]
000000 95 0b 1f 3d af a9 a0 3d fd b3 ee bc b6 58 58 bd
       0.038829405 0.078448646 -0.02913856 -0.052818976
000010 68 77 b3 3d 12 61 a8 3d 54 8c 95 3d ba 3a bb 3c
       0.08763009 0.0822164 0.07302156 0.022855151
000020 0a fe fb 3d ae 33 e9 bd 9e 0d aa 3d 96 f1 1b 3d
       0.123043135 -0.1138681 0.083033785 0.03807219
000030 19 ae 08 3d 88 e6 af bd 55 0a 97 3d 47 a0 ab 3c
       0.033369157 -0.08588892 0.073750176 0.02095045
000040 13 77 17 be 79 48 17 3d a8 ed c0 bb 1a 27 c1 bd
       -0.14791517 0.03693435 -0.005887706 -0.09431286
000050 ad e5 a9 bd 58 05 67 bd 7a 92 6f 3d b3 3c 78 3d
       -0.0829576 -0.05640158 0.0584893 0.060604762
000060 78 17 b0 3d 38 81 40 bd 70 12 c6 bd 98 24 29 bb
       0.08598226 -0.046998233 -0.096714854 -0.0025809165
000070 7e 93 33 3d 19 83 01 be ca 77 a5 3d 36 bd 5f 3d
       0.04384183 -0.12647666 0.080794886 0.054623805
000080 58 5b 89 3d 8d 39 41 3c 4f 42 3d 3d c6 52 04 bc
       0.067068756 0.011793506 0.046205815 -0.008076375
000090 22 4e cf 3d 10 d5 a1 3d 00 9f fe bd e1 09 36 3c
       0.101223245 0.079019666 -0.124326706 0.011110754
0000a0 0f 7b 2f bd 26 eb d3 3d fd 20 b5 bd da 25 f9 bd
       -0.042841967 0.103475854 -0.08844183 -0.12165423
0000b0 29 a8 e7 bd 4c a9 9a 3b e9 f1 ea bd 29 03 aa 3c
       -0.11311371 0.004719889 -0.11471922 0.02075346
0000c0 b5 61 d8 3d ba 3c 50 bd 6d 4a 0e be 15 db b7 3d
       0.10565511 -0.050839163 -0.13895579 0.089773335
0000d0 19 5c 16 bc f9 45 0c be 6a 30 64 3d 27 5e 10 bd
       -0.009177231 -0.13698567 0.055710234 -0.03524604
0000e0 b1 ab ce 3d 63 c9 8e bd e0 75 15 3c 9a ba 09 be
       0.10091341 -0.06972005 0.009122342 -0.13450089
0000f0 19 03 2c bc 67 a1 1c bd a9 d1 2b 3d 62 8a a1 bd
       -0.010498785 -0.038239863 0.041947994 -0.078877226
000100 4f c0 9e bd dd 01 a2 3d 11 d6 1f 3d b5 a9 4d 3d
       -0.07751524 0.07910512 0.03902251 0.050210673
000110 f2 8a e6 bc db 18 6a bc 48 94 e7 bd 9d d7 7d 3d
       -0.028142426 -0.014288153 -0.11307579 0.061973203
000120 38 1d de bd 6d 57 bc 3d 22 7b 9a bd b9 9e 88 bd
       -0.10845417 0.09196363 -0.07543017 -0.06670899
000130 34 bb 93 ba 6c ff 7f 3d 52 cb 45 3d fe 53 7e 3c
       -0.0011271001 0.06249945 0.048289604 0.015522955
000140 95 62 24 3f 64 04 49 bc ac d7 cc bc 54 d0 6a bc
       0.64212924 -0.012269113 -0.025005184 -0.014331896
000150 6f 01 63 3d b1 2e 6a 3c 70 66 51 bd 6f e8 b1 bc
       0.05542129 0.014293359 -0.051123083 -0.021717278
000160 97 3a 71 3c ad 25 8c 3d 07 16 18 3d 0a 9c ec bd
       0.014723442 0.068431236 0.037130382 -0.115531996
000170 0a b6 09 3d 98 c9 12 bd df aa bc 3d de a7 aa bd
       0.03362087 -0.035836786 0.092122786 -0.083327994
000180 6c 69 7e bd 6b 56 df 3d ae fc 3a 3d 54 38 56 bd
       -0.062112257 0.10905155 0.04565113 -0.052299812
000190 81 a1 a0 3d a7 9a 8c 3c 8a 53 11 3e 72 aa 0c 3c
       0.078433044 0.017163588 0.14192024 0.008585559
0001a0 9c bc bd bc ea 8c 09 be 7e ec 5b 3d 11 48 80 bd
       -0.023161225 -0.1343266 0.053692333 -0.062637456
0001b0 76 24 f0 bd 93 ac 0c be 26 35 72 3c 59 25 08 bd
       -0.11725704 -0.13737707 0.014783179 -0.033238743
0001c0 d6 68 cb 3d ea cb 01 be 0e 95 04 be cb cc a6 bd
       0.09932105 -0.12675443 -0.12947485 -0.0814453
0001d0 15 be 4e 3d 84 95 76 3d 45 e0 35 3d 00 2c ca bd
       0.050474245 0.060201183 0.044403333 -0.098716736
0001e0 0d ae 8c 3b e7 93 09 bd 21 fb 2c 3f e0 ce c4 3c
       0.0042932094 -0.033588316 0.6757069 0.024024427
0001f0 a4 2b af bc bb d4 fa bd 00 99 14 3d a0 ec e0 3c
       -0.021383114 -0.12247606 0.036278725 0.027456582
000200 50 a2 74 bd e6 08 0d 3d b3 f9 f6 bb e8 c6 40 bc
       -0.059725106 0.034432314 -0.0075370907 -0.011766173
000210 29 53 6b 3d cb 57 38 3e 20 fc c0 bb 16 aa c7 3d
       0.057452355 0.1800224 -0.0058894306 0.09749238
000220 3d d8 40 bd db 9e c7 bd dd fc bb 3b 87 24 13 3e
       -0.04708122 -0.09747096 0.0057369308 0.14369403
000230 f8 5b cb bd 57 e5 99 bd d2 31 be 3d e6 0d df 3d
       -0.09929651 -0.07514446 0.09286846 0.10891323
000240 46 ef dd 3d 60 95 ff bc 85 3a 9d bd 97 6d 1d 3e
       0.108366534 -0.031199157 -0.07677177 0.15373836
000250 49 99 30 3c 83 99 00 3e d7 01 95 3e d9 4f 85 bd
       0.0107787335 0.1255856 0.29102966 -0.0650937
000260 1f b2 42 bd d3 3d 54 3d 1a c1 cd 3d 1c 9c 84 3d
       -0.04753315 0.051816773 0.10046597 0.06475088
000270 c1 69 e4 bd 58 fc e4 3d da 7c 2b 3e 7e 9e 8c bc
       -0.111529835 0.11180943 0.16746846 -0.017165419
000280 89 76 b4 bd 86 6f 76 3e be b3 44 bd 13 04 e2 3c
       -0.08811671 0.2406598 -0.048022978 0.027589833
000290 20 3a a3 3b ed fd 01 3e 51 09 e1 be 95 57 20 3e
       0.0049812943 0.12694521 -0.4395242 0.1565841
0002a0 a4 17 39 bc e5 23 9e bd 3d 5e 1c be d6 5d ce bd
       -0.01129714 -0.0772169 -0.15270324 -0.100764915
0002b0 38 8e 7e bd 3c 62 06 3e b9 23 2d bb 87 f5 fa bd
       -0.06214735 0.13123411 -0.0026418997 -0.12253862
0002c0 ef f9 ec 3d 80 b4 94 bd bc 9d ed 3c 23 45 92 bd
       0.115711085 -0.0726099 0.029005878 -0.07142093
0002d0 3d d3 6a 3d 54 c1 13 3e 01 4b f2 3d bf 91 d3 3c
       0.05733036 0.14429218 0.11830712 0.025826333
0002e0 3d 73 ae bd db b2 52 3d ce 45 2a 3e 19 15 cb 3d
       -0.08518074 0.0514401 0.16628191 0.099161334
0002f0 fb 58 00 bc bb f4 ce 3c a6 1f dc bd 4c 2e 94 bd
       -0.007833715 0.025263181 -0.10748224 -0.07235393
000300 52 17 6b 3d 52 fc db bd 5d dd 56 3d 37 4d a0 3d
       0.057395287 -0.10741486 0.052457202 0.078272276
000310 a6 7c fa bd 75 06 d3 bc d2 97 b2 bd 95 22 c7 3c
       -0.12230806 -0.025759915 -0.08720364 0.024308482
000320 17 1d e8 bd 4b 12 64 bd 6e c6 00 be 7f bf 8c be
       -0.113336734 -0.055681508 -0.12575695 -0.2748985
000330 79 4e 9b bd 55 41 8e bd b6 45 3b 3c 6d 1a df 3c
       -0.07583327 -0.06946055 0.011430195 0.02723428
000340 59 6a 74 bc d5 41 4d 3e 2b a9 dd bd 48 b4 2f bd
       -0.014917933 0.20044644 -0.10823282 -0.04289654
000350 4f 45 11 3d af ef ce bd b3 5e 80 3d e0 a2 b9 bd
       0.03546649 -0.1010431 0.062680624 -0.09064269
000360 15 8c 56 3b d3 d5 c9 3d c2 18 2d 3d 2e c4 5c 3d
       0.0032737304 0.09855237 0.04225994 0.05389803
000370 97 b4 ba bd ad 24 92 bd 71 7f d7 bd fe 8d 11 3d
       -0.09116476 -0.071359016 -0.105223544 0.035535805
000380 25 51 2a 3d 4d 35 92 bd 23 c7 31 3d b0 00 e9 3c
       0.04158129 -0.071390726 0.043402802 0.02844271
000390 c8 46 7c 3d de 2e a2 bd aa 22 4d be b5 90 ca bd
       0.06159094 -0.079190955 -0.20032755 -0.09890882
0003a0 c5 35 01 be 0a 1a 87 3d fa 9f 87 3c f6 06 fb bd
       -0.12618168 0.065967634 0.016555775 -0.12257187
0003b0 72 30 44 3d 46 40 35 3d bb 03 a9 3d 52 a3 1e 3d
       0.047897764 0.04425075 0.08252665 0.038729973
0003c0 ff e3 31 bd 45 c9 e9 bd 26 d3 b0 3d 13 31 cd bd
       -0.043430325 -0.11415342 0.08634023 -0.10019126
0003d0 ce 73 02 be 61 1b 67 3d da af 38 be 7e bf a4 3d
       -0.12739488 0.056422595 -0.18035832 0.08044337
0003e0 c9 77 79 3d e2 c2 b1 3c 1c 43 f4 bd bc ab 9a 3d
       0.06090525 0.021699373 -0.119268626 0.07552287
0003f0 d0 e9 87 bd 59 66 2e 3d 79 f1 b1 3a 22 17 d8 3b
       -0.06636393 0.042578075 0.0013575993 0.0065945545

bias f4 [128]
000000 44 fc 5b 3d c2 55 b7 3d 03 07 c7 3d 5d cc 6f bd
       0.053707376 0.08951904 0.09718134 -0.058544505
000010 a0 36 59 3e a4 23 93 3d 05 e8 82 bd 4d 8e a5 bd
       0.21212244 0.07184532 -0.063919105 -0.08083782
000020 19 32 e8 bd 8d 95 74 3c 27 34 13 3d f1 26 95 3d
       -0.1133768 0.014928234 0.03593841 0.07282818
000030 18 b2 fe bb c7 e9 c3 3d 04 60 96 3d 30 28 91 bd
       -0.0077726953 0.09566074 0.07342532 -0.07087743
000040 96 f1 8c 3d c1 19 54 3d f8 9e e2 bc 8e 8e bc bd
       0.06882016 0.051782373 -0.027663693 -0.09206878
000050 ac fe 5f 3d 15 b5 f3 3d 4b c8 72 3b 82 f9 8a 3b
       0.054686233 0.11899773 0.0037045653 0.0042411694
000060 70 ca 5a 3d 65 0a 02 be 4f 79 b9 bd 30 f5 7b bc
       0.053415716 -0.12699278 -0.09056341 -0.0153782815
000070 bb ff d9 3d 67 49 d6 bc 5a 07 19 3d 10 0b f1 bd
       0.1064448 -0.026158048 0.037360527 -0.11769688
000080 a0 80 9d 3d 40 91 19 3e 1b 84 36 3d 51 52 9e 3d
       0.07690549 0.14996815 0.04455958 0.07730544
000090 80 67 b1 bc 55 88 30 3d a5 ae 93 bd 57 c1 10 bd
       -0.021655798 0.043098766 -0.07211045 -0.035340633
0000a0 3f c7 9a 3d 01 79 04 be 69 02 bd bb b9 d6 f4 bd
       0.075575344 -0.12936784 -0.0057681096 -0.119550176
0000b0 99 3c 3f bd aa d1 68 bd 33 47 d7 3d 9d fa 22 bd
       -0.04668865 -0.056840576 0.10511627 -0.039789785
0000c0 1c 2e e0 3d 35 34 fa bd dc fd 89 bc a3 00 02 be
       0.10946295 -0.12216989 -0.016844682 -0.12695555
0000d0 e1 8a 6d 3d 1f ef 67 bd 21 88 74 bd b4 23 ef bd
       0.057993773 -0.056624528 -0.059700135 -0.11676732
0000e0 80 eb 4a bc b1 15 ac 3d 40 7f a4 bd 73 1a 34 bd
       -0.012385249 0.08402575 -0.080320835 -0.043970536
0000f0 d0 cc c7 bd 55 2a b9 3c 8d 14 53 3d 86 b7 a6 bd
       -0.09755862 0.022603193 0.05153327 -0.08140473
000100 91 a1 b4 3c 7b fb e4 bd e4 97 6b 3d 68 5f b5 bc
       0.022049697 -0.111807786 0.0575179 -0.02214022
000110 d6 02 e5 3d ff 47 bf bd 9e e2 ed 3d d5 57 d9 bc
       0.111821815 -0.09339904 0.116154894 -0.02653114
000120 20 6b 15 bc b9 3f e5 ba 9e c9 4a bd a5 72 b4 bd
       -0.009119779 -0.0017490304 -0.049508683 -0.08810929
000130 48 f5 15 3d 70 57 96 bd 9a d8 7c 3d 0a 84 f6 bd
       0.03661087 -0.07340896 0.061730005 -0.12036903
000140 20 34 ca 3d 7f f4 6e bd 26 9f 99 bd f9 73 19 3d
       0.09873223 -0.05833864 -0.07501058 0.037464116
000150 d0 79 bd 3c 45 53 01 3e eb ec f4 bd e5 98 b7 bd
       0.023129374 0.12629421 -0.11959251 -0.08964709
000160 f0 a2 2e bc cb 9c 9f 3d ba 2c e8 bd f5 7b ed 3d
       -0.0106589645 0.07793578 -0.11336656 0.115959086
000170 e1 55 b4 3c 36 0b d4 bd fe d2 6e 3d 4a 6b 8b bd
       0.022013607 -0.10353701 0.058306687 -0.06807573
000180 04 d1 9a bd cf 07 43 3c 53 01 0f 3e 66 36 a4 bd
       -0.07559398 0.011903717 0.13965349 -0.08018188
000190 2d 5d 08 3d f6 70 ca 3c 74 d4 0e bd fe c6 a2 bd
       0.033291984 0.024712067 -0.03487058 -0.07948111
0001a0 94 cc 23 3d f4 7d ce 3d 80 ce cc 3d 95 d1 58 bd
       0.039990023 0.100826174 0.10000324 -0.052934248
0001b0 fc 25 49 bb 90 70 de bd cc 86 c9 bd b0 f3 09 3d
       -0.0030692806 -0.10861313 -0.098401636 0.033679664
0001c0 89 7f 11 3e 85 1e 2f bd f2 42 03 3e b4 1c 7e 3e
       0.14208807 -0.042753715 0.12818506 0.24815637
0001d0 7b 6a 57 3d 36 e0 0f 3e 24 36 8f 3d 21 fa b0 bc
       0.052591782 0.14050373 0.069927484 -0.021603646
0001e0 95 2f b8 3c ac 1f a5 3d 50 b8 ec 3c 39 56 da 3c
       0.022483626 0.080626816 0.02889648 0.026652442
0001f0 aa 85 5c 3d 36 0e dc 3d 9d bf 13 3d 12 6b e7 3c
       0.05383841 0.10744898 0.03607141 0.028249297

weight f4 [64, 128]
000000 e8 c8 b4 3d 30 ba cb bc cc 42 4f bd 43 0c 3a bc
       0.08827382 -0.024869055 -0.05060081 -0.0113554625
000010 c7 48 2f bd b5 de b2 3c 3a 84 75 bd 55 ec 59 3d
       -0.042794015 0.02183471 -0.059940554 0.0532039
000020 b9 66 36 bc 82 c3 7b 3d c3 f7 e2 3d e6 f8 48 3c
       -0.011132889 0.061465748 0.11082413 0.012266373
000030 f1 ff 6b 3d 68 e3 ac 3c 9b f9 72 3d 74 76 84 3c
       0.05761713 0.02110453 0.059320074 0.016169764
000040 3c 1b c6 3d c3 49 70 bb 3b 94 ca 3d a3 c5 8d 3d
       0.09673163 -0.003666506 0.09891554 0.06922462
000050 00 5f 98 3d bc 7d 89 3d b0 e4 a4 3d b2 57 8b 3d
       0.07439995 0.06713435 0.08051431 0.06803836
000060 b8 1e 41 bd 1f b5 96 bd 6d e0 66 bd 17 4d 9d 3d
       -0.047148436 -0.07358765 -0.056366373 0.07680719
000070 9b 0e c9 3c 33 31 c3 bc cf ef 35 3d ca 32 09 bd
       0.024543097 -0.023827171 0.044418152 -0.0334957
000080 67 e7 b1 3d 28 dc 5d 3a 1d 95 7e 3d db f8 a5 bd
       0.086867146 0.0008463287 0.062153924 -0.08104106
000090 56 48 0f bd 5d 5a b3 3c 9c 2a d0 3c 3d dd be 3b
       -0.034981094 0.021893675 0.025410943 0.0058247135
0000a0 12 b4 17 bd 1f 4f 34 bd 3a d4 24 bd 94 b7 89 3c
       -0.037036963 -0.04402077 -0.040241458 0.01681117
0000b0 1d e5 02 3c 91 fb 47 bd 91 e7 43 bd 0d c6 9b bc
       0.007989195 -0.048823897 -0.04782826 -0.019015336
0000c0 5a 5d 81 bb bf b4 8f 3d 5b da 70 3d 95 c7 88 3d
       -0.003947896 0.070168965 0.05880199 0.06678692
0000d0 b8 4b fd 3b 61 62 99 3c b9 cb 63 3d cc 2a d3 bc
       0.0077299736 0.018723669 0.055614207 -0.025777243
0000e0 29 91 86 3d a0 ea 14 3c a2 b4 d5 3d 0a 19 f2 3c
       0.06570656 0.009089142 0.104348436 0.029552955
0000f0 09 2b 9b 3d b5 43 76 3d 27 cf 7b bd 0a 0f 7d bd
       0.07576568 0.060123164 -0.061476853 -0.06178192
000100 14 c9 95 3d fd a3 85 bd ae a0 cb bc 9f 86 5c bd
       0.07313743 -0.06525419 -0.024856891 -0.053839322
000110 7d 31 c6 3d f7 6b c0 bc a8 8f 7b bd 8e b1 c1 bc
       0.09677408 -0.023488982 -0.0614163 -0.023644235
000120 78 74 f6 3c da e9 9a bc 9e fb 0d bd 6a 28 92 3d
       0.030084834 -0.018910337 -0.03466379 0.071366146
000130 65 b0 21 bd 17 33 de bc 2f 24 95 3d b4 53 b1 bc
       -0.039474864 -0.02712397 0.07282292 -0.021646358
000140 48 10 55 bd 02 36 06 bc 39 b1 9a bd 3d de e8 3d
       -0.05201748 -0.008191587 -0.07553334 0.113705136
000150 3a 33 24 3d fb f4 3e 3c 03 e4 bf 3c 83 f7 b8 3d
       0.040087916 0.011655088 0.023424154 0.09031584
000160 66 96 83 bd d9 7e 30 bd 91 15 a8 3d 4a 78 8a 3b
       -0.064251706 -0.04308972 0.082072385 0.0042257654
000170 67 d2 82 3c f0 37 90 bb 17 14 3b bd 7f c4 b2 3d
       0.015969468 -0.0044011995 -0.045673456 0.08728885
000180 ae 64 c6 3d c7 e0 7d 3c 1b 24 00 bd c0 b2 1b bb
       0.09687172 0.015495486 -0.031284433 -0.0023757666
000190 49 16 80 3c fc 45 50 bd 1f 1c 0a bd 57 4b 8c 3c
       0.015635626 -0.050847992 -0.033718225 0.017125769
0001a0 01 36 98 3d e2 9a ce bc ae b6 13 3d ee 01 39 bb
       0.074321754 -0.025220338 0.03606289 -0.002822991
0001b0 9b af 95 3d 37 d5 8e bd f8 46 76 bd 90 df da 3b
       0.07308885 -0.06974261 -0.060126275 0.0066794828
0001c0 95 ad 16 3d c6 46 a4 3d ed c7 9c bc 30 40 20 be
       0.036786634 0.080213115 -0.0191383 -0.15649486
0001d0 38 89 3c 3d 8d 2a 13 bd b6 cd a8 3d 8a d7 3c 3a
       0.0460293 -0.03592925 0.08242361 0.00072037487
0001e0 bf fb a0 bd 8e 26 30 3d 5e 0d 3d bd 4e 02 2e bd
       -0.07860517 0.04300552 -0.046155326 -0.042482667
0001f0 3f 12 a0 3c 6a d4 4a 3d c6 e9 42 bd e0 e5 cb bc
       0.01953995 0.04951898 -0.047586225 -0.024889886
000200 bc ca cb bd 32 01 40 3d a5 ae 18 bc 06 e5 11 3b
       -0.09950778 0.04687614 -0.009318982 0.0022261753
000210 07 84 e7 3d fe ee 93 3d 4a 33 74 bd ca e8 48 3d
       0.11304479 0.072233185 -0.059619226 0.04905013
000220 46 dc 04 bd 28 62 4e 3d 8a 0f 7e 3d b4 28 54 bd
       -0.03243663 0.050386578 0.062026538 -0.05179663
000230 d3 02 8b 3c f0 ba 01 3c 07 f2 98 3d 74 f2 82 3c
       0.01696912 0.0079181045 0.07468038 0.015984751
000240 2c ee 34 3d 19 d4 9c bd 06 3d 9b 3d 72 9b 1a 3d
       0.04417245 -0.07657642 0.07579999 0.0377459
000250 28 4c 8b bc 06 c1 c1 3d 2d e1 ae bb c4 22 1c 3c
       -0.017004088 0.094606444 -0.0053369016 0.009529773
000260 cc 5f 87 3d d5 6b 32 bd d4 b9 92 3c 84 b6 be 3c
       0.06610069 -0.043559868 0.017910875 0.02328039
000270 c3 74 21 bc 9c 25 45 bd ff 17 e7 bb 0a c4 e0 bc
       -0.009854498 -0.04813157 -0.007052421 -0.027437229
000280 7e 00 22 bd 54 6c 86 bd 1f 4b b0 3d 1a 79 bf bc
       -0.03955125 -0.06563631 0.08608078 -0.023373175
000290 48 4f 8c 3c 5c 43 82 3d 99 ae 30 3e 9e 4c 8e bb
       0.017127648 0.06360504 0.17254104 -0.0043426296
0002a0 2f c3 91 bd 2a ed 11 3d 15 b3 c6 bd db cf 95 bd
       -0.071173064 0.035626568 -0.09702126 -0.07315036
0002b0 ab 8c 69 bd 6f 89 b3 bd 2a 8e 0f 3d 39 60 7d bd
       -0.057018917 -0.08766448 0.035047688 -0.061859343
0002c0 8e 9d bb 3d 98 cd 2c bd d0 0d 55 bd e9 11 9b 3d
       0.091609105 -0.042188257 -0.052015126 0.075717755
0002d0 24 9c 2c 3c d2 8e 2d bb 49 81 76 3d 14 09 3a bd
       0.010535274 -0.0026482833 0.06018189 -0.045418814
0002e0 74 64 92 bc dc 37 7e 3d 74 99 16 3d 90 96 85 3d
       -0.017870165 0.06206499 0.036767438 0.06522858
0002f0 fa b7 98 3d 2b 8f b0 3d 82 18 83 bc e1 a9 16 bd
       0.07456966 0.08621057 -0.016002897 -0.036783103
000300 01 19 4b bc a1 ae 67 3d ba 96 75 bd f4 46 78 3c
       -0.012396098 0.056563023 -0.059958197 0.015153635
000310 db 0e 17 3d 29 00 87 3b 82 d7 29 3b c0 e7 51 bb
       0.0368794 0.004119892 0.0025915806 -0.0032029003
000320 a9 a3 08 bd d4 44 4b bd 4d f5 3f bd c0 78 97 3d
       -0.033359203 -0.049626186 -0.046864796 0.07396078
000330 15 19 a4 bd 95 80 8f bc 25 50 e4 bc e2 68 37 bd
       -0.080125965 -0.017517367 -0.027870247 -0.04477776
000340 26 d8 73 bd 07 71 87 3d e3 ae 33 3d 57 85 78 3d
       -0.059532307 0.06613355 0.043867957 0.060674038
000350 44 98 52 3c 7a 30 0a 3d bb 74 7a bb 4d 1e 24 3d
       0.012853686 0.033737637 -0.003821655 0.04006796
000360 a5 2f a9 3d 38 46 98 3c 66 cd 94 bd bc 67 c7 3c
       0.082610406 0.01858817 -0.07265739 0.024341457
000370 2d 2d cf 3d 50 8a 8b 3c f8 5b 5a bd be 35 92 bd
       0.101160385 0.017033726 -0.053310364 -0.07139157
000380 ac 6d ac 3d 1a e4 49 3d be 45 84 bc 4a ae 53 3d
       0.08419356 0.0492898 -0.016146537 0.051679887
000390 db a2 92 3d ec c8 2d bd 9a bc 1b 3d 77 43 a3 bc
       0.071599685 -0.042427942 0.03802166 -0.01992963
0003a0 01 ff 80 3d 9c 82 1a 3d ca 29 62 bd 08 14 99 3d
       0.06298638 0.037722215 -0.055215634 0.07474524
0003b0 54 db 6c 3d 01 fc a7 3d ab eb d8 3b dc f4 93 bd
       0.057826355 0.08202363 0.0066198907 -0.072244376
0003c0 bc 6e 90 3d 2e 91 b3 3d 9f 9f 58 bd 0c b2 ed 3c
       0.07052371 0.08767925 -0.0528866 0.029015563
0003d0 4c 51 bb bd 5c a1 fd 3d 90 78 18 3d 2b e8 d5 bb
       -0.091463655 0.123842925 0.037224352 -0.0065279207
0003e0 06 5a da 3d a3 f9 79 bd f9 68 5a 3c db c7 7a 3d
       0.10661702 -0.061029088 0.0133306915 0.061225753
0003f0 49 3a 16 bb 6f 6b 56 bc 27 cf c3 3d ae 95 f3 bc
       -0.0022922924 -0.013087138 0.095609955 -0.029734459

bias f4 [64]
000000 f9 f4 7f 3d ba b8 ad ba ef 26 4d 3c bd e7 a9 3d
       0.062489484 -0.0013253905 0.0125214895 0.08296154
000010 8d 96 17 bd ad 7b 43 bd 33 c3 af 3d ae 7c d6 bc
       -0.03700881 -0.04772537 0.08582153 -0.026182499
000020 84 47 36 bc 62 52 8f bd ff c4 c1 3d d5 31 ac 3d
       -0.011125449 -0.06998135 0.09461402 0.08407942
000030 b9 50 33 3d c1 16 a8 3d e1 4f 8f bd a9 95 d0 bc
       0.043778155 0.08207465 -0.069976576 -0.025461989
000040 81 b5 b2 bb 73 d7 42 bd 69 7b aa bd b4 da 7d bd
       -0.005453766 -0.04756875 -0.0832432 -0.06197615
000050 9c 8c 81 3d e3 f4 75 3d a6 dc 5c 3c 37 93 b7 3d
       0.06325647 0.060047995 0.013480341 0.08963626
000060 73 2c 69 3a 18 25 17 3d f6 9f 37 3d 16 02 b7 3d
       0.0008894868 0.03690061 0.044830285 0.08935945
000070 f5 e3 88 bd 9e a4 34 3b a8 b2 98 3d 76 a0 8d bd
       -0.06684104 0.002756394 0.07455951 -0.06915371
000080 7b c4 68 3d d5 c0 b7 3d ee 47 1f bd a1 73 65 bd
       0.056828003 0.08972327 -0.038886957 -0.056018475
000090 82 ca 8c bd 7f 32 04 bd 26 3a aa bd 4b 9b ff 3c
       -0.06874563 -0.03227472 -0.08311872 0.03120198
0000a0 e2 54 2f bd 71 5e df bb 11 ed cb 3d 1e bd 6f bd
       -0.04280556 -0.006816678 0.09957326 -0.058529966
0000b0 84 29 92 3d d3 53 0b bc 33 ba 85 3d 35 38 89 3d
       0.07136825 -0.008503872 0.06529655 0.06700174
0000c0 26 d8 a1 bc 4b 73 0e 3d 76 88 a6 3d e8 1d 9e 3d
       -0.019756388 0.03477792 0.081314966 0.07720548
0000d0 02 48 8e bb a5 08 59 bd 67 22 01 bd b4 26 f6 bc
       -0.00434208 -0.05298676 -0.03152695 -0.030047752
0000e0 cd 5b 91 3d 69 95 0b bd f0 c5 95 bd 59 d7 d6 bc
       0.07097588 -0.034078036 -0.07313144 -0.026225733
0000f0 e8 cb 88 bd 49 29 92 3c 8b e9 53 3d 15 39 1f 3e
       -0.06679517 0.017841952 0.051736396 0.15549119

weight f4 [3, 64]
000000 6d 5b 51 3d 98 71 ec bd f2 17 61 3d 17 d5 f7 bd
       0.05111258 -0.11545104 0.054954477 -0.121011905
000010 08 7c 4f 3d e9 79 8e 3d 89 49 75 3c 6f cd 61 bd
       0.050655395 0.06956846 0.014971145 -0.055127557
000020 bd 39 91 bd ba e1 2d be 32 19 ab bd ff 69 38 bd
       -0.07091091 -0.16980639 -0.08354415 -0.04502296
000030 9f ec d7 3d d4 23 4e 3d d3 5e dd 3d bb d9 aa bd
       0.10543179 0.050327137 0.10809102 -0.0834231
000040 9d c2 db 3d 90 1e fb 3d e7 f2 a4 3d c2 55 02 be
       0.10730479 0.12261689 0.080541424 -0.12728027
000050 f1 f6 26 be 6b 0f 2e bd 6e e0 81 bd ee e9 ea 3d
       -0.16305138 -0.042495172 -0.06341635 0.114704
000060 89 d5 5e bd a8 33 dd 3d ac 31 24 3e 19 6e a0 bc
       -0.05440286 0.10800868 0.16034573 -0.019583749
000070 eb 9d 0d 3e 00 0d 09 3d 0f 60 27 bd 7c b3 83 bc
       0.13829772 0.033459663 -0.040863093 -0.016076796
000080 ac 80 ab 3d b3 19 cb bd 73 9b a1 bd f2 ec f0 bd
       0.083741516 -0.09917011 -0.07890978 -0.11763944
000090 8c 42 6a 3d 4c 2e 9d 3d b6 ab de 3d 84 c5 e1 3d
       0.05719237 0.07674846 0.10872595 0.11024001
0000a0 9f ea 19 bd 90 73 e4 3d 16 1c b5 3d b4 a4 05 be
       -0.037577268 0.11154854 0.088432476 -0.1305111
0000b0 48 49 b3 3d b4 90 55 3c bd 47 dc 3d 9e 33 3c bd
       0.08754212 0.013034988 0.107558705 -0.045947663
0000c0 52 1b 04 be 0a f3 c2 bc e9 65 a8 bd 96 d5 e9 bd
       -0.12901047 -0.02379753 -0.08222563 -0.114176914
0000d0 66 48 c8 3d f3 96 ef bd 68 c6 25 3d 94 4a 70 bd
       0.09779434 -0.11698713 0.040472418 -0.058664873
0000e0 a9 c1 af bc 14 32 ee 3d ab 48 3e bd 74 47 a8 3d
       -0.021454649 0.116306454 -0.04645602 0.082167536
0000f0 d5 71 da bd fe d5 0c 3d 22 bd e4 bd 39 f8 00 3e
       -0.10666243 0.034383766 -0.11168887 0.1259469
000100 14 67 14 3d 32 e2 22 be 94 1c 11 3e 18 ea 12 be
       0.036231115 -0.15906599 0.14171058 -0.14347112
000110 40 11 38 bc 25 d6 e1 bc 71 e7 37 bd ee 3a dd bc
       -0.0112345815 -0.027567932 -0.044898454 -0.027005639
000120 20 60 b5 bd e7 07 b8 3e 8e 55 b8 bd e2 6a 9a 3d
       -0.08856225 0.3594353 -0.09000693 0.075399175
000130 13 87 71 3d fc e9 04 3d 94 f6 e5 bb 4b c9 88 bc
       0.058966707 0.032449707 -0.00701792 -0.016697546
000140 91 b6 6d bd 0f 82 3a 3d aa d8 34 3d 11 e2 c0 bd
       -0.058035437 0.04553419 0.04415194 -0.09418119
000150 47 96 63 bc 4d 7b 58 bd 91 24 9a 3d b1 95 03 be
       -0.013890809 -0.052851964 0.07526506 -0.12850071
000160 87 6e 83 bd 47 03 ba bd 59 b4 92 bc 7b 98 b9 3d
       -0.06417566 -0.09082656 -0.017908262 0.090622865
000170 9b 6f e5 3d a7 57 c1 bd 93 db 14 be 03 c8 6f bc
       0.11202928 -0.094405465 -0.14536886 -0.014635089
000180 3e a8 07 3e 79 c9 b6 3d 1f 7c d8 bd 39 ba 4b 3d
       0.13247773 0.089251466 -0.10570549 0.049738143
000190 90 d0 0d 3c 9c ae 30 3d d2 6f bf 3b a0 d6 b9 bc
       0.008655682 0.04313527 0.0058421874 -0.022685349
0001a0 d4 4f 17 bd 2b 37 cd 3c f9 b9 c8 bc 07 07 0a be
       -0.036941364 0.02505072 -0.024502741 -0.13479243
0001b0 9a 9d b5 3d 58 6e 47 3d fe 92 fe bd 17 5d d9 bd
       0.08867951 0.048689216 -0.1243038 -0.106134586
0001c0 b5 1f c7 bd cd eb 9a 3d ae d2 bf bd a0 28 13 bd
       -0.097228445 0.07564507 -0.09366356 -0.035927415
0001d0 c4 9a ca bd 3f 39 55 3d 18 a2 0e bd 2a af ea 3d
       -0.098928005 0.052056547 -0.034822553 0.11459191
0001e0 d7 0c ee bc ab fd 75 bd b8 d5 d7 3d b7 59 f8 3c
       -0.029058857 -0.06005637 0.105388105 0.030316217
0001f0 de 7c 99 3d fa fd 99 bd 2d b2 ab 3b 92 00 4c be
       0.0749452 -0.07519145 0.005239746 -0.19922093
000200 8b de b1 3d 6f dc 38 bd 85 87 c0 bd 41 27 94 bd
       0.08685025 -0.045132097 -0.09400848 -0.072340496
000210 56 7f ee bd 69 cf 8d 3d c8 c9 a5 3d 19 42 e7 3d
       -0.11645381 0.06924326 0.08095127 0.11291904
000220 c7 67 f4 3d 2f 84 d0 3c e9 46 b3 3c 37 9e 06 3e
       0.119338565 0.025453655 0.021884399 0.13146292
000230 c2 8a d5 3c fa 7c ab 3d d3 0a 10 3c e8 ac bb 3c
       0.026067141 0.08373447 0.008791643 0.022909597
000240 56 83 59 3c 9f 80 e2 3d 10 85 19 bd 98 4f 9d bd
       0.013275942 0.11059689 -0.037480414 -0.07681197
000250 7f 31 5c 3c b1 1e 7d bd b6 19 36 3d 21 8e bc 3d
       0.013439535 -0.061796848 0.044458114 0.092067964
000260 ef 52 04 3e a6 43 74 3c 18 33 b0 bd 9a b5 42 3d
       0.12922262 0.014908707 -0.08603495 0.04753647
000270 c8 2d 57 3d d1 55 dd bc 73 61 67 3d 35 f1 51 3d
       0.052533895 -0.02701846 0.05648942 0.051255424
000280 15 b4 0b bc ea ff 94 3d 74 ee 09 3e c9 92 dc 3d
       -0.008526822 0.07275374 0.13469869 0.107701845
000290 90 cf 65 3c 16 c3 8d bd 10 68 4e bd 01 c9 4d bc
       0.014026538 -0.06921975 -0.05039221 -0.01256013
0002a0 f7 3f 9b 3d a7 6d 77 3d 65 00 cf 3d b7 cf 3e 3d
       0.0758056 0.060407307 0.10107497 0.04658481
0002b0 98 f2 91 3c 03 d3 bf 3d b0 64 b6 3d cc 88 03 3e
       0.017815873 0.09366419 0.08905923 0.12845153
0002c0 5c 27 a0 3d 29 68 f6 3d 0a 23 57 3d 2a 82 a9 3c
       0.07820007 0.12031586 0.05252365 0.02069195
0002d0 0e 15 03 3e 22 72 09 3e e0 03 8b bd 1c d6 18 3d
       0.12801 0.13422444 -0.067878485 0.037313566
0002e0 1d 46 d8 3d 1b 1f f9 bc 06 f4 f1 3d 90 54 c2 bc
       0.10560248 -0.03041034 0.11814122 -0.023721963
0002f0 b2 17 a2 3d 39 df 03 3d 15 42 a3 3c f3 66 69 bd
       0.07914676 0.032195304 0.019928971 -0.056982946

bias f4 [3]
000000 15 89 b5 3d 68 6e 3d 3d 3b 07 9b 3d
       0.08864037 0.04624787 0.075697385
